machine_learning/esrgan_model_resize.pth (torch, 469962 bytes, 35 tensors)

encoder.0.block.0.weight f4 [8, 1, 3, 3]
00000000: 5742 ab3d a655 833d d6ed d63d 0c7b 90be
00000010: 8b13 55be 3c54 89bd 134f 863e 066e 6bbd
00000020: 9a57 7cbe da90 c2bd 9b64 d33d 2fec 7cbe
00000030: 659e 50be a375 2fbe ecb7 1dbe d9d2 223d
00000040: 6851 a9bd b772 aabe 411a 7fbe 3dbc 09be
00000050: 2fe7 51be 0a1f acbd fd9f 883e 3525 4e3e
00000060: 2361 7fbc a186 083e 43ad 223d eb61 b5bd
00000070: 6c03 b93d c236 f83d 0a80 863e 344b 82bd
00000080: 6dec 303e ce28 5a3d d97f b63d d1a7 083e
00000090: 3b91 10be fba6 d3bd 1717 af3e c99d a1bd
000000a0: c298 e7bd 3991 a73e bf78 10be 8d7a 8abe
000000b0: 45bd d9bd c439 973d c57c 3bbe 514c cbbb
000000c0: 3a16 543e 2183 55bd d5be 3a3d 07d4 0abd
000000d0: eeeb ca3e af80 d03d 1050 563e c1f5 26be
000000e0: 4cdf a7be ed0d 50be 148c 823c 1a1f 6bbe
000000f0: d9de 39be d724 183e 3639 983e 7eea 613e
00000100: 1337 00bd 131b 0bbd 65f6 63be 92c1 88be
00000110: 20f7 d33d b3cb 4bbe 9595 acbe b589 84be
0.08362263 0.064128205 0.10494582 -0.28218877 -0.20808236 -0.067055196 0.26232204 -0.057477973
-0.24642792 -0.095002845 0.10321923 -0.24699472 -0.20372923 -0.17134719 -0.15402192 0.03975186
-0.0826748 -0.33290645 -0.24912359 -0.13450713 -0.20498346 -0.08404358 0.2668456 0.20131381
-0.015587124 0.13332607 0.039716017 -0.08856567 0.09033856 0.12119819 0.2626956 -0.06362
0.1727769 0.05326157 0.08911104 0.13345267 -0.14117901 -0.10334583 0.34197304 -0.07891423
-0.11308433 0.32727984 -0.14108561 -0.27046624 -0.106318034 0.07384065 -0.18309315 -0.006204166
0.20711604 -0.052127007 0.045592148 -0.03389361 0.39633125 0.101807944 0.20928979 -0.16304685
-0.3278755 -0.20317812 0.015935935 -0.22961083 -0.18151416 0.14857803 0.29731148 0.22062108
-0.031302523 -0.033961367 -0.22261961 -0.26710182 0.1034987 -0.19901924 -0.33707872 -0.25886312

encoder.0.block.0.bias f4 [8]
00000000: 9ba7 31bd 0f41 fcbd 125d 46bd aa4b a0be
00000010: 313f cfbd 4aa0 e2bd b096 afbd 003d a6be
-0.04337273 -0.123170964 -0.048428603 -0.31307727 -0.10119475 -0.11065729 -0.08573663 -0.32468414

encoder.0.block.2.weight f4 [8]
00000000: 7515 7a3f 4cfb 873f bfcc 853f 3b75 833f
00000010: 274e 8a3f b71a 843f e134 813f 9798 853f
0.9768899 1.0623565 1.0453109 1.0270151 1.08051 1.0320653 1.0094262 1.0437192

encoder.0.block.2.bias f4 [8]
00000000: 3e40 c1ba d0ba 9b3a c103 98bc eaa3 733c
00000010: 1a1f aabc 5339 b53c d726 253c 6799 17bc
-0.0014743877 0.0011881236 -0.018556478 0.014870623 -0.020766784 0.02212206 0.010080061 -0.009252883

encoder.0.block.2.running_mean f4 [8]
00000000: de69 0bbb d04e e0bb 799b c33b 2707 993d
00000010: 1d34 03bb cfc2 243e fa70 43bb b4eb 07bc
-0.0021272819 -0.0068453327 0.0059694615 0.07472067 -0.0020020076 0.16089939 -0.0029821978 -0.008295942

encoder.0.block.2.running_var f4 [8]
00000000: 129c 8d35 1c08 a735 3d78 293a 23cc 7f3b
00000010: dc8a 1c38 db2b b83b ee0a 6e35 0219 ae35
1.0550741e-06 1.244483e-06 0.0006464755 0.0039031587 3.732262e-05 0.0056204624 8.8677814e-07 1.2971288e-06

encoder.2.block.0.weight f4 [16, 8, 3, 3]
00000000: bf66 a0bd fc88 9bbd fb50 b4bb d0d5 773d
00000010: ab90 d8bc 6e40 efbc dc58 233d b445 973d
00000020: 947a c23d 7edc 0e3e 4346 a03d ccb3 1b3e
00000030: 2163 c83d fa03 073c e330 7abc 88e4 1abd
00000040: ea78 c83d c89b 233e a742 813d 973d 11bd
00000050: f1ed 2e3c 6327 a83b 02bb 2dbc 534f d53c
00000060: ea3a cfbc 4afa 80bd 10f9 babc 01ff 983d
00000070: 68a6 eabc e06a aa3d 3346 86bd dcad 0fbe
00000080: fa82 a43d 3c33 a5bd c0ab 0cbe 30a2 933d
00000090: b040 143e 16bc 74bd b9ab 033e c255 2fbd
000000a0: 874e 00bc 55bc 9abc 8e59 073e 7684 57bc
000000b0: 8faf a83d e85e 0cbd 19f3 ce3c 02ec 933c
000000c0: d291 5cbd 4436 c6bc 2903 d8bd fcc6 d43c
000000d0: 9f42 3e3d 5558 86bd 37aa a63c 56da e13d
000000e0: e0bc 953d 5617 46bd a401 a83d 1232 eb3d
000000f0: 3c30 ba3d e320 e13d d3d1 ea3d 4e75 b93c
00000100: f800 a4bd e0bc c03d e582 4b3c 2f3a 7fbd
00000110: b727 f83d d990 463d dedf 2e3d 5157 fb3b
00000120: 1ebd 46bd c596 cfbc a2ba 15bd 25dd ce3c
00000130: 7e9a d7bd 6b7d 113e 2585 c13d 0376 ab3d
00000140: 79c6 933d 2137 613d 2c42 e2bd 5c7b 85bd
00000150: 202f e43c dfa4 2fbe e2f5 9c3d 3f5c 79bd
00000160: 9297 abbd 70af cabd 7b9e 123b acc6 083e
00000170: 1207 af3d 46c0 1cbc a930 97bd c1ae 0dbe
00000180: f1fe c7bd 2e83 153e c6e1 c23d a423 c53d
00000190: 5e0f f43d 4141 9c3c fca2 15bd a71d 723d
000001a0: 457b c1bd 0d82 ccbd f8be b03b ada5 963c
000001b0: cd86 a4bd 9729 5fba bacc b63d ec0b c43d
000001c0: 0254 4bbc c85c 17bc ae61 c7bd e593 5ebd
000001d0: cc57 60bd 4b8b 073e 6890 433d cf44 1abd
000001e0: b1f3 5b3d 3d58 743d e44f ab3d 6cf6 cebd
000001f0: 6a43 d13d 61c4 bcbb ba87 653d d380 07bd
00000200: 758f 0cbc 7504 a73d b5ee d1bd 6185 67bd
00000210: 9435 2d3d 92d5 183d cd9e 203e 77e7 0a3e
00000220: 1bbc 24be 6716 7a3c 9199 163d fc37 273d
00000230: 6443 693d e0fe 523d e773 a6bc 85e9 8fbd
00000240: 18cf c83d f355 aabd 322f 963c 0973 973d
00000250: 9f88 f1bd 3826 d9bc b197 b5bd 25b3 aa3c
00000260: 4cd1 133d 27f3 933d bcaf 133e dd73 debc
00000270: dbe9 f03d d347 fc3c 46d0 dc3d f619 b7bd
00000280: 0cfb 393d 4266 0d3c 4a9a 373d a253 a2bd
00000290: fdc4 98bd 9b11 eb3d 3c26 243e 5b07 d5bd
000002a0: 3e07 0d3d 067d 28be 2124 c1bd 9cd9 b43d
000002b0: b966 f63d 3360 eabb 32b6 71bc 5682 513c
000002c0: e1f6 acbd 3e4a 3cbd 7ca2 a03d 4dfb b1bd
000002d0: 0db9 74bc b2ef 003e fd5a 43bd 2ee0 be3d
000002e0: eb4d a5bd b6f6 503d 2299 31bc a8b1 253d
000002f0: 051b 4dbe 1834 f13d 43a8 b1bd fbe8 86bd
00000300: d5cf 2a3d 297e c33c dac1 4ebd 48ea 7e3b
00000310: 9cab ce3d 6be9 d03d 08b4 443d 46e2 bdbc
00000320: 0c54 c8bd f455 0b3e fe5f a73c e874 3abd
00000330: f36a bfbd 013b b4bc d449 e83d 0ef7 89bd
00000340: 4ec2 54bc 931d 17bc ffeb 533d 494a d8bd
00000350: b79b c53d ba1e 153c bab2 ff3d ed58 b13c
00000360: 54e1 ebbd 9024 50bd f100 a33b b06f 4ebc
00000370: a371 553d 7a38 abbd 5a81 ddbd e190 c8bc
00000380: b6f5 cb3d 82a4 bdbd 9017 1f3e 4061 e13d
00000390: 9589 5e3d f887 1f3d 07e6 613d 34ab 9fbc
000003a0: 58a9 1fbd 71b2 31bd 4e2f 743d 6a8e 823d
000003b0: e7fd 80bd 1595 1f3d 3abd 6b3d 0e0a 723d
000003c0: 6ce8 313d c900 1c3d c809 adbb fa29 02bd
000003d0: a4e8 1e3c f3ba a43d a5c0 033d 6e48 62bc
000003e0: dc02 a9bd e76a 89bd b372 bb3d 06eb 0fbe
000003f0: 4f7d 3b3d 9c5d 853d b156 f63d 8b5e 50bc
-0.07832097 -0.07594487 -0.0055028177 0.060506642 -0.02643617 -0.029205527 0.039879665 0.07386342
0.09496036 0.13951299 0.07825901 0.15205306 0.09784532 0.008240694 -0.015270445 -0.0378156
0.097886875 0.15977395 0.06311541 -0.035459127 0.010676847 0.0051316484 -0.010603668 0.026038801
-0.025296647 -0.06297739 -0.02282384 0.07470513 -0.028643802 0.08321166 -0.06556358 -0.14031166
0.08032794 -0.08066413 -0.13737392 0.07208669 0.14477801 -0.059749685 0.12858476 -0.042806394
-0.007831222 -0.018888632 0.13217756 -0.01315414 0.0823661 -0.034270197 0.025262402 0.018056873
-0.053850003 -0.024195798 -0.10547478 0.02597379 0.046450254 -0.06559817 0.020344837 0.110279724
0.07311416 -0.0483621 0.08203438 0.114841595 0.09091231 0.10992601 0.11465802 0.022638943
-0.08007997 0.09411025 0.012421344 -0.062311348 0.1211695 0.04847798 0.042693965 0.007670321
-0.0485202 -0.025340447 -0.03655494 0.025251934 -0.10527514 0.14208 0.094492234 0.08372118
0.0721559 0.054984216 -0.110477775 -0.065176696 0.027854502 -0.17152737 0.07664086 -0.06087899
-0.08378519 -0.09896743 0.0022372294 0.13357037 0.085462704 -0.009567326 -0.07382328 -0.13836195
-0.09765423 0.14600822 0.09515719 0.096259385 0.119169936 0.019074084 -0.036532387 0.05911031
-0.0944734 -0.09985743 0.005393859 0.018389547 -0.08033524 -0.0008512972 0.08925767 0.095725864
-0.012410166 -0.009238429 -0.09735428 -0.054340262 -0.05477123 0.1323673 0.04774514 -0.037663277
0.0536992 0.059654463 0.08364847 -0.10105595 0.10217936 -0.005760715 0.056037642 -0.03308184
-0.008579125 0.08155147 -0.10250608 -0.056523684 0.042287424 0.03731305 0.15685578 0.1356486
-0.16087382 0.01526413 0.036767546 0.040824875 0.056949034 0.0515126 -0.020318938 -0.07026962
0.09805125 -0.08317175 0.018333051 0.07394988 -0.117936365 -0.026507482 -0.088668235 0.020837376
0.036088273 0.07224112 0.14422506 -0.027154857 0.117633544 0.030795967 0.107819125 -0.089404985
0.045405433 0.008630337 0.044824876 -0.07926108 -0.074594475 0.11477967 0.1603021 -0.104017936
0.034430735 -0.16453943 -0.09430719 0.08830568 0.120313115 -0.007152581 -0.014752911 0.012787422
-0.08445526 -0.04596924 0.078434914 -0.0869051 -0.014936698 0.12591437 -0.047694195 0.09320103
-0.08071502 0.051016532 -0.010839732 0.04045263 -0.20029838 0.11777514 -0.086746715 -0.06587406
0.04170211 0.023863869 -0.05047784 0.0038896967 0.10091326 0.10200771 0.048023254 -0.023179185
-0.09781656 0.13607007 0.020431515 -0.045521647 -0.09346571 -0.022000792 0.113422066 -0.06736575
-0.012985779 -0.00922336 0.051738735 -0.10561044 0.09648841 0.009101564 0.12485261 0.021648848
-0.11517587 -0.05081612 0.0049744775 -0.012599871 0.052110326 -0.083603814 -0.108156875 -0.024483146
0.09958975 -0.09259893 0.15536332 0.11004877 0.054330427 0.03894803 0.05515101 -0.019490816
-0.03897986 -0.043383066 0.059615426 0.063748196 -0.06298428 0.038960535 0.057553507 0.05909162
0.043434545 0.038086686 -0.005280707 -0.031778313 0.009699021 0.0804347 0.032166142 -0.013811214
-0.082524985 -0.06709843 0.091527365 -0.14054498 0.0457738 0.06511995 0.12028254 -0.012717853

encoder.2.block.0.bias f4 [16]
00000000: 925c 8ebd fc9b 15bc 8e9e d43b 711a 5c3b
00000010: 7152 913c 3ea0 7ebd f08e 6bbd 97de 2f3d
00000020: f9c6 96bd 14aa 45bc ee2a 943d c9af 5a3c
00000030: b8fd e73d a2e6 c03d 9ca4 6dbd e37b dc3c
-0.0695125 -0.009131428 0.0064886278 0.0033585096 0.017739506 -0.062164538 -0.057509363 0.042936888
-0.0736217 -0.012064476 0.07234751 0.0133475745 0.1132769 0.0941899 -0.05801831 0.026914543

encoder.2.block.2.weight f4 [16, 16, 3, 3]
00000000: 0e0c 4a3d b0c5 0cbc 7faa a43b ca74 9fbd
00000010: f4dd 013d 1758 063d 4ca1 7c3d ba30 353d
00000020: da3f 4c3d f13a a13d 49f2 83bd b64f 713d
00000030: 6da0 713d 938d 8ebb a9db 95bd 7a28 9abc
00000040: e25c f3bd 8920 1e3d 9226 9b3d 85b2 8cbd
00000050: 591b 13bd 96da 0e3c 903f ad3d e227 423d
00000060: 8d13 88bd 8102 88bd 0295 e73c c6ff 893d
00000070: 2d39 50bd 8f10 a4bd 87a9 cd3d ee9b 2fbc
00000080: 909c 88bd 4da8 993d 10c1 a03d 5bed 83bd
00000090: 65f7 0e3d 603b 66bc 677d 943c 848c b9bc
000000a0: 2aca a5bd 107a b6bb 26e6 1b3d a66f 1fbd
000000b0: eea9 73bc 579d b4bc 0280 c53c 537d 773d
000000c0: cf5a 08bd 73dc b43d 05d1 963c dc12 643c
000000d0: 9dd6 b3bc 08e7 9bbc ccba 11bd ec99 0ebd
000000e0: d473 c63d f231 ae3d b402 8ebd e457 c0bd
000000f0: 43b0 cc3d 380a bc3a 008a 40bc 922d c5bc
00000100: 3e4d 0dbc 38dd 1a3d 06da ee3b e951 bdbd
00000110: f114 03bb 0e9f 5d3d c87c 92bc 2ddf 54bc
00000120: 0a34 063e bcfa 3c3c 9cd6 afbc 9dab a33c
00000130: 4e0d d5bc d8d3 4fbd aacb 833d b50f 95bc
00000140: 36d4 56bd a063 b7bd 56a2 70bc 5258 b0bd
00000150: c130 643d 29fb d9bc 0b03 33bd b382 7dbd
00000160: 5d9d 3b3b 9627 ed3c 5545 483d 55b6 ccbc
00000170: 9e3a 6d3d e42e bf3d 547b cb3d 3c63 493d
00000180: 3a68 5cbd edcf 11bd 7198 0cbc eb7a fbbb
00000190: 7510 d03b e0d7 babd 7f41 28bc 588f 85bd
000001a0: 126a f6bc ebd7 1abb 350c a73c a8d7 cbbd
000001b0: 5c63 c23d c0f6 973d 0be4 3b3c d34c 6bbd
000001c0: 3a34 383d 08c1 32bc e6df 7e3d f4c5 b53d
000001d0: 7969 793d 2ae4 1abd 4a33 b73c 8c0e b1bc
000001e0: c9dd bf3d d9d1 b3bd 7cf1 2abd d370 603d
000001f0: c7c1 75bd 4e08 903d b925 233d f8e3 f23c
00000200: 9a65 cf3d 0e29 f53c ff73 96bd 2794 0ebd
00000210: 9038 133d 90e5 78bd 1e27 403d 4354 56bd
00000220: f63f 0dbd 7249 debc b7ac 72bb aa9d 52bd
00000230: 9437 88bd 8cbf d9bc 4c20 6b3d f345 c13c
00000240: 8397 c03c 1e23 173c 4a73 f73c 9920 06bd
00000250: 43c6 acbc 4789 293d 6ae7 efbb 278a 983d
00000260: 64f3 9c3d 7417 463d 9c4f c33c 9635 89bd
00000270: 8a24 533d 34b7 6e3c 6c66 5fbd 3010 373d
00000280: 9034 a1bd f7e4 5bbd 4cc7 6d3d d1e5 d0bc
00000290: 27ce ec3c 0b2d 913d a93b 8ebd 5fb4 8dbd
000002a0: 3a58 8dbc 0454 3b3d 9099 be3d 12be c63d
000002b0: dcf9 bd3d 7f87 89bc b15b 8f3d 5413 163c
000002c0: bbd9 993d 8120 243c 2291 e93c 32b4 a7bd
000002d0: bb6a 633d 1067 f03d 67ee cebc e876 48bd
000002e0: c41e 35bd 7439 b73c ba61 14bd cf64 43bd
000002f0: 65a2 0e3d 990f ea3c 8812 713b 5c3d 1fbd
00000300: 9e8f 913c 9b9d 1dbb 563b 6dbd 4a6e 723c
00000310: 9c5e cd3d 7027 693d a829 113d 5fb1 d83d
00000320: 226e 92bd e4d8 e1bc a219 b6bc b9cf bdbc
00000330: 02ea 963d b4b0 603d e266 253d 32b5 40bd
00000340: 6baa 72bd dba5 4ebd f2aa c43d 9076 ae3d
00000350: 3823 38bd ea49 99bc 8615 263d f35b 37bd
00000360: 9e44 863d a1db cc3c e3cb 85bd cf7a 2ebd
00000370: 5afd b63d 3347 a4bb 7ae4 06bd e17d db3b
00000380: 41fd f9bc c56b 30bd cff9 9fbc 2ad5 27bd
00000390: 641b cd3d ff38 b2bc 529c 26bd 1ec9 903d
000003a0: 1654 8c3d 4740 acbc 7100 3a3d 29db 873d
000003b0: cfc6 503c 795f babc c78b 703d 19f7 95bd
000003c0: 19b1 0cbd 28a5 e43d c990 a1bd bcc3 133d
000003d0: 96f1 85bc d701 dbba 2eb1 41bd b98a ac3d
000003e0: fc24 4b3d 9f72 9a3d 6b6b b9bd 519f cbbc
000003f0: b887 8cbd e509 35bd 8297 163d 1084 733d
0.049327902 -0.008592054 0.0050252075 -0.077859476 0.03170581 0.032798853 0.061677262 0.044235922
0.04986558 0.0787257 -0.064426966 0.05891391 0.058990885 -0.004350373 -0.073172875 -0.018818129
-0.1188295 0.038605247 0.07575716 -0.068699874 -0.035914753 0.008719107 0.08459389 0.047401316
-0.06644354 -0.066411026 0.028269295 0.06738238 -0.050835777 -0.08010971 0.100421004 -0.010718329
-0.06670487 0.07502804 0.07849324 -0.06441756 0.034903903 -0.014052242 0.018126203 -0.02265001
-0.080952 -0.00556875 0.038061284 -0.038924836 -0.014872057 -0.022047682 0.02410889 0.060422253
-0.033289727 0.0883111 0.018410215 0.013920512 -0.021952922 -0.019031063 -0.035578534 -0.03481476
0.09690061 0.0850562 -0.06934109 -0.09391764 0.09994557 0.0014346307 -0.011751652 -0.024069581
-0.008624373 0.037808627 0.007289174 -0.09244139 -0.0020001496 0.054106764 -0.017881766 -0.012992662
0.13105789 0.011534389 -0.021464638 0.019979293 -0.02600732 -0.05073914 0.0643533 -0.018195966
-0.052448474 -0.08954549 -0.014687141 -0.08610596 0.055710558 -0.02660902 -0.043704074 -0.061892223
0.0028627731 0.02894954 0.048894245 -0.024989286 0.05791723 0.093351156 0.09935632 0.049166903
-0.053810336 -0.035598684 -0.008581267 -0.007674565 0.006349618 -0.09123206 -0.010269522 -0.06521481
-0.030079875 -0.0023627232 0.020391563 -0.099532425 0.094916075 0.07420111 0.011467944 -0.057446312
0.044971682 -0.01091028 0.062225245 0.08875647 0.060891602 -0.03781525 0.022363324 -0.021613382
0.09368474 -0.0878026 -0.041734204 0.054795098 -0.059999254 0.07032834 0.039830897 0.02964972
0.10126801 0.029926803 -0.07346343 -0.034809258 0.035942614 -0.060765803 0.046912305 -0.052326452
-0.034484826 -0.02713463 -0.0037029216 -0.05141989 -0.06651226 -0.026580594 0.057403848 0.023592925
0.023509746 0.009224681 0.030206341 -0.03274593 -0.021090632 0.041390684 -0.007321288 0.074482255
0.076636106 0.04836221 0.023841672 -0.06699674 0.05154852 0.014570046 -0.054541036 0.044693172
-0.078713536 -0.053685155 0.058051392 -0.02550021 0.028906895 0.070886694 -0.06944973 -0.06919169
-0.017253984 0.04573442 0.093066335 0.09704222 0.092761725 -0.016788242 0.069999106 0.009159882
0.07512232 0.010017515 0.028511588 -0.081886664 0.055521708 0.117384076 -0.025260163 -0.048941523
-0.044218794 0.022366263 -0.03622601 -0.04770356 0.03482284 0.02857189 0.0036784727 -0.038876876
0.017768677 -0.002405024 -0.057917915 0.014796803 0.10027811 0.056922376 0.035440117 0.10580706
-0.071499124 -0.027569242 -0.02222902 -0.023170339 0.07368852 0.054856017 0.04038132 -0.0470478
-0.059244554 -0.05045114 0.09602918 0.08518708 -0.044955462 -0.018712003 0.04054787 -0.044765424
0.065560564 0.025007071 -0.06533029 -0.04259759 0.08935042 -0.0050133704 -0.032932736 0.0066983555
-0.030516269 -0.043071527 -0.019528298 -0.040974773 0.1001499 -0.021755693 -0.040676422 0.0706961
0.068519756 -0.021026744 0.045410577 0.06633598 0.012742712 -0.022750603 0.058727052 -0.07322521
-0.03434858 0.111643136 -0.07888944 0.03607534 -0.016350549 -0.0016708922 -0.047288112 0.08424897
0.049595818 0.075413935 -0.090536915 -0.024856241 -0.06861824 -0.04419889 0.036765583 0.059452116

encoder.2.block.2.bias f4 [16]
00000000: c044 093c ed32 103d c81b a0bc fd04 f2bc
00000010: 9e96 6fbd e9b5 eebc b344 933d a254 93bd
00000020: ed7b c63c f230 84bd 9ddb 0cbd 3455 7e3d
00000030: 882e 30bd 4299 953b 793f 593d a79a 283d
0.008378208 0.035204817 -0.019544497 -0.029543394 -0.05849325 -0.029139476 0.07190838 -0.07193877
0.024229014 -0.06454648 -0.034389127 0.062092975 -0.043013126 0.004565389 0.053039048 0.041163113

encoder.4.block.0.weight f4 [32, 16, 3, 3]
00000000: 3878 0eb9 4b8c 59bc b7cc f7bc 9c1a a03d
00000010: f122 45bd 4818 12bd 8505 aebb 7de6 49bc
00000020: 09b3 eb3c 65b0 9aba b0f4 343d e7aa e23d
00000030: 85b0 c23c f18a 053c 1d38 da3c 6479 c8bc
00000040: d188 59bd 5225 9e3d 8f91 debc 830d 91bd
00000050: 86a7 8b3d ebe6 e13d 5770 9cbd 7123 9b3d
00000060: 49d7 993d eb74 e0bb 7f14 03bd b75f 9b3d
00000070: 7df9 cfbb 705e 993d 7997 de3d 9fd4 1c3d
00000080: 1388 ae3a b1a2 da3d 6a27 05bd 1ecc 3fbb
00000090: c21d e63c 0f3c 8c3c 47df ccbd 5187 40bd
000000a0: 6ebc 673d 709c c0b8 a3e0 12bb be8b 83bc
000000b0: 0024 18bd 631c 30bc 32bb 793d 362a 96bc
000000c0: 8cde 63bd cfbf d6bb 287a 0c3c 81bd 703d
000000d0: 3100 5fbd 7a38 b43d 644e 8fbd 0de6 8139
000000e0: 38dd f33c 127d 5cbd 588f c23c c02f 44ba
000000f0: 5a01 bc3d 1b76 69bd 3bc2 3b3d b8bd 28bd
00000100: ba81 a83d 85df 453c b1f3 17bd 8267 edbd
00000110: 90dd d63d 8672 6abd 00bf 44bd 124b a73d
00000120: 47c3 813d 94c3 c73d cd23 e4bd faca 193d
00000130: 9725 d5bc 2938 ce3c 7672 e0bc 9be7 c33d
00000140: 76f3 50bd 3db9 f4bd 74a0 5a3c de64 21bd
00000150: 16fc 98bb 04c6 163e 0928 a0bc cefd 3ebd
00000160: e584 013e c94c 99bd b9c4 993d ed29 9a3b
00000170: a1bf 5f3d 6b35 b33d 0532 14bd 1cc1 943c
00000180: 63f5 1dbd 7cef 64bd 800a 86bb 5f0e 1e3d
00000190: 2197 1cbd c688 3e3d 10b6 50bb 208d 89bc
000001a0: dac2 113d 03e8 853d bf1b 36bd 4723 913d
000001b0: 2bb9 3dbd 636d ac3b feb8 153d ced5 723d
000001c0: e1d9 333d f35d 8f3c b053 933d 3fd6 073b
000001d0: bcaa a83d 8abf 84bd 6a00 4a3c 97cc 82b9
000001e0: 954c 97bd 153a a63d 2783 813c a5a0 1abd
000001f0: 7675 773d f959 a93d 805b 77bd cdc9 3abd
00000200: ae2b 4cbd 04f6 d5bc fe8e e23c f9be 643d
00000210: 40ab c33a 3129 643d f875 45bc 3b62 7ebc
00000220: fc45 6bbd 9a19 22bd 8d6b 03bd a6b1 713d
00000230: 5c5b 17bb b2f8 a53d 03a2 3a3d ea5d c0bc
00000240: 2933 b23d 741b aa3d 5a10 68bd 4519 b23c
00000250: db79 d23d 55d1 193d 127a b8bc 181e b4bd
00000260: 8e3d 86bd 65fb 9ebd 413a 7bbd 53c9 5cbd
00000270: bbcf 5c3d 6ec8 123d 6ee0 8f3d 9957 e4bc
00000280: 5a6f bebc 127a 243d f6ad 69bd e495 b63c
00000290: 25bb 92bb 7478 aebd 0445 c1bd 3349 f2bc
000002a0: 8f25 bcbd cdf3 9ebd 3599 b2bc 3008 5ebd
000002b0: 720d 3ebd b028 0e3d 1480 733d 15ba e13c
000002c0: 592d 253d 6e45 bcbd f263 0ebd 528a 473d
000002d0: 5a4e 9fbd 4db2 223d ebfd 9f3d 24e7 8a3d
000002e0: 8613 be3c 9e76 3fbd 9bb8 3fbb caf8 e73c
000002f0: 5bbd d9bb 18c4 1f3d 4ac5 883d 0ed9 b6bc
00000300: bd1e 20bd 4c9a 1b3b 0c0c 73bd 526c 043d
00000310: 2b51 023d 6955 6abd 7fda 01bd 2795 623d
00000320: 1c83 323c 8140 42bd 6735 9b3d 7afa 07bd
00000330: 8022 bcbd 58a3 283d 0a7b 1fbd 65bc 4ebc
00000340: 1361 05bd d274 a93d c780 c43c c929 0bbd
00000350: d0c9 b93c 95e1 a43c 0b98 813d 7986 dabc
00000360: a88c 45bd f4c9 c4bc 4946 7abb 8555 b23b
00000370: 6a2b 9b3d af41 a63d 75e8 a43d 53c7 363d
00000380: c989 2bbd df16 89bd 1ec2 26bd c4ec 25bd
00000390: bd93 6a3d cf1e 8f3d 1627 f53c ab34 a4bd
000003a0: db65 993d 83e8 aabd 17a9 e6bc 1442 9c3d
000003b0: 4765 9dbc f248 19bc 179c 973d fcc0 463b
000003c0: 6eac 0f3c a2d5 c8bb ee9d 1ebd 651b 293d
000003d0: aa2d c5bc fbaf e13d fd70 14bd 8bf4 a63d
000003e0: b6c0 ab3d 3558 42bd 86df b03d f2b7 b4bc
000003f0: 7e95 a4bd 1465 a9bd 4b04 813d a544 85bd
-0.0001358696 -0.013278077 -0.030248983 0.07817575 -0.048129026 -0.035667688 -0.0053107166 -0.012323019
0.028771894 -0.0011801837 0.044178665 0.11067753 0.023765812 0.008150802 0.026638085 -0.024471946
-0.053108994 0.07721962 -0.027169017 -0.07082655 0.06819062 0.11030372 -0.076386146 0.07575119
0.075117655 -0.006849875 -0.03200197 0.075866155 -0.00634688 0.07488716 0.10868735 0.03828871
0.00133157 0.10675562 -0.03250829 -0.002926595 0.028090362 0.017118482 -0.10003524 -0.047004048
0.056576185 -9.184412e-05 -0.0022411726 -0.016057845 -0.037143707 -0.010748955 0.06096954 -0.018330675
-0.05563216 -0.006553627 0.008574046 0.058774475 -0.054443542 0.087998345 -0.06997374 0.000247762
0.029768571 -0.053830214 0.023749992 -0.0007483922 0.09179945 -0.0569974 0.04583953 -0.041196555
0.082278684 0.012077217 -0.037097637 -0.11592008 0.104914784 -0.057238124 -0.048033714 0.081686154
0.06336074 0.097541004 -0.11139641 0.03754709 -0.0260189 0.025173264 -0.02739833 0.095656596
-0.051013432 -0.11949394 0.013343919 -0.039402835 -0.004668723 0.14723974 -0.01955034 -0.046628766
0.12648351 -0.07485349 0.07508225 0.004704705 0.05462611 0.08750423 -0.036180515 0.018158488
-0.038564097 -0.055892453 -0.004090607 0.038587924 -0.038230065 0.046517156 -0.00318468 -0.016790926
0.035586216 0.06538393 -0.044460054 0.07086807 -0.046319168 0.0052620634 0.036553375 0.05928593
0.043908957 0.017500853 0.071936965 0.0020727066 0.0823569 -0.06481846 0.0123292 -0.00024947964
-0.07387654 0.08116547 0.015809609 -0.03775086 0.060414754 0.08269114 -0.060389996 -0.04560261
-0.049846344 -0.026118286 0.027656075 0.05584619 0.0014928356 0.055703346 -0.012052052 -0.01552635
-0.05743979 -0.039575197 -0.03208499 0.05900731 -0.0023095226 0.081040755 0.045564663 -0.023482282
0.08701164 0.083060175 -0.05665622 0.021740565 0.10277148 0.03755315 -0.022519145 -0.087948024
-0.065547094 -0.077627935 -0.061334852 -0.053902935 0.053909045 0.035835676 0.070252284 -0.027873801
-0.023246456 0.040155478 -0.057050668 0.02228827 -0.004477876 -0.08519068 -0.09436992 -0.02957592
-0.09186851 -0.07761345 -0.02180157 -0.054207027 -0.04639954 0.03470677 0.059448317 0.027554551
0.04032645 -0.0919293 -0.034763284 0.048715897 -0.07778616 0.039720822 0.07812103 0.06782368
0.023202669 -0.04674398 -0.002925432 0.028316874 -0.0066448874 0.03900537 0.06678255 -0.022320297
-0.039091814 0.002374309 -0.05933766 0.032329865 0.03181569 -0.05721036 -0.031702515 0.055318024
0.010895517 -0.047424797 0.07578545 -0.033197857 -0.09186268 0.0411714 -0.0389357 -0.012618159
-0.03256328 0.08274235 0.023987187 -0.033975396 0.02267924 0.020127097 0.06327828 -0.02667545
-0.048229843 -0.02402208 -0.0038188866 0.0054423236 0.0757664 0.08117997 0.0805215 0.044623684
-0.04187945 -0.066938154 -0.04071247 -0.040509 0.0572698 0.06988298 0.029925864 -0.08017858
0.074901305 -0.08345129 -0.0281568 0.07629791 -0.019213332 -0.00935577 0.07402819 0.003032743
0.008769138 -0.0061289826 -0.038724832 0.04128589 -0.024069626 0.11019894 -0.036240567 0.081521116
0.08386366 -0.047447402 0.08636384 -0.022060368 -0.08036326 -0.08271232 0.06299647 -0.065072335

encoder.4.block.0.bias f4 [32]
00000000: 0728 a83c 04da 24bc 7dcf 053d fe5a 563d
00000010: 5085 a43d 9a7c 763d 864a 863d 86e9 133d
00000020: 916d 9dbd ee5f 483d 3007 6d3d 3ddb 98bd
00000030: 0b63 6bbd f83e 19bd 3606 33bd 1efa 18bb
00000040: 0fca 8b3d 9069 aebd 4e98 503c 9c9a b43c
00000050: 359f 5fbd 80d3 873d 796d 73bd 0e89 a4bc
00000060: f7dc 2b3d 7973 153d c1d8 84bc 8b75 24bd
00000070: 1ad6 ecbc 9897 13bb c56d 16bd 16d0 733c
0.020526899 -0.010061745 0.03266858 0.05233287 0.0803324 0.060177423 0.06557183 0.036111377
-0.07686914 0.04891961 0.057868183 -0.074636914 -0.0574675 -0.037413567 -0.043707095 -0.002334244
0.06825649 -0.08516228 0.012731625 0.02204638 -0.05459519 0.06632137 -0.059430573 -0.020084884
0.041958775 0.036487076 -0.016216638 -0.04015116 -0.028910685 -0.0022520777 -0.036725778 0.0148811545

encoder.4.block.2.weight f4 [32, 32, 3, 3]
00000000: 4c23 07bd 0c92 df3c 77b7 393d f53e df3c
00000010: 0457 94bd 78b3 44bd a983 76bc c260 81bd
00000020: 90c4 74bd 4914 c13a e552 5a3b 19b3 1f3c
00000030: fea4 ed3a 9744 1c3b fbb9 d8bc 4019 613d
00000040: 9de7 13bd 5a62 59bd 1cb8 ff3c e025 1b3d
00000050: 3bb8 5ebd 9c77 1e3d a3a0 3dbc 2a10 fa3c
00000060: 6c06 3a3c 39ef 9cbc 04cd a53c 557b fabc
00000070: aa4e e0bc b80c 483d 44eb c23c d882 383d
00000080: a1c4 5e3d 692d fabb e288 83bb 60d6 363d
00000090: a4ba 4e3d af2c 16bd dc84 01bd ad56 2cbd
000000a0: cc30 193d 817b 44bd 87a0 d3bc d37d 46bc
000000b0: 8129 d5bc 307e 40bd 5601 4cbc 6d61 40bd
000000c0: 9961 4e3c 7466 5cbd dd41 073c 942b ae3c
000000d0: 5425 e0bc 3e3d d23c deb0 b0bb 2eed 6b3d
000000e0: ce77 8bbc 896b 823c 0819 d1bc bae1 8bbd
000000f0: b296 85bd e6ba 15bd bf1f 5ebd e5c2 30bc
00000100: b221 a83c 1cc8 4f39 8b7a 65bd c63d 163d
00000110: 4538 1d3d e52e b9bc 6f02 403d 993b 3d3d
00000120: 4708 b2bc 9363 b93c 0a06 e83c fb5d 2e3d
00000130: 23ca dbbc bf94 0abd 04b6 353d 7e3d a5ba
00000140: 0333 233d 10b7 8a3c 574d 36bc ddce 63bb
00000150: 1dc1 a7ba 1db3 78bd 3e3f fdbc fe0d 4abc
00000160: 73de 9fbd d838 503d 906b 0c3d 035e 52bd
00000170: fd46 2c3c ee8b 5e3d 4f6a 043d e36f 40bd
00000180: 54a7 a7bc a1f4 25bd 7909 52bd e91f 883c
00000190: 4436 ffbc c717 fdbc 1b2e cc3c 1cfd 603d
000001a0: cc74 59bd 4b36 7cbb 13c8 6abc 35a1 45bd
000001b0: 5650 97bd 304b 39bd 2bac 8abd 7b51 19bd
000001c0: 62d9 b3ba fa3b 39bd 7425 efbc 9af9 09bc
000001d0: cee0 3c3d 790b 693c afbc 003d 9953 30bd
000001e0: 5860 003d b06e b1bc 95bc 26bd f386 853b
000001f0: 6e06 1c3c ba82 6ebd f8ee 183d c1a9 14bc
00000200: 7fdd ac3b c9a8 b0bb f8b1 9abc fe30 abbc
00000210: 0fd7 12bd 9b89 3ebb 2463 423d b671 6f3b
00000220: 1a15 d2bc 57b5 363c e1bd 80bc 4368 88bd
00000230: 2af1 e73c 03b9 bc3c cc7f fb3c 6b0b 39bd
00000240: a231 e3bc ca04 dabb d019 903b 11aa 743b
00000250: dfc0 4cbd 272e 333c 1884 583d c59c ffbc
00000260: f80f b73d 18de 1b3d 6ffe 45bd 701f f23c
00000270: 9a15 873c 9d53 2ebd 19c2 143b 49a7 2dbd
00000280: cbd4 1cbd d28f 443c 711a df3c 0b85 b7bc
00000290: 511f 4f3d 8fba 36bc 7bf4 4bbd 6e7b b13b
000002a0: 31f6 96bc bb6d 03bd b980 44bd 7b14 9bbc
000002b0: 821c ad3c 5af3 073b 8683 7abc 0648 89bd
000002c0: 2320 33bd c3ac 25bc 7b58 2abd e7ad 7f3c
000002d0: 7e86 babc f5de 6cbd b0dc fcbc fa38 443d
000002e0: a891 153d fc4c 603d 24d4 c8bc f911 8f3c
000002f0: 50ae aebc ae6f 063d 7d20 ea3c d23b 723c
00000300: e61c b53a 17a4 03bd 5b7c ca3c 7b95 573d
00000310: 2e8c 27bd c6ab 143c 457a bf3b f7a2 75bd
00000320: 4d36 de3c f9bd a5bc f321 ebb9 3fe5 08bd
00000330: a6c9 68bd d2c4 5abd f53e e73c 8b19 023d
00000340: 581c 193d a6da 3fbc 76a6 84bc 5f34 a4bc
00000350: c667 3f3c 560a d13b bede 2ebd 76d3 623c
00000360: d6d9 54bd e1c5 22bd d7ad ff3b b86f 4ebd
00000370: e056 1d3d ab82 20bd 4bd5 d4b9 6a6f 323d
00000380: 9e30 cf3c b132 b8bc b4ac 5bbc 2366 c43b
00000390: 2e6f 563d 1337 53bd 84e8 b73a 11a1 ca3c
000003a0: 191d a7bb 5f42 573d 388a e83c cf7e 03bd
000003b0: 710f e2bc 20d9 653b b862 fc3c 86c7 7ebd
000003c0: 5d81 59bd 5dc2 b3bc f6b5 06bd 6a1d 493d
000003d0: 6554 5a3d a967 173d 708f 5c3d e0a9 a43c
000003e0: a33b 4fbd d602 1c3d c7e4 433d 88a2 3ebd
000003f0: dadf 493c 985c d138 bda2 99bd a437 383c
-0.032992646 0.02729132 0.04534098 0.0272517 -0.072431594 -0.048022717 -0.015046039 -0.06317283
-0.05975777 0.0014730777 0.003331357 0.00974729 0.0018130837 0.0023844594 -0.02645587 0.05495572
-0.036109556 -0.05307231 0.03121572 0.037877917 -0.054374915 0.038688287 -0.011573943 0.030525286
0.01135407 -0.019157039 0.02023936 -0.030576387 -0.02738126 0.048840255 0.023793824 0.045046657
0.05438674 -0.007634808 -0.0040141204 0.044638038 0.050470963 -0.036663707 -0.031620845 -0.042074848
0.037400052 -0.047969345 -0.025833381 -0.01211496 -0.026020767 -0.04699534 -0.01245149 -0.046967912
0.012596511 -0.053808644 0.008255449 0.021261014 -0.02736155 0.025663968 -0.005392178 0.05759924
-0.0170249 0.015920417 -0.025524631 -0.06830163 -0.065228835 -0.036555193 -0.054229494 -0.010788654
0.02052388 0.00019815605 -0.05602507 0.036680005 0.03838374 -0.022605369 0.04687732 0.046199415
-0.021732463 0.022630488 0.028323192 0.042570096 -0.026829785 -0.03383326 0.044363037 -0.0012606827
0.03984357 0.016932994 -0.011126838 -0.0034760751 -0.0012798641 -0.06071769 -0.030913945 -0.012332438
-0.07806101 0.05083546 0.034282267 -0.051359188 0.010514972 0.054332666 0.032327946 -0.046981703
-0.02046553 -0.0405165 -0.051278565 0.016616778 -0.031153806 -0.030895127 0.024924329 0.054928884
-0.0530899 -0.003848451 -0.014329928 -0.048249442 -0.0738837 -0.04523772 -0.0677112 -0.03743122
-0.0013721401 -0.045223214 -0.029192664 -0.008421326 0.046112828 0.014223927 0.031429943 -0.043048475
0.03134188 -0.021659225 -0.04070719 0.004074925 0.009523017 -0.05823014 0.037337273 -0.009073676
0.005275428 -0.0053912145 -0.01888369 -0.020897385 -0.035849627 -0.0029073718 0.04745783 0.0036536283
-0.025644828 0.011151633 -0.015715541 -0.06660511 0.028313238 0.02303744 0.030700587 -0.045176905
-0.027733628 -0.006653403 0.0043976083 0.0037332813 -0.049988624 0.010936297 0.05286035 -0.031202683
0.08938593 0.038053602 -0.04833835 0.029556006 0.016489793 -0.04256021 0.00226987 -0.042395864
-0.038288873 0.01199718 0.027234288 -0.022402307 0.050566975 -0.0111528775 -0.0497937 0.0054163253
-0.01842794 -0.03208707 -0.047974322 -0.018930664 0.021131758 0.0020744414 -0.015290147 -0.067031905
-0.04373182 -0.01011199 -0.041588288 0.015605426 -0.022769209 -0.057829816 -0.03086695 0.0479059
0.03651586 0.054760918 -0.024515219 0.017464625 -0.021323353 0.03282135 0.028579945 0.01478477
0.0013817817 -0.03213891 0.0247175 0.05263279 -0.04090517 0.009074157 0.005843433 -0.05996987
0.027125502 -0.020232188 -0.00044847987 -0.03342175 -0.056832932 -0.05341036 0.028228262 0.03176264
0.037380546 -0.011709845 -0.016192656 -0.020044504 0.011682456 0.006379406 -0.042692892 0.0138443615
-0.051965557 -0.039739493 0.0078027057 -0.050399512 0.03841293 -0.039187115 -0.00040594707 0.043563284
0.025291737 -0.022485109 -0.013407875 0.005993621 0.052352123 -0.051566195 0.0014031087 0.024735006
-0.0050999043 0.05255353 0.02838622 -0.032103356 -0.027595254 0.0035072044 0.030808792 -0.062202
-0.053101886 -0.021943266 -0.032888375 0.049100317 0.05330314 0.036964092 0.05384773 0.020100534
-0.050593983 0.038088642 0.0478256 -0.04654172 0.012321437 9.9831435e-05 -0.07501743 0.0112437345

encoder.4.block.2.bias f4 [32]
00000000: 639b 4ebd e268 85bc fca1 cebc 0495 6cbd
00000010: b99b 55bd 955f 97bc e31e fb3c 5305 6f3d
00000020: 5db6 af3c 19d3 00bb 0f7b 7ebd 13b7 e83c
00000030: b54b 21bd 1c99 863c 1b0e be3c 7663 16bc
00000040: 88b1 47bc 2dce 7bbb eb5c 05bc 642b 8e3c
00000050: 05a4 433d c73b ca3c 71fb d6bc c8cf 4e3c
00000060: 8554 a1bc fe59 99bc 2792 513d b047 fd3c
00000070: 001e 1e3c 8707 9bbc 9d01 59bd 5357 57bd
-0.050441157 -0.016285364 -0.025223725 -0.0577593 -0.05215046 -0.018478194 0.030654376 0.058354687
0.021449262 -0.0019657074 -0.062129077 0.02840761 -0.03937884 0.01643043 0.023200085 -0.009178987
-0.012188323 -0.003842245 -0.008139829 0.017354675 0.047763843 0.024686707 -0.026242943 0.012622781
-0.019693622 -0.01871967 0.051164772 0.030917972 0.009650707 -0.018924488 -0.052980054 -0.052573513

encoder.6.block.0.weight f4 [64, 32, 3, 3]
00000000: 132b b83b cdfc a4bc bfa0 1a3d 4ff8 4e3d
00000010: 3530 cabb f4dd 9d3c 7358 373d 2fa4 97bc
00000020: 99ca 17bd dc90 a03c f202 5fbd 0634 6e3d
00000030: 593e 7f3c 6658 c43c a94c 29bb aab9 20bd
00000040: 8d4b 833d c438 bebb 29c1 22ba c439 0c3c
00000050: 2971 fbbc 2f29 4f3d c769 f2bc 37b4 7f3d
00000060: e27a 233c b140 b6bc 9a43 5e3d 5299 b53c
00000070: 253d 9f3c 6e32 daba 17b2 8ebc 26bf 08bd
00000080: a97a 8d3d b564 903b 147f 883d d1f1 d7bc
00000090: da5b 9bbc e634 8a3d eea9 30bb e7df ccbc
000000a0: 2ebb 5b3d 9a42 39bd 5e81 a53c 5b67 553c
000000b0: 414b d5bc af5d 0b3c 57a2 2e3c 2fd0 973c
000000c0: 264c cb3c f62e 53b9 0444 6abd 89a2 323d
000000d0: e150 533c 8cd5 a23d 831b 9b3d 432f 9fbc
000000e0: ae3c 63bd ef02 b7bc ecac cabb 73c0 793d
000000f0: 4eaf 3b3d 43e7 02bd 8da2 763d 77c2 a7bc
00000100: 8927 5a3d cdad 4b3b a280 e4bb 9acd 933d
00000110: c3d1 82bb 6cba 463d bdd8 c73c 786c 0ebd
00000120: 9d3a afbd 2b1c 9c3d e55e b5bc f837 04bd
00000130: e339 a1bd 5c46 4abd 0a2f 2dbd 5e24 c43c
00000140: 0418 c3bc 6520 323d 83ee 38bd 1661 71bd
00000150: d1b4 4bbc 7ed5 1ebd 2e3b 273c 5461 52bb
00000160: 724c 073d 5a36 5fbc 1b71 f4bc 8d5f 6ebd
00000170: b8c5 f4bc 000d 39bc 73b0 a93c 6407 91bd
00000180: 80ed 96bd cb5c 69bd 7648 acbc 3ed8 9f3d
00000190: 9138 323d 486c ef3c 43dc b4bc 0972 82bc
000001a0: 38d2 bb3b d663 843c bb5d 31bd c634 593b
000001b0: b80d e33b 9dab 323d b462 313b 64f3 453d
000001c0: af0d 10bc ba7b 843d c7a5 483d 12f4 ee3c
000001d0: 90f7 f33b e6aa 2dbd 6456 863c 6f71 c53c
000001e0: c780 4abc 27f1 4fbd 0f32 173d 59f6 3cbd
000001f0: cf32 57bd a0b1 ba3b 742e 7d3d 8b3d 35bd
00000200: f064 883c bc73 2ebd b648 ef3c 944a 173d
00000210: 7749 e33c f909 133d 5686 d9bc 9f88 deba
00000220: aa70 50bd e705 8b3d d818 31ba 3e66 59bc
00000230: 6626 3ebd c3f5 83bd 4d39 9dbd 9179 7e3c
00000240: 4bb5 91bc 1e4a 16bd 1759 b53c 4c23 86bd
00000250: 3dcd 20bd e173 003d 40c0 17bc 8671 eebc
00000260: de90 083a d2b3 52bd 5223 2bbd 76c5 81bc
00000270: d0cd 5d3d beaa 153d 945c 37bd 0c58 7db9
00000280: 7487 08bd 0b51 d63c 3d6e 133d 38ec 903d
00000290: 881e a0bb 20ee d1bc 946b 343c b8ae 713d
000002a0: e5b2 03bd b052 513d 865b abbc 2b78 48bd
000002b0: 5818 96bc 56e4 143d 3ed5 e03c 5971 5dbd
000002c0: c829 e53c bac8 c53c 4433 a03d c88f 493d
000002d0: c97d c6bc f831 573d acc6 33bd 5876 693d
000002e0: 2a64 5abb e508 86bd b042 d5bc 5ce0 24bd
000002f0: 4136 ccbc a157 3e3c b4dc dd3c 574e e63c
00000300: 04eb 02bd 3197 3a3c 33bc 863d c16c 12bd
00000310: a42b c9bc 90ad 1b3b f097 863d 8c0c 9abc
00000320: 2afb 893d 3d9e 0dbd 6eb0 cf3d 92c4 bd3b
00000330: 64b0 eb3c 25f3 d03c 4c48 40bd aa25 9f3c
00000340: f0ac 513d d581 99bb 4d54 103d 3923 1d3d
00000350: efd1 8fbd f46c 2abc 4442 a83c 6149 18bd
00000360: 537b 733d b987 773c a0a6 273c 3899 f33c
00000370: 2cbf 133c dd07 7fbc 8053 b03c 3317 33bc
00000380: 08b4 163d 67e4 133c 734f 03bc fe34 013d
00000390: accc 023d c7de 4b3d 1389 51bd 3bbb 853c
000003a0: d90a 47bc a869 633a 97ca 873d f8ac 0b3e
000003b0: 53dc 2f3d c1b4 2c3d 5241 babc bd8d d1bb
000003c0: d939 a53d 3ac3 28bd 522b ad3c fa11 eb3c
000003d0: 14bf 68bd 804e 2e3c 80f2 813b b9ce 363c
000003e0: ac03 88bd d5ac f33b 1beb b83c cebf 43bd
000003f0: 56e4 1a3d 6754 363d f324 af3c ddde 0dbc
0.005620369 -0.020140076 0.037750956 0.050529774 -0.0061702975 0.019270875 0.044762086 -0.018510906
-0.037058447 0.019600324 -0.05444617 0.058155082 0.01557883 0.023967933 -0.0025833047 -0.039239563
0.064108945 -0.005805107 -0.00062085927 0.008558694 -0.030693607 0.050576385 -0.029591454 0.062427726
0.009978028 -0.022247644 0.05426369 0.022167835 0.019438336 -0.0016647109 -0.017418904 -0.03338542
0.06908161 0.0044065365 0.06664863 -0.026360424 -0.018964697 0.06748371 -0.0026956755 -0.025009109
0.053645305 -0.04522953 0.020203289 0.01302513 -0.02603686 0.008506223 0.010658822 0.018531887
0.024816584 -0.00020140022 -0.05719377 0.043612037 0.012897701 0.07950887 0.07573607 -0.019431716
-0.05547779 -0.022340266 -0.0061851647 0.06097455 0.04582148 -0.03195883 0.060213614 -0.02047847
0.05326036 0.0031078935 -0.006973342 0.0721695 -0.0039922907 0.04851763 0.024395341 -0.034771413
-0.085561015 0.0762256 -0.022139976 -0.03227994 -0.07872369 -0.049383506 -0.042281188 0.023943122
-0.023815162 0.043487925 -0.045149338 -0.05893048 -0.012433247 -0.03877782 0.010206981 -0.003210147
0.03303189 -0.013623798 -0.02983909 -0.058196593 -0.029879436 -0.011294603 0.02071402 -0.07081488
-0.07369518 -0.05697326 -0.021030646 0.07804917 0.043510977 0.029226437 -0.022077685 -0.015923517
0.005731847 0.016160887 -0.04330228 0.0033143028 0.0069291256 0.043620694 0.0027066888 0.04832782
-0.008792325 0.064689115 0.048986223 0.029169116 0.0074452832 -0.04239931 0.016398616 0.02410194
-0.0123598045 -0.05076709 0.036912974 -0.046133373 -0.05253869 0.005697444 0.06181188 -0.044248145
0.016649693 -0.04259084 0.029209476 0.036936358 0.027744992 0.035898183 -0.026553314 -0.0016977972
-0.050888695 0.06788235 -0.0006755716 -0.013269005 -0.04642334 -0.0644336 -0.07676945 0.015531913
-0.017786643 -0.036691777 0.022137208 -0.06549701 -0.03925823 0.03136051 -0.009262145 -0.029106867
0.0005209575 -0.05144102 -0.04178173 -0.015841227 0.054151356 0.036539786 -0.044766024 -0.0002416076
-0.033332303 0.026161691 0.035993803 0.07076305 -0.004886452 -0.025626242 0.011011977 0.059004515
-0.03215303 0.051104248 -0.020917665 -0.048942726 -0.018322155 0.03635057 0.027445432 -0.054063175
0.027974024 0.024143565 0.07822278 0.049209386 -0.0242299 0.05253789 -0.04389064 0.056997627
-0.0033323863 -0.06544665 -0.026032776 -0.04025303 -0.024928214 0.011617572 0.027082779 0.028113527
-0.03196241 0.011388586 0.06578865 -0.035748247 -0.024556942 0.0023754574 0.065719485 -0.018804811
0.06737359 -0.034574736 0.10141073 0.0057912553 0.028770633 0.025506565 -0.046943948 0.01942714
0.051190317 -0.0046846666 0.035236645 0.03836367 -0.070224635 -0.010401953 0.02053941 -0.037179355
0.059443783 0.015108042 0.010232598 0.029736146 0.009017747 -0.01556584 0.02152419 -0.010930824
0.036792785 0.009026623 -0.008014548 0.031544678 0.03193347 0.049773004 -0.051156115 0.01632463
-0.012148582 0.0008675107 0.06630438 0.13640201 0.042934727 0.042164568 -0.022736225 -0.0063950703
0.08067674 -0.041201808 0.02113882 0.028695095 -0.05682285 0.010638833 0.003965676 0.011157685
-0.06641325 0.0074363747 0.022573045 -0.04779034 0.037815414 0.044514086 0.021379923 -0.008659092

encoder.6.block.0.bias f4 [64]
00000000: b469 eaba e883 393c 2fc7 0b3d 432b 273d
00000010: 6658 833d 62c6 423d cf98 34bd c668 b23c
00000020: 0297 843d 9079 73bd 1124 f33c 4f64 6b3c
00000030: 9f50 cebc 6ed4 733d ee5e 70bc 596e 06bd
00000040: 89ba 293d e505 23bd c756 343c 4057 253d
00000050: 579e 053d 4c53 c93b cb3e 743c 7ddf b9bc
00000060: 05ce 293d 2ee7 cf3c e028 863c b753 d4bb
00000070: 97cd cabc dc5d 02bd 212c 643b cdfb f53c
00000080: 969d 173d 4916 31bc d03c d1bc 1761 163d
00000090: 5c0a 13bc 3447 593d f8a9 7fbc 86da 7fba
000000a0: 4d5b af3c eb2f 123d 9c02 c7bc 8f6c 773c
000000b0: a303 2c3c b92e 12bd 51dc 2bbc 27c8 2abb
000000c0: b6b3 09bd 6e3e 1b3d 9eaa e33b 6613 2cbd
000000d0: 3f6a ec3c ac56 973b 96b2 4a3d 7862 3ebd
000000e0: f91f 65bd 5b9e 113d cf16 c5bc 1092 aebc
000000f0: 94c7 393d ad3c e5bc ca97 00bd e7a1 7ebc
-0.0017884285 0.011322953 0.034125503 0.040812742 0.06413345 0.047552474 -0.044091042 0.021778475
0.06474115 -0.059442103 0.029680284 0.014367177 -0.025184928 0.05952876 -0.0146710705 -0.03282008
0.04143766 -0.039800543 0.011007017 0.04036641 0.032621708 0.006143963 0.014907549 -0.022689575
0.04145624 0.02537879 0.016376913 -0.006479706 -0.024756236 -0.031827793 0.0034816342 0.030027295
0.03701552 -0.010808536 -0.025541693 0.036713686 -0.008974638 0.05304642 -0.015604489 -0.00097600406
0.02140584 0.03569023 -0.024293236 0.015101566 0.010498914 -0.03568909 -0.010489539 -0.0026059241
-0.03361865 0.037901334 0.0069478294 -0.042010687 0.028859256 0.0046184864 0.04948672 -0.046480626
-0.055938695 0.03555141 -0.024058728 -0.021309882 0.04535635 -0.027983034 -0.031394757 -0.01554153

encoder.6.block.2.weight f4 [64, 64, 3, 3]
00000000: a810 ca3c 8b27 99ba c8c4 99bb bd0e eb3c
00000010: e948 1f3d 392a 8a3c a713 09bd 95ab 313c
00000020: 11aa 5c3b 63bc db3c 0fe8 16bd b132 ad3b
00000030: c30e 1dbd c7b2 2b3d 031f 173d 2450 b23b
00000040: 7ae5 153d 406d 153b e370 24bc 43b9 e43c
00000050: 7540 823c 76f7 2fbc 986a 8b3c fa93 07bd
00000060: 09a8 2f3c e4bb 963a 92a1 933b 0230 3cbc
00000070: 94f0 3abb 5d1f 3bbc 61b5 3d3d 60e0 9bbc
00000080: a738 10bd db64 1f3c 8112 f53c 3abe c3bc
00000090: 3df8 f53c 620e 703c 1ffb 9d3b 559c 3b3d
000000a0: a8ee 91bc aad6 54bd 4f70 febc 723e 5fbc
000000b0: 65b0 2e3b 40c7 b8bc 8f5c 873b 2802 ba3c
000000c0: 3e12 ad3c bae1 6ebb db3c c5bb 6b1f 1dbd
000000d0: 3ad5 2abb 529b 943c e20d 5bbc d968 463d
000000e0: 3905 b43c 235c e83c 4f59 1cbd a3a2 223d
000000f0: ff5e 233d ed47 613c b68a 51bc c28b 0e3d
00000100: 4514 3bbd 2325 833c 89a0 bb3c 7775 d93b
00000110: 03e4 beba 7ee2 ad3c fe28 91bc 2c58 2c3d
00000120: 0449 7ebc 92bf 1c3c 1a86 8f3a 579b 2dbd
00000130: a914 09bd ff6f 6e3c af1f d9bc 3851 4d3d
00000140: 4b5d 1bbd 7557 cabc c8b5 093b 0752 713a
00000150: b560 b23c 3e8a bc3b d9f5 32ba 1393 6b3c
00000160: e15d 1cbc 0341 51bc 54d3 f6ba ad59 e7bb
00000170: 4cac 713c 7680 6abc acb4 943a d02b 723c
00000180: be20 3dbb cba3 1d3d e9dd 0d3d 955b 10bc
00000190: 99a0 703c aae7 ebbc c37e eebb 246e b23c
000001a0: b75e aabc fe55 ea3b 2df7 713c f415 babc
000001b0: f7f7 433d 5cba b93c 8815 b5ba 077f 2abd
000001c0: dd6d e83c 7785 55bc 8320 273d 89f2 dcbc
000001d0: 527f 233d 8599 883b 2dbc c9bc c999 afbc
000001e0: b3ab ea3c 9e3b 903b 326c b43b 5ddd cabc
000001f0: b9b8 1e3d 7424 ffbc 0b1e b33c 923a 3ebd
00000200: 2039 8d3c dcf3 26bd 233a 62bd 26dd 8d3b
00000210: 2c85 03bd 8ec3 163c b9aa 9f3c a4da 6cbd
00000220: c89a a1bc 3b24 9fbc 775b 833b a115 173d
00000230: 9caa 01ba 768f 343d 0b9a 943c 2af1 8d3b
00000240: 684e acbc 5310 9c3c e5b2 3b3d d26d a53c
00000250: 69bd 543c 1943 043d ac97 a33c 6fe6 71bd
00000260: 5ad2 d0bd 6410 f5bc d27e d6bc c548 d0bc
00000270: d895 01bd 5c18 4abc fe9f febc eb56 233d
00000280: 0c16 663c 5018 15bd 4ca8 21bc c8d8 e1bb
00000290: e341 30bd 3d01 17bb 3fc2 803d ef43 f93c
000002a0: 0e4a 223d c4f0 2d3c ac12 4dbb 8076 91bc
000002b0: 3cc9 dabc ec57 07bc f394 58bc 179a f03c
000002c0: b7e9 6fbb 4b66 033d b4ff f13c 921c b13c
000002d0: 9d62 ecbc 722f 60bc 0eed 87bb 75aa db3c
000002e0: 164b 90bc 5cd3 93bc e6c8 363d ae92 7abc
000002f0: a079 bcb9 95fc d0bc 40b8 edbc ba6a 27bc
00000300: 497b bcbc 3da4 35bd 0bf6 14bd 3275 9dbc
00000310: 145f 58bc 98e4 3bbc 28e7 94bc 9176 633d
00000320: 97cb 953b 731d f23c 4514 b0bc a5ed b33c
00000330: ec97 913c 0d4e 0dbc fe49 6fbb 7d42 d0bc
00000340: 7b67 6bbc 33f8 a4bc e11e ddbc 88f6 5f3c
00000350: a9fb ac3b c31e 233d c282 853c ef87 3cbc
00000360: 5854 2abc 03fe ab3b 1bd5 b73c 4983 c53c
00000370: 20c6 03bc ddf9 453b 1e46 5f3d 6fac 37bd
00000380: 04b6 aabc c4de d5bc 120a 913c 2052 093d
00000390: b1b6 abbc a55f 39b8 5113 a73b 91b6 0c3d
000003a0: 3615 8abc b5ea ecbc cd0d 8bbc 763d bcbc
000003b0: 613e 15bd ef07 3f3d 377a 033d e3e2 a43c
000003c0: 992f e73c 0645 bd3c 9b92 06bd 67bb 8ebc
000003d0: 1b95 92bc 9f7e a5bc 73ab fcbc 60ff 3b3d
000003e0: 781a 2e3d 6138 8fbc c7de 3cbc e8bc e8bb
000003f0: e5a4 2c3d aa12 0bbd 01f7 27bb 10f7 e7bc
0.024666145 -0.0011684758 -0.0046926476 0.028693551 0.038887892 0.016865836 -0.033466008 0.010844131
0.0033670703 0.026823228 -0.036842402 0.005285584 -0.038344156 0.041918542 0.03689481 0.0054416824
0.0365958 0.0022800714 -0.01003668 0.02792037 0.015899876 -0.010740152 0.017018601 -0.033100106
0.010721215 0.0011500088 0.0045053447 -0.011486055 -0.0028524743 -0.011421052 0.046315555 -0.019027889
-0.035210278 0.009728636 0.02991605 -0.023894418 0.030025596 0.014651867 0.0048211957 0.045803387
-0.017813995 -0.051962532 -0.031059412 -0.013625728 0.0026655432 -0.022555947 0.004130907 0.022706106
0.021126863 -0.0036450461 -0.0060192174 -0.03836004 -0.0026067034 0.018140469 -0.013370009 0.048439834
0.021975147 0.028364247 -0.03817111 0.039705884 0.039885517 0.013750059 -0.012789419 0.034801252
-0.045673627 0.01600892 0.022903698 0.0066363174 -0.0014563802 0.021226164 -0.017719742 0.042076275
-0.015520338 0.009567158 0.001095 -0.04238447 -0.03346697 0.014553069 -0.026504366 0.050126284
-0.037930768 -0.024699906 0.002101289 0.00092056434 0.02177463 0.0057537844 -0.0006826795 0.014378327
-0.009543867 -0.012771848 -0.0018831291 -0.0070602507 0.014750551 -0.014312854 0.0011345348 0.0147809535
-0.0028858627 0.038486283 0.03463546 -0.008810897 0.014686727 -0.02879699 -0.007278295 0.021781035
-0.020797117 0.0071513643 0.014768404 -0.022715546 0.0478439 0.02267187 -0.0013815621 -0.04162505
0.0283727 -0.013032309 0.04080249 -0.026971119 0.039916344 0.0041686916 -0.024625862 -0.021435635
0.028646326 0.004401638 0.005506062 -0.024763757 0.038750384 -0.031145312 0.021864912 -0.046442576
0.017239153 -0.040759906 -0.055231225 0.0043293415 -0.032109424 0.009201897 0.019490587 -0.0578257
-0.019727126 -0.019426456 0.004008706 0.03688586 -0.0004946382 0.044082128 0.01813986 0.0043317275
-0.02103348 0.019050753 0.045824904 0.020193968 0.012984612 0.03229055 0.019969784 -0.05905765
-0.101963714 -0.029915042 -0.02618352 -0.025425324 -0.031637043 -0.012334909 -0.03108215 0.039877813
0.014043342 -0.03640014 -0.009866785 -0.0068922974 -0.043031584 -0.002304151 0.062870495 0.030427901
0.039621405 0.010616485 -0.0031291647 -0.0177567 -0.026707284 -0.008260708 -0.013219106 0.02937035
-0.003660781 0.032079976 0.029540874 0.021620069 -0.028855616 -0.013683187 -0.004148132 0.026814679
-0.017613929 -0.01804512 0.044625185 -0.01529376 -0.00035948772 -0.025511065 -0.029018521 -0.010218317
-0.023008006 -0.044346083 -0.036367457 -0.019220922 -0.013206262 -0.011468075 -0.01817663 0.055532996
0.004571389 0.029555058 -0.02149404 0.021963904 0.017772637 -0.008624566 -0.0036512609 -0.02542233
-0.014367933 -0.020137882 -0.026992263 0.0136696175 0.0052790237 0.03982426 0.016297702 -0.0115070185
-0.010396086 0.0052487864 0.022440484 0.024110453 -0.008042842 0.0030208745 0.05451023 -0.04484218
-0.020838745 -0.0261072 0.017704997 0.033525586 -0.020961137 -4.4196513e-05 0.0050987382 0.034353796
-0.016855817 -0.02892051 -0.016974354 -0.022978526 -0.036436442 0.046638425 0.032098975 0.02012772
0.028220939 0.023104202 -0.032854658 -0.017423345 -0.017893365 -0.02020198 -0.030843472 0.04589784
0.04250571 -0.017482938 -0.011527724 -0.0071025975 0.042149443 -0.033953346 -0.0025629404 -0.02831605

encoder.6.block.2.bias f4 [64]
00000000: aa05 213d 11ec 103c 1424 4d3c 6617 133d
00000010: b63e c43c 7b26 273d 1d2d 0b3c 9511 fb3c
00000020: d124 0fbd 2247 8239 a5e1 113a c630 d03c
00000030: 3d7b 0d3d 87fa b5bc 5c56 3b3d 38c7 afbc
00000040: dac2 28bd eed8 f43c 0ed1 01bc c0f4 fdbb
00000050: 9e10 2c3d f68c 043d b0bd 5ab8 c1b6 1b3d
00000060: b545 003b 099d c03c b54b 073d def1 2f3c
00000070: 8f97 17bc d77c e9bc 93c0 61bc 2041 1a3b
00000080: 02f9 033c d316 e1bb e9a0 723a 1704 e2ba
00000090: a9c4 7e3c 34b9 9d3c b49f 193d 34c4 4e3b
000000a0: e166 0b3d a3a1 183c 3ecc c83b 203b 8bbc
000000b0: 4a14 02bd 4827 f9bc 9ca8 ffbb 3140 14bd
000000c0: 7c9b c53c 7246 873c 0a60 8e3c 2076 0a3c
000000d0: edc8 e2bc c119 f83b 0233 6238 2539 fd3c
000000e0: 224c a63c 399f 0abc 33bc ee3b 3fcd 0bbd
000000f0: 142a 663c d936 e8bc db1d 163d 46dc 07bd
0.039312042 0.008845345 0.012520809 0.035910986 0.023955684 0.040808182 0.008494643 0.030648032
-0.03494722 0.0002484853 0.00055649347 0.025413882 0.034541357 -0.022214187 0.045736656 -0.0214573
-0.04120145 0.029888596 -0.007923378 -0.0077501237 0.042008035 0.032360993 -5.215191e-05 0.038016085
0.0019572799 0.02351238 0.033031184 0.010738818 -0.009252443 -0.028501911 -0.013778823 0.0023537353
0.008054974 -0.006869176 0.0009255545 -0.001724365 0.015549817 0.01925335 0.03750582 0.0031550052
0.03403366 0.009315881 0.006127863 -0.016995966 -0.03175763 -0.030414239 -0.007802082 -0.03619403
0.024121992 0.016513083 0.01737978 0.008451015 -0.0276837 0.0075714295 5.3930104e-05 0.030911038
0.020299975 -0.008460813 0.0072856187 -0.034131285 0.014048118 -0.028346466 0.036649566 -0.033169053
