machine_learning/esrgan_model_all.pth (torch, 469845 bytes, 35 tensors)

encoder.0.block.0.weight f4 [8, 1, 3, 3]
-0.25137785 -0.18551351 0.25672823 -0.2977379 -0.044129383 -0.31597456 0.35086724 0.30657995
-0.06746841 0.20330462 -0.07437739 -0.16289876 0.045734562 0.15260962 -0.27911595 -0.2868026
-0.20343347 0.075173244 -0.33802798 -0.094384596 0.07297501 -0.023236908 -0.03897798 -0.13058862
-0.3154457 0.17479736 0.059756923 -0.32827663 -0.23858038 -0.059492495 -0.22504738 0.16994685
-0.104746394 -0.19149831 0.101822324 -0.029750288 0.2763538 0.25015578 0.079063915 0.2799511
0.13311973 -0.03531683 0.013307122 -0.109498404 0.26125196 -0.015872577 -0.20496218 0.32846257
0.23290719 -0.010499435 0.09968304 -0.21101205 -0.061798383 -0.30874375 -0.3282716 -0.06167664
-0.35206676 -0.016224219 0.27619705 -0.08413847 -0.15930988 0.17144515 -0.25686443 0.13306922
0.3060892 -0.1794921 0.16617107 -0.12617701 0.05540455 0.18203782 -0.026437707 -0.08832448
00000000: 99b4 80be 41f7 3dbe e271 833e 1a71 98be
00000010: 03c1 34bd 6bc7 a1be dfa4 b33e 0cf8 9c3e
00000020: e12c 8abd 162f 503e 2c53 98bd efce 26be
00000030: 2a54 3b3d b245 1c3e 49e8 8ebe cad7 92be
00000040: dd50 50be 6ef4 993d 0112 adbe b64c c1bd
00000050: ec73 953d 545b bebc 60a7 1fbd 06b9 05be
00000060: 1982 a1be 14fe 323e adc3 743d e013 a8be
00000070: 6a4e 74be 67ae 73bd d272 66be 8c06 2e3e
00000080: 4785 d6bd 2218 44be 3988 d03d e0b6 f3bc
00000090: 3f7e 8d3e 6b14 803e 43ec a13d c055 8f3e
000000a0: 8a50 083e 61a8 10bd 1d06 5a3c b340 e0bd
000000b0: d1c2 853e 3507 82bc 9be1 51be 3f2c a83e
000000c0: 397f 6e3e d205 2cbc 9f26 cc3d 8b13 58be
000000d0: 4d20 7dbd a913 9ebe 3713 a8be a5a0 7cbd
000000e0: 1842 b4be a7e8 84bc b369 8d3e ca50 acbd
000000f0: 2122 23be 518f 2f3e bc83 83be 4c43 083e
00000100: b9b7 9c3e c7cc 37be c028 2a3e 8c34 01be
00000110: e2ef 623d 1f68 3a3e e493 d8bc 77e3 b4bd

encoder.0.block.0.bias f4 [8]
-0.19025832 -0.07252147 -0.298931 -0.268511 -0.12565449 0.038276654 -0.21730404 0.2924992
00000000: 14d3 42be 2386 94bd 7c0d 99be 467a 89be
00000010: 92ab 00be fbc7 1c3d f384 5ebe 75c2 953e

encoder.0.block.2.weight f4 [8]
1.0087976 1.0268881 1.009573 1.0129932 1.0155948 1.0195032 1.026762 1.0171223
00000000: 4820 813f 1271 833f b039 813f c3a9 813f
00000010: 03ff 813f 157f 823f f06c 833f 1031 823f

encoder.0.block.2.bias f4 [8]
0.0038654702 0.00432727 -0.00963288 -0.009246725 0.0058055324 -0.0010224091 0.010647844 0.014105671
00000000: d453 7d3b c6cb 8d3b 3ad3 1dbc 937f 17bc
00000010: 563c be3b 5b02 86ba 4b74 2e3c 791b 673c

encoder.0.block.2.running_mean f4 [8]
-0.0031447706 -0.003338063 -0.0061149006 -0.0071617295 0.4439273 0.013684781 -0.006164005 0.5010394
00000000: 7f18 4ebb 67c3 5abb 815f c8bb f1ac eabb
00000010: 704a e33e 2236 603c 6cfb c9bb 1e44 003f

encoder.0.block.2.running_var f4 [8]
1.0625138e-06 1.2182148e-06 6.405817e-07 9.2040176e-07 0.01136765 0.0011526297 1.0688373e-06 0.004427473
00000000: b29b 8e35 8b81 a335 70f4 2b35 8711 7735
00000010: 613f 3a3c d613 973a f874 8f35 5614 913b

encoder.2.block.0.weight f4 [16, 8, 3, 3]
-0.05534812 0.05088591 0.09111482 0.06843014 -0.09548353 0.11361296 -0.025649302 -0.01947967
0.06195224 0.03151872 0.062202256 -0.12959771 -0.12517656 -0.07204509 0.092333354 0.09101846
0.054928623 -0.021127546 -0.07187143 0.056669097 -0.063867845 -0.055399723 -0.095262 0.0070897033
0.01000267 -0.061608035 -0.13932452 0.06125177 0.03174594 -0.090818204 0.059021857 -0.11146929
-0.0986901 -0.08635715 0.0008816714 -0.1238673 0.0035008087 0.1131153 0.12359281 -0.03819186
0.0045209005 -0.07173052 0.12197718 0.07366535 0.030363223 0.0046858587 -0.06884289 -0.08925604
0.041201387 -0.07217232 0.038716596 0.095340565 0.045619655 -0.0862402 0.052635435 -0.09941915
0.12641947 -0.0998552 -0.1234205 0.032198604 -0.09730913 -0.06521899 0.105119035 0.0800007
-0.07884303 0.010529186 -0.021831755 0.10707054 0.09260334 -0.09985095 0.054998234 0.052165482
-0.027960382 -0.012472314 -0.09719166 -0.017419212 0.04022039 -0.04638826 -0.046010114 0.021221934
0.08594768 0.06461635 0.08058655 0.015558132 -0.08663285 0.019714845 -0.0735337 0.08599084
0.015043352 0.08160834 0.104495935 0.0016520016 0.14458397 0.04821212 -0.10289784 -0.0056415624
-0.09714914 -0.08806474 -0.022959592 -0.038876455 0.03854863 -0.06242325 0.06896852 0.058031663
-0.04209525 0.01323166 0.07276131 0.012568144 -0.025176154 0.011802186 0.06927337 -0.068572894
0.021970173 0.06742201 0.13055146 -0.025382372 -0.071098514 -0.036364596 -0.05415236 -0.099513724
-0.09858209 0.048424035 0.04137408 0.11034307 0.01677093 0.048635773 -0.04568957 0.121148005
0.031981595 0.13286594 -0.067764506 0.029246511 0.11696593 -0.09435149 0.14889997 0.016020322
-0.0034301826 0.03724595 -0.03255274 0.047107317 0.043390013 0.00618388 0.041336134 -0.13370699
0.09354184 -0.054633006 -0.08436546 0.024251364 -0.027831519 0.040905975 0.04234121 0.0031962215
0.14274184 -0.098510034 0.030602915 -0.08661029 0.053198975 0.15849109 -0.008393472 0.06737334
0.09673322 0.027638761 0.06582774 -0.0013475622 -0.054124143 -0.03552364 0.064489 0.029313138
-0.08335204 0.04502821 0.12871888 -0.036345355 0.014173435 0.08432904 0.08402867 0.08633948
0.07077438 -0.07566123 0.087132744 -0.022908803 0.10752518 -0.07993319 -0.03390099 0.100242555
-0.05502444 0.032963745 0.09766378 0.051186502 -0.13122395 -0.06301374 -0.12251548 0.10175367
0.02650479 0.10081381 0.111950815 -0.0633118 -0.01753159 -0.00999458 0.082221776 -0.054638036
-0.06759087 0.03235868 0.022963382 -0.024385689 0.026861565 0.117192976 -0.029866995 0.0036257803
0.0002194042 -0.08833052 0.053169172 0.021628233 0.027426839 0.07445113 -0.07066105 0.0698288
-0.008560543 0.08824049 0.07983232 -0.026137577 -0.09962562 -0.057340574 -0.071851924 0.03911626
-0.003949579 0.09472769 -0.045383323 0.08247048 0.0062211473 0.0781115 0.036953412 0.07900281
-0.09993083 0.085407704 0.040321875 -0.049526475 0.052230097 0.09916364 0.020360546 -0.029219868
0.047848884 -0.039059095 -0.07083781 -0.051997785 0.05863511 0.07905349 0.08607439 -0.086104415
0.043576565 -0.042081673 0.06253485 -0.011497837 0.082906306 0.011237849 0.044083174 0.038597308
00000000: b6b4 62bd be6d 503d 689a ba3d 1a25 8c3d
00000010: de8c c3bd e9ad e83d 7c1e d2bc d493 9fbc
00000020: a2c1 7d3d c619 013d cbc7 7e3d 43b5 04be
00000030: 492e 00be 608c 93bd 4519 bd3d e367 ba3d
00000040: d6fc 603d ad13 adbc 5431 93bd db1d 683d
00000050: 25cd 82bd d2ea 62bd b918 c3bd be50 e83b
00000060: 3de2 233c b558 7cbd 16ab 0ebe 23e3 7a3d
00000070: 0808 023d e5fe b9bd e7c0 713d 034a e4bd
00000080: 091e cabd 04dc b0bd f71f 673a 24ae fdbd
00000090: d36d 653b ffa8 e73d 3a1e fd3d 116f 1cbd
000000a0: 1024 943b 73e7 92bd 2ccf f93d dcdd 963d
000000b0: 4bbc f83c d58b 993b 80fd 8cbd dfcb b6bd
000000c0: c9c2 283d 15cf 93bd 4b95 1e3d ea41 c33d
000000d0: addb 3a3d b49e b0bd 4198 573d 449c cbbd
000000e0: 1b74 013e e280 ccbd e3c3 fcbd afe2 033d
000000f0: 024a c7bd 8991 85bd a648 d73d 68d7 a33d
00000100: 7478 a1bd 9b82 2c3c 82d8 b2bc cd47 db3d
00000110: d2a6 bd3d a87e ccbd d445 613d 79ab 553d
00000120: 2c0d e5bc ad58 4cbc 6c0c c7bd bcb2 8ebc
00000130: 23be 243d 9e01 3ebd 1a75 3cbd 9fd9 ad3c
00000140: 5605 b03d 9455 843d 900a a53d 89e7 7e3c
00000150: 906c b1bd 0781 a13c d698 96bd f71b b03d
00000160: 6478 763c 4622 a73d f701 d63d fa87 d83a
00000170: d20d 143e 127a 453d 1abc d2bd dbdc b8bb
00000180: 21f6 c6bd 495b b4bd c115 bcbc eb3c 1fbd
00000190: 2be5 1d3d 86af 7fbd 5e3f 8d3d 9cb2 6d3d
000001a0: 126c 2cbd 9bc9 583c e203 953d 9eea 4d3c
000001b0: 393e cebc f55d 413c 32df 8d3d f26f 8cbd
000001c0: cbfa b33c 8d14 8a3d 48af 053e b1ee cfbc
000001d0: 199c 91bd 0bf3 14bd ddce 5dbd dacd cbbd
000001e0: 68e5 c9bd 4858 463d de77 293d 8cfb e13d
000001f0: 3063 893c 4e36 473d fd24 3bbd 721c f83d
00000200: 22ff 023d 020e 083e 1ec8 8abd 6196 ef3c
00000210: d58b ef3d 5b3b c1bd 3c79 183e 0d3d 833c
00000220: eacc 60bb 368f 183d 0656 05bd 9af3 403d
00000230: bab9 313d 25a2 ca3b 1450 293d 7cea 08be
00000240: dd92 bf3d dcc6 5fbd ccc7 acbd ccaa c63c
00000250: edfe e3bc 068d 273d fa6d 2d3d b377 513b
00000260: eb2a 123e a1bf c9bd f7b2 fa3c bc60 b1bd
00000270: 2be7 593d 7d4b 223e c684 09bc 09fb 893d
00000280: 111c c63d af6a e23c b2d0 863d afa0 b0ba
00000290: 47b1 5dbd 3d81 11bd cf12 843d 1b22 f03c
000002a0: 79b4 aabd 806f 383d e2ce 033e dede 14bd
000002b0: b237 683c b4b4 ac3d 3917 ac3d c1d2 b03d
000002c0: 28f2 903d 46f4 9abd a772 b23d 3eab bbbc
000002d0: 2936 dc3d 03b4 a3bd c4db 0abd f84b cd3d
000002e0: 4f61 61bd fe04 073d f303 c83d f0a8 513d
000002f0: 925f 06be 590d 81bd 65e9 fabd 3a64 d03d
00000300: 9320 d93c 7977 ce3d 7846 e53d 9ea9 81bd
00000310: 699e 8fbc 4fc0 23bc e463 a83d 22cc 5fbd
00000320: 156d 8abd 898a 043d b41d bc3c 7fc4 c7bc
00000330: c90c dc3c df02 f03d a1ab f4bc 809e 6d3b
00000340: de0f 6639 a2e6 b4bd ebc7 593d b12d b13c
00000350: 40ae e03c d679 983d beb6 90bd 6702 8f3d
00000360: 8541 0cbc 6eb7 b43d 217f a33d 791e d6bc
00000370: 8408 ccbd f3dd 6abd 1a27 93bd 5f38 203d
00000380: 786b 81bb 9700 c23d dde3 39bd 48e6 a83d
00000390: c4da cb3b ecf8 9f3d 765c 173d 3acc a13d
000003a0: 89a8 ccbd 3cea ae3d 8d28 253d 46dc 4abd
000003b0: 3aef 553d 4e16 cb3d 29cb a63c 815e efbc
000003c0: 31fd 433d 6efc 1fbd 6a13 91bd a1fb 54bd
000003d0: 5e2b 703d cce6 a13d c547 b03d 8357 b0bd
000003e0: 577d 323d d55d 2cbd 4512 803d 6c61 3cbc
000003f0: c8ca a93d f41e 383c 8f90 343d 3618 1e3d

encoder.2.block.0.bias f4 [16]
0.0636267 -0.074749656 0.011814141 0.055663362 -0.037350297 0.06188747 0.035919152 -0.057482105
-0.10592933 -0.07440071 0.04043722 0.036480475 -0.031493675 -0.00849856 0.030666212 0.02086509
00000000: b74e 823d 5916 99bd 1990 413c 44ff 633d
00000010: a0fc 18bd b77d 7d3d f61f 133d 5b72 6bbd
00000020: 7af1 d8bd 665f 98bd 80a1 253d 8d6c 153d
00000030: 83ff 00bd 8b3d 0bbc b537 fb3c 44ed aa3c

encoder.2.block.2.weight f4 [16, 16, 3, 3]
-0.044089433 0.029432388 0.03275292 0.03136665 0.0047606183 0.008650756 0.012131483 -0.07732355
-0.055724796 -0.0004813359 0.004456401 -0.05732376 0.07415651 0.050817903 0.020830723 0.09298611
-0.015237152 0.040559776 -0.04107795 -0.037453983 0.004942026 -0.049423948 0.05115148 0.07557106
0.065936334 -0.035265576 0.051683266 0.012773216 0.02011962 -0.034899577 0.014181326 0.010839922
0.00875502 0.08989813 -0.034632225 0.039284714 0.0003678425 0.077473596 -0.05380851 0.07215794
0.0071300785 0.009752589 0.030767055 -0.03225997 -0.026113283 0.07966797 0.006908505 0.00651236
-0.017792162 0.047578465 0.017559227 -0.04543431 0.0014757718 -0.06344055 0.07281028 -0.06273275
-0.047925845 0.016369866 0.042778242 0.07351669 -0.06357025 -0.024092855 0.046202593 0.07949182
-0.021250889 -0.06791047 0.07309859 -0.059755266 0.011729506 -0.0669694 0.06989141 -0.014892611
0.0900742 -0.089051746 0.060861003 0.019353263 -0.065721504 0.07610074 0.03146248 -0.042530708
-0.050827257 0.02631663 -0.04212613 -0.07932073 -0.037230037 -0.009900551 -0.05860262 -0.063708395
0.0106805675 -0.03999534 -0.015580294 -0.038047615 -0.01743177 -0.0625268 -0.0445362 -0.07064837
0.07283779 -0.030983612 0.004328567 -0.031970486 -0.05023124 0.08290864 -0.013168512 0.060635906
0.03657781 -0.056617882 0.044402957 0.034317568 -0.07040254 -0.020278648 0.07997124 0.007056496
0.080807865 -0.016456043 -0.05186958 0.0449526 -0.05872282 -0.008419062 0.0034107086 -0.023459667
-0.050831966 -0.0536552 0.036129043 -0.056466226 0.02966036 0.045131866 0.029967766 0.012880168
0.00894945 -0.047503132 -0.014376312 0.029560646 -0.037853908 -0.0688578 -0.018091902 0.06190084
0.011862232 0.069970496 0.058441944 -0.011039262 0.06289013 0.053795304 -0.030206261 0.0052717454
-0.041583225 0.059608236 0.042476542 -0.023073984 -0.083031125 0.02382115 -0.02959389 -0.05781191
-0.06498748 0.03976422 -0.022251332 -0.050814282 0.09745043 -0.03998212 -0.011757506 0.067147724
0.014754957 0.06363103 0.075127296 -0.06755138 0.0647051 -0.05056188 -0.08359064 -0.051880315
0.059979822 0.06732325 0.05585483 0.031011475 0.032832522 0.05343669 0.0018038175 -0.019739386
0.07843912 -0.034703482 -0.015594885 0.011341345 0.059747655 -0.004892515 0.072098754 -0.025665157
0.06401867 -0.06942021 -0.07024055 -0.05845683 0.01779485 -0.04935751 0.051606122 -0.05375283
-0.03590141 -0.07170296 -0.0032423234 -0.06851445 -0.041790448 0.08828552 0.06490662 -0.009625929
-0.07757526 0.04683713 -0.010209438 -0.080481336 0.039708484 0.0739817 0.047283765 0.08697045
0.027669655 -0.053040422 -0.009795322 0.038598754 0.0017252441 0.05693582 -0.09310707 0.017934315
-0.024197917 0.028758211 0.045604713 -0.016313724 0.06695887 0.06788828 -0.13066372 0.08126864
0.023343952 -0.049644597 -0.031133581 0.062174838 0.053773973 0.0880944 0.066652566 0.037964664
0.0029402343 0.038350757 -0.0058761733 0.020440623 -0.0041665444 -0.05848138 0.07224677 0.07499277
-0.10383543 -0.12245272 -0.13047564 0.08063361 -0.0023412139 0.0016978139 -0.03893829 -0.05395408
-0.010896799 0.091232 0.005437854 0.06995499 -0.059351005 -0.06833634 0.0043145507 -0.037373513
00000000: 1f97 34bd 311c f13c ed27 063d 517a 003d
00000010: f6fe 9b3b e7bb 0d3c 21c3 463c cf5b 9ebd
00000020: af3f 64bd d05b fcb9 0007 923b 52cc 6abd
00000030: 5edf 973d 6f26 503d 31a5 aa3c 806f be3d
00000040: 3fa5 79bc 0222 263d 5a41 28bd 5969 19bd
00000050: b8f0 a13b c470 4abd 3784 513d 00c5 9a3d
00000060: a109 873d a372 10bd d5b1 533d c046 513c
00000070: e7d1 a43c dcf2 0ebd cb58 683c ee99 313c
00000080: 3771 0f3c 831c b83d 85da 0dbd 02e9 203d
00000090: fcda c039 7aaa 9e3d 5066 5cbd 8bc7 933d
000000a0: 6fa3 e93b 53c9 1f3c 310b fc3c 0823 04bd
000000b0: 86eb d5bc f628 a33d be60 e23b a365 d53b
000000c0: dec0 91bc a3e1 423d 5ed8 8f3c 5419 3abd
000000d0: af6e c13a 1eed 81bd 8e1d 953d 077a 80bd
000000e0: e44d 44bd 191a 863c 3d38 2f3d eb8f 963d
000000f0: 1f31 82bd 615e c5bc ee3e 3d3d 9bcc a23d
00000100: 5816 aebc a514 8bbd b7b4 953d f0c1 74bd
00000110: 1d2d 403c 4127 89bd 3a23 8f3d 2300 74bc
00000120: d278 b83d c360 b6bd 6349 793d bc8a 9e3c
00000130: ff98 86bd b4da 9b3d cdde 003d ae34 2ebd
00000140: 3e30 50bd f995 d73c 738c 2cbd e872 a2bd
00000150: 867e 18bd ec35 22bc 4d09 70bd 8c79 82bd
00000160: 8cfd 2e3c 27d2 23bd 7d44 7fbc d1d7 1bbd
00000170: 12cd 8ebc 0d0e 80bd 976b 36bd 18b0 90bd
00000180: fb2b 953d 58d1 fdbc a7d6 8d3b 7cf3 02bd
00000190: 46bf 4dbd 01cc a93d bec0 57bc 5b5d 783d
000001a0: 9dd2 153d 27e8 67bd e0df 353d 9490 0c3d
000001b0: 352f 90bd 681f a6bc f6c7 a33d 2e3a e73b
000001c0: 987e a53d d3ce 86bc 3275 54bd 3820 383d
000001d0: 5787 70bd 1bf0 09bc 3286 5f3b 7d2e c0bc
000001e0: 2e35 50bd 8ec5 5bbd 0cfc 133d 2149 67bd
000001f0: 49fa f23c 31dc 383d f67e f53c 5707 533c
00000200: b7a0 123c a592 42bd 9f8a 6bbc 2b29 f23c
00000210: b30c 1bbd 5105 8dbd 7835 94bc bc8b 7d3d
00000220: cf59 423c b14c 8f3d d260 6f3d 05de 34bc
00000230: 8acc 803d 7758 5c3d 1f73 f7bc 9bbe ac3b
00000240: 2c53 2abd c427 743d e2fb 2d3d a705 bdbc
00000250: 390c aabd 9324 c33c e36e f2bc 2ecc 6cbd
00000260: 2818 85bd cfdf 223d 6d48 b6bc a322 50bd
00000270: 1794 c73d 4bc4 23bd 8ea2 40bc bf84 893d
00000280: c6be 713c fc50 823d 57dc 993d 6158 8abd
00000290: 1c84 843d f919 4fbd 9231 abbd 7480 54bd
000002a0: 67ad 753d c6e0 893d 09c8 643d c70b fe3c
000002b0: 657b 063d 6ee0 5a3d 126e ec3a 7eb4 a1bc
000002c0: b0a4 a03d 3d25 0ebd b081 7fbc 0cd1 393c
000002d0: f5b9 743d 6451 a0bb 83a8 933d bc3f d2bc
000002e0: 381c 833d 2f2c 8ebd 47da 8fbd 6e70 6fbd
000002f0: 81c6 913c 1a2b 4abd f160 533d ed2b 5cbd
00000300: 5b0d 13bd 00d9 92bd 297d 54bb 4e51 8cbd
00000310: 762c 2bbd 0acf b43d c3ed 843d 13b6 1dbc
00000320: c7df 9ebd 4ad8 3f3d 7d45 27bc 66d3 a4bd
00000330: 5da5 223d b883 973d 9fac 413d 901d b23d
00000340: 79ab e23c ea40 59bd 8f7c 20bc ba19 1e3d
00000350: 9621 e23a 8935 693d ebae bebd fcea 923c
00000360: b63a c6bc 5796 eb3c 02cc 3a3d 5ca4 85bc
00000370: bb21 893d 0309 8b3d b6cc 05be 2c70 a63d
00000380: d13b bf3c 2258 4bbd da0b ffbc 0bab 7e3d
00000390: 1942 5c3d d66a b43d 2481 883d d680 1b3d
000003a0: f2b0 403b af15 1d3d ea8c c0bb 1873 a73c
000003b0: 8287 88bb 2c8a 6fbd 1df6 933d cf95 993d
000003c0: aca7 d4bd 7ec8 fabd 689b 05be 3c23 a53d
000003d0: 0d6f 19bb 2e89 de3a c27d 1fbd f4fe 5cbd
000003e0: 7d88 32bc d8d7 ba3d 0730 b23b 9044 8f3d
000003f0: 0a1a 73bd ecf3 8bbd 1361 8d3b f814 19bd

encoder.2.block.2.bias f4 [16]
-0.07123906 -0.07357401 -0.072032414 -0.016250338 -0.016801594 0.033867225 -0.0003817068 0.007108818
-0.0052865916 0.06427047 0.0025333795 0.047172762 0.023672415 0.095835716 -0.06720744 0.018193912
00000000: c9e5 91bd f8ad 96bd bb85 93bd 6e1f 85bc
00000010: 7fa3 89bc 5cb8 0a3d d21f c8b9 16f1 e83b
00000020: 253b adbb 3ca0 833d 0e07 263b 3a38 413d
00000030: a7ec c13c 8445 c43d 0ea4 89bd 660b 953c

encoder.4.block.0.weight f4 [32, 16, 3, 3]
-0.05761318 0.08326918 0.056381892 -0.0239052 0.026057784 0.026675306 0.05624783 0.012173028
0.09540389 -0.096846685 0.04802889 -0.05325184 -0.05690404 -0.040573925 0.095946096 0.039542496
0.023728395 0.10946594 0.025669592 -0.028969185 0.02867785 0.070555195 0.08675409 -0.046291713
-0.04342191 -0.008782457 0.07502996 -0.05597744 0.086457245 0.057448335 -0.025330525 -0.05516456
0.0062208227 0.09826689 -0.031648356 0.0017987636 0.10883305 -0.008589723 -0.11178417 -0.062010378
0.004113619 0.057896003 -0.10225294 -0.07309664 0.0040033115 -0.038324703 0.088693246 0.006423402
-0.043498542 0.064362824 0.06550995 0.065215185 -0.030847935 0.06628626 0.06640863 0.057420984
-0.0672125 0.034946203 -0.05787989 -0.06604227 0.07528193 0.046658017 0.048870377 0.040909715
-0.026805775 0.051494315 0.044758204 0.0047513163 0.061217133 0.03127897 -0.060623717 0.10628931
-0.08426741 0.06744531 0.02965155 -0.04724487 -0.045843706 -0.015646003 0.030259617 -0.03664334
0.014820643 -0.029863028 -0.0991696 -0.07844944 -0.049294446 -0.0033064524 0.016258469 0.015635282
0.036306918 -0.026530966 -0.06544693 0.035193495 -0.02680097 0.015191227 0.097288005 -0.057452038
-0.063756965 0.049794927 0.037337683 -0.07356829 -0.0988408 -0.04277972 0.057524845 -0.06456224
0.01107962 -0.03471319 0.10071959 0.053574126 0.00048698747 0.006568456 -0.033128638 -0.011128283
0.090303786 -0.056958534 -0.019362787 0.04151197 0.005516697 0.010187299 0.09566371 -0.036307655
0.014029661 -0.043135673 -0.058759995 0.06620757 -0.045032218 -0.022755368 0.01841639 -0.04408985
0.01798779 0.06470134 -0.09404188 -0.017217085 0.035861325 0.020724658 -0.023620673 0.015883937
-0.06225388 -0.1099405 -0.0812794 0.0077483547 0.10029119 0.020137673 0.009842405 0.068545416
0.07381783 0.066970505 0.00088060106 0.032938242 0.057213936 0.07078988 0.089382336 0.030841867
0.028305786 0.049034122 0.03393157 0.07043965 -0.10444846 -0.07801918 -0.0030236687 0.06553975
0.08951652 0.009453068 0.075064994 0.039246675 -0.08848951 -0.047486633 0.015260634 -0.1064119
0.042395264 0.06377298 -0.0065608686 0.002106284 -0.059610434 0.039125867 0.102776445 0.027304294
-0.059223782 0.08555145 -0.06925059 -0.04520581 -0.068031624 0.06844584 0.039592616 0.08735213
-0.031501886 0.03649219 -0.038691875 -0.09689109 0.05887533 -0.027078941 -0.018421464 -0.045083486
-0.042739227 -0.028133957 -0.037017524 -0.018561643 0.01634884 -0.060120262 0.06733272 0.07928933
0.08632491 -0.003769015 -0.0140423225 0.042732768 0.071953826 -0.07150796 -0.08267848 0.017311545
0.027531702 0.005849755 -0.037977446 -0.028734608 0.07850013 -0.04255389 -0.012120501 0.03351601
0.031156743 0.09275804 -0.009065777 -0.053409807 -0.027163373 -0.05703565 -0.05254772 -0.067590296
-0.02901059 0.012190201 -0.015039735 0.046325985 0.047730513 0.016048932 -0.055126883 -0.051794823
-0.0025191102 0.018438738 0.059516694 -0.05483829 -0.025040565 -0.01048425 0.054505967 -0.04307895
0.025865462 0.0792309 -0.022287842 0.0807581 0.07555451 0.007238533 0.00065062416 -0.00822467
-0.052886825 0.07101543 -0.032242596 0.045261748 -0.058271483 0.0071940576 -0.020820713 -0.044381913
00000000: ccfb 6bbd 0889 aa3d b3f0 663d d7d4 c3bc
00000010: 2277 d53c 2c86 da3c 2064 663d 6171 473c
00000020: 1d63 c33d 8e57 c6bd f1b9 443d 9a1e 5abd
00000030: 3614 69bd d830 26bd 637f c43d 50f7 213d
00000040: 0d62 c23c ae2f e03d 0949 d23c c950 edbc
00000050: cfed ea3c 3e7f 903d 21ac b13d 619c 3dbd
00000060: 2cdb 31bd 4be4 0fbc 4fa9 993d 9a48 65bd
00000070: 7f10 b13d f24e 6b3d f681 cfbc 3cf4 61bd
00000080: 0bd8 cb3b 2740 c93d b5a1 01bd 7ec4 eb3a
00000090: dde3 de3d e9bb 0cbc 19ef e4bd 98fe 7dbd
000000a0: 8acb 863b 5c24 6d3d fd69 d1bd b1b3 95bd
000000b0: 362e 833b 5dfa 1cbd cea4 b53d 677b d23b
000000c0: 872b 32bd a8d0 833d 152a 863d 8a8f 853d
000000d0: cfb4 fcbc 17c1 873d 3f01 883d 4432 6b3d
000000e0: b5a6 89bd c023 0f3d 7713 6dbd 2b41 87bd
000000f0: 6a2d 9a3d 7a1c 3f3d 4e2c 483d f290 273d
00000100: c997 dbbc b4eb 523d 6154 373d eeb0 9b3b
00000110: d1be 7a3d 611e 003d 9350 78bd 36ae d93d
00000120: 6494 acbd c420 8a3d cfe7 f23c d683 41bd
00000130: 9cc6 3bbd 0c2c 80bc 04e3 f73c 5417 16bd
00000140: 48d2 723c 4fa3 f4bc 6e19 cbbd 1aaa a0bd
00000150: f9e8 49bd 11b1 58bb 7b30 853c 9015 803c
00000160: 90b6 143d 7857 d9bc 0a09 86bd 0e27 103d
00000170: b58d dbbc a0e4 783c ef3e c73d d452 6bbd
00000180: 0393 82bd c4f5 4b3d 66ef 183d f9aa 96bd
00000190: 0c6d cabd ca39 2fbd 2c9f 6b3d 3539 84bd
000001a0: 4b87 353c 6b2f 0ebd 1346 ce3d 8b70 5b3d
000001b0: 5a52 ff39 343c d73b e5b1 07bd 6753 36bc
000001c0: 31f1 b83d 5a4d 69bd b59e 9ebc 7508 2a3d
000001d0: 69c5 b43b a1e8 263c 56eb c33d 56b7 14bd
000001e0: aadc 653c 08af 30bd 52ae 70bd d697 873d
000001f0: b473 38bd 7769 babc f8dd 963c 8f97 34bd
00000200: 215b 933c 2382 843d 0799 c0bd d80a 8dbc
00000210: 53e3 123d c2c6 a93c 2480 c1bc 081f 823c
00000220: edfd 7ebd 7c28 e1bd d075 a6bd e9e5 fd3b
00000230: 7865 cd3d c3f7 a43c 0a42 213c 8a61 8c3d
00000240: cd2d 973d d527 893d 23d8 663a 40ea 063d
00000250: 2959 6a3d 49fa 903d 160e b73d 15a8 fc3c
00000260: 89e1 e73c 01d8 483d d4fb 0a3d aa42 903d
00000270: 13e9 d5bd 85c8 9fbd be28 46bb b439 863d
00000280: 7054 b73d 0ae1 1a3c adbb 993d 1fc1 203d
00000290: fd39 b5bd 5881 42bd bd07 7a3c 7bee d9bd
000002a0: a8a6 2d3d 689b 823d 8efc d6bb 9509 0a3b
000002b0: 122a 74bd 7242 203d 757c d23d 41ad df3c
000002c0: a394 72bd 9935 af3d 41d3 8dbd ba29 39bd
000002d0: 2a54 8bbd 552d 8c3d de2b 223d ace5 b23d
000002e0: 1f08 01bd d678 153d 5f7b 1ebd d66e c6bd
000002f0: 4227 713d a8d4 ddbc 9ce8 96bc 76a9 38bd
00000300: 540f 2fbd 2f79 e6bc b09f 17bd 960e 98bc
00000310: 01ee 853c aa40 76bd bde5 893d 7262 a23d
00000320: 1dcb b03d 9401 77bb c511 66bc 8e08 2f3d
00000330: 875c 933d c472 92bd 5653 a9bd f1d0 8d3c
00000340: 2a8a e13c 4daf bf3b 3d8e 1bbd d764 ebbc
00000350: adc4 a03d fd4c 2ebd 1195 46bc 1548 093d
00000360: 6d3c ff3c edf7 bd3d a088 14bc 3ec4 5abd
00000370: b985 debc 379e 69bd 473c 57bd c86c 8abd
00000380: 9ea7 edbc 69b9 473c 3869 76bc 51c0 3d3d
00000390: 1281 433d 0d79 833c bacc 61bd cf26 54bd
000003a0: a817 25bb d60c 973c c7c7 733d 1d9e 60bd
000003b0: df21 cdbc 22c6 2bbc a641 5f3d 8e73 30bd
000003c0: cee3 d33c cf43 a23d fe94 b6bc 8164 a53d
000003d0: 53bc 9a3d 3731 ed3b a68e 2a3a c4c0 06bc
000003e0: db9f 58bd 8a70 913d d010 04bd 6264 393d
000003f0: 14ae 6ebd 21bc eb3b 3390 aabc cfc9 35bd

encoder.4.block.0.bias f4 [32]
0.013902065 -0.009979881 0.068161815 0.01954894 -0.010303893 0.07102866 -0.07661687 0.054157585
0.012174261 0.014739111 -0.07977192 0.06311032 0.036596242 0.06272853 0.020999808 0.08587952
-0.015241757 0.043734394 -0.016192522 -0.0738961 0.076885335 0.08264893 -0.039234355 0.0506346
-0.067861155 0.08099825 0.07897343 0.00065128517 -0.067357555 -0.06480262 0.01458485 -0.053401142
00000000: 7dc5 633c a882 23bc 6c98 8b3d 1925 a03c
00000010: a9d1 28bc 7977 913d 4ee9 9cbd 58d4 5d3d
00000020: 8d76 473c 507c 713c 765f a3bd fc3f 813d
00000030: f1e5 153d d177 803d ca07 ac3c 9ae1 af3d
00000040: 90b8 79bc d622 333d 2ea6 84bc d756 97bd
00000050: 0f76 9d3d d843 a93d 34b4 20bd 3a66 4f3d
00000060: cafa 8abd 69e2 a53d d2bc a13d 02bb 2a3a
00000070: c2f2 89bd 3cb7 84bd 4bf5 6e3c 28bb 5abd

encoder.4.block.2.weight f4 [32, 32, 3, 3]
-0.011431572 -0.02424694 0.037527427 -0.0657646 -0.025777766 -0.030560743 -0.018607907 -0.01587568
-0.022521608 -0.0429891 -0.008544943 0.026005518 -0.007784663 -0.012051084 -0.033953834 -0.026621528
-0.02282019 -0.049708683 0.0230539 -0.0043410948 0.040471956 -0.016729482 -0.0106723225 -0.00903332
-0.009670567 0.054554652 0.040531177 0.014046262 0.03551486 -0.05037148 -0.0442664 0.016909687
0.038734034 0.037906274 -0.018180922 -0.010704091 0.05170958 -0.009766053 0.0321117 0.021622216
0.015389584 -0.049219258 -0.065081134 0.048174225 -0.015228346 0.0033714026 -0.013660594 -0.0054388996
0.01358562 -0.013875949 -0.0001846682 0.03526481 0.04118006 0.027842334 -0.017564747 0.022060538
-0.03551859 0.057931326 0.011797448 0.024632169 -0.04917829 -0.031854805 -0.021613728 -0.049092073
-0.03136028 -0.013559345 0.029946767 -0.002205513 -0.03045142 -0.04001113 -0.042195767 0.028518107
-0.020016406 -0.029330574 -0.044100396 -0.050718375 0.021701464 -0.053806536 -0.08074764 -0.051798757
-0.054461475 0.05606089 0.049881626 -0.05794822 0.012362395 -0.053970627 0.03159806 0.026723329
-0.002785776 0.04541175 0.045427695 -0.014633167 0.018374018 -0.020639004 -0.0009812042 -0.035769127
0.0044754692 -0.018412998 -0.05801751 0.016761081 0.037814487 -0.027918024 0.0042831292 -0.06237523
-0.0150233405 -0.032464586 0.052738596 0.025094688 -0.041521683 0.03825026 0.02534547 -0.028389838
-0.035710305 -0.037846416 -0.016127544 -0.066339985 -0.0042115715 0.028467173 0.03460277 0.05004719
-0.024277078 0.012310229 -0.02397279 0.058050122 -0.0031805877 0.023173334 0.04562364 -0.037746653
-0.023348726 0.030757524 -0.05070901 -0.041805528 -0.0021920046 -0.019582214 0.065528475 -0.013867343
-0.055229854 0.055324867 0.014561613 -0.0059666503 -0.004898461 -0.0031568443 0.05746771 0.06025894
0.05245581 -0.0322797 -0.032561906 -0.033538293 0.0128288185 0.05749622 0.011750864 0.023047075
0.033079326 0.039514355 -0.0018083341 -0.036237124 -0.043830056 -0.007059175 -0.028273175 0.03278621
-0.018817998 -0.01884505 -0.062248472 -0.041760657 0.0054086307 0.0049439077 0.02825716 -0.011763581
0.06677708 -0.04649852 -0.018198736 -0.0148730185 -0.05656252 -0.022088565 0.012307649 -0.053629413
-0.009131544 0.034531463 0.048502024 0.04692053 -0.038190003 -0.00084043335 0.052037332 -0.017277837
-0.04841728 -0.047133222 -0.063438475 -0.07266972 -0.02122232 0.027257347 -0.051984258 0.054704458
-0.044174787 0.026612975 -0.050226238 -0.047281332 0.00864085 0.0035048057 -0.039159466 -0.010564871
0.011948016 0.020509345 -0.03642998 -0.009504132 -0.015008639 -0.00076228456 0.007904212 -0.033190515
0.02257728 -0.05310714 0.02168796 0.037924275 0.03254641 0.03127065 -0.015372209 -0.044325616
0.02679016 -0.051943637 0.04644284 0.061054233 -0.024863763 -0.012462362 -0.03696055 -0.028648598
0.04187064 0.009565068 0.02951897 -0.035302207 0.030349452 0.056088127 0.028183708 -0.027602745
0.026575815 0.0321759 0.053303692 0.042399243 0.044660352 0.013274929 -0.015502661 -0.027395707
0.03966024 0.036118705 0.01386861 0.015847838 0.026704712 -0.026582602 -0.049528815 -0.048904534
-0.05729292 -0.012441621 -0.031690247 0.038322132 -0.034913395 0.005542824 0.0066696666 -0.049928512
00000000: 7d4b 3bbc 85a1 c6bc 5cb6 193d 97af 86bd
00000010: e52b d3bc 865a fabc 9c6f 98bc b70d 82bc
00000020: 3c7f b8bc 5715 30bd 1700 0cbc 8609 d53c
00000030: 7c16 ffbb e971 45bc 2d13 0bbd 6415 dabc
00000040: 68f1 babc 559b 4bbd 88db bc3c be3f 8ebb
00000050: ecc5 253d 440c 89bc f7da 2ebc 7d00 14bc
00000060: 4c71 1ebc b374 5f3d 0504 263d 4b22 663c
00000070: 0878 113d 5352 4ebd af50 35bd 2f86 8a3c
00000080: 94a7 1e3d 9c43 1b3d 28f0 94bc 3660 2fbc
00000090: 6dcd 533d cc01 20bc 8f87 033d 1321 b13c
000000a0: 9824 7c3c 229a 49bd 4249 85bd 5652 453d
000000b0: 5080 79bc c0f2 5c3b afd0 5fbc cc38 b2bb
000000c0: 3896 5e3c f357 63bc 7ea3 41b9 d571 103d
000000d0: 6cac 283d 9b15 e43c f2e3 8fbc 4db8 b43c
000000e0: f17b 11bd 6649 6d3d 154a 413c 67c9 c93c
000000f0: 2d6f 49bd 2f7a 02bd 460f b1bc c514 49bd
00000100: a373 00bd 0428 5ebc ec52 f53c 5e8a 10bb
00000110: 4275 f9bc b6e2 23bd 78d5 2cbd ce9e e93c
00000120: 72f9 a3bc ac46 f0bc 9ea2 34bd 12be 4fbd
00000130: 45c7 b13c 3e64 5cbd 055f a5bd ef2a 54bd
00000140: ff12 5fbd 1ba0 653d ad50 4c3d 1d5b 6dbd
00000150: a58b 4a3c 4e10 5dbd f86c 013d e2ea da3c
00000160: 9191 36bb ac01 3a3d 6412 3a3d f3bf 6fbc
00000170: 1c85 963c 2113 a9bc c09b 80ba a682 12bd
00000180: f5a6 923b dbd6 96bc c5a3 6dbd 894e 893c
00000190: 5de3 1a3d 57b4 e4bc 7e59 8c3b 2b7d 7fbd
000001a0: 7524 76bc 96f9 04bd 6d04 583d 6093 cd3c
000001b0: a412 2abd 4eac 1c3d 4ea1 cf3c ce91 e8bc
000001c0: f844 12bd d804 1bbd e91d 84bc 42dd 87bd
000001d0: 3901 8abb fd33 e93c a2bb 0d3d 48fe 4c3d
000001e0: b9e0 c6bc d8b0 493c 9662 c4bc f7c5 6d3d
000001f0: 6871 50bb 01d6 bd3c dbdf 3a3d 3c9c 1abd
00000200: d445 bfbc 34f7 fb3c 40b4 4fbd 463c 2bbd
00000210: bca7 0fbb e16a a0bc cb33 863d da33 63bc
00000220: b338 62bd 549c 623d d593 6e3c e483 c3bb
00000230: 4583 a0bb 0fe3 4ebb 4363 6b3d 14d2 763d
00000240: e7db 563d b837 04bd a25f 05bd 735f 09bd
00000250: f72f 523c 2881 6b3d b286 403c 38cd bc3c
00000260: 307e 073d ced9 213d a005 edba 616d 14bd
00000270: 2587 33bd a750 e7bb 259d e7bc d54a 063d
00000280: 3428 9abc ef60 9abc 41f8 7ebd 390d 2bbd
00000290: e23a b13b 8100 a23b 8f7b e73c 09bc 40bc
000002a0: 6cc2 883d 3b75 3ebd 8415 95bc f6ad 73bc
000002b0: 1aae 67bd 14f3 b4bc 05a6 493c 84aa 5bbd
000002c0: 799c 15bc dd70 0d3d 0faa 463d be2f 403d
000002d0: 1f6d 1cbd 8750 5cba 1925 553d 408a 8dbc
000002e0: 3351 46bd c40e 41bd 08ec 81bd ddd3 94bd
000002f0: 6eda adbc cd4a df3c 72ed 54bd c811 603d
00000300: 9ff0 34bd 7403 da3c 07ba 4dbd 12aa 41bd
00000310: 5a92 0d3c e2b0 653b ad65 20bd 4818 2dbc
00000320: 9cc1 433c 3703 a83c 9a37 15bd 38b7 1bbc
00000330: cbe6 75bc 0dd4 47ba ab80 013c c7f2 07bd
00000340: fdf3 b83c df86 59bd f3aa b13c 7c56 1b3d
00000350: 624f 053d a715 003d b8db 7bbc c78e 35bd
00000360: 0a77 db3c dac2 54bd d93a 3e3d 0114 7a3d
00000370: 17af cbbc ef2e 4cbc f263 17bd 77b0 eabc
00000380: 8c80 2b3d ceb6 1c3c c4d1 f13c 0c99 10bd
00000390: 6a9f f83c aabc 653d 85e1 e63c 271f e2bc
000003a0: 86b5 d93c e0ca 033d f954 5a3d d4aa 2d3d
000003b0: c6ed 363d 167f 593c dffe 7dbc f66c e0bc
000003c0: c772 223d 35f1 133d 2b39 633c 53d3 813c
000003d0: d7c3 da3c c2c3 d9bc bade 4abd 1f50 48bd
000003e0: fbab 6abd f1d7 4bbc a2cd 01bd abf7 1c3d
000003f0: 5901 0fbd 94a0 b53b 388d da3b d781 4cbd

encoder.4.block.2.bias f4 [32]
0.06297265 0.014488592 0.032016255 -0.048366677 -0.028741436 -0.025255738 -0.0056973435 -0.033829942
0.02252876 -0.006082842 0.03556173 -0.0048861396 -0.0004131732 0.027500393 -0.034726523 -0.049947016
-0.03139372 -0.021560648 0.045811284 0.04468789 0.04028675 -0.046433058 0.018594686 -0.051671695
-0.026713192 0.052407455 0.026647747 0.05936682 -0.026608702 0.0560707 0.047367543 0.025985906
00000000: cef7 803d 8f61 6d3c 7a23 033d 231c 46bd
00000010: 2973 ebbc 1fe5 cebc c8b0 babb 4491 0abd
00000020: 3c8e b83c 9452 c7bb 2da9 113d e91b a0bb
00000030: 2b9f d8b9 8148 e13c 663d 0ebd 3e95 4cbd
00000040: b496 00bd f59f b0bc 9da4 3b3d a60a 373d
00000050: b803 253d 9730 3ebd e253 983c b3a5 53bd
00000060: a0d5 dabc 33a9 563d 604c da3c 9f2a 733d
00000070: 7efa d9bc 64aa 653d 7804 423d 65e0 d43c

encoder.6.block.0.weight f4 [64, 32, 3, 3]
-0.03067523 0.025066553 0.04829792 0.045508545 0.034494545 -0.067004725 -0.02529387 -0.038245596
-0.05505192 -0.03118296 -0.0345596 0.020193532 0.0003795785 0.014798675 -0.02663289 -0.02256104
-0.0052406727 -0.0033345458 -0.011315807 0.044480834 0.02489613 -0.004008873 0.026067307 -0.03294105
-0.04344049 -0.014853491 -0.048565753 0.017230349 0.038531862 0.05082492 0.03665234 0.048824076
-0.06692173 -0.04863922 0.018879043 -0.023981748 -0.010842651 -0.022735624 0.013064486 -0.022964098
0.05661123 0.054434754 0.025730176 -0.0310505 -0.026028225 0.003750737 0.050509408 0.029563803
-0.0052205296 0.038921423 -0.047566444 0.005453974 -0.024165222 -0.01667719 -0.022718554 -0.03612854
-0.043780677 -0.03900966 -0.025711758 0.022724347 0.071119 0.03068487 -0.009480561 -0.014155801
0.08414531 -0.080549076 -0.023114514 0.03216603 -0.04648415 -0.009133991 -0.006909339 0.028585259
-0.027006013 -0.004643372 -0.026011877 -0.03217989 0.021971602 -0.06998146 -0.013692289 -0.010418558
-0.057483304 0.06833861 -0.048585285 0.0010174545 -0.02036439 0.078624666 0.0005339943 -0.063409686
-0.029134164 -0.043763556 0.051985707 -0.050235294 0.014089409 0.0048358566 -0.016484179 0.024698684
-0.014924326 0.017711384 -0.015888195 -0.04186521 0.03216674 -0.020206459 -0.024739025 0.0571214
0.07546529 0.050661586 0.03476731 0.043074757 -0.038232334 -0.014596665 -0.049100786 -0.024542246
-0.01969661 -0.038691796 0.036448196 -0.06932019 0.008537829 -0.07030876 -0.026051626 0.038302578
0.026505705 -0.04654013 -0.064752094 -0.030252308 -0.07073376 0.03208489 -0.032950114 0.045653038
-0.06395777 -0.03397803 -0.030671572 -0.03384579 0.03819697 0.024337579 -0.032355573 -0.04591628
0.0041298475 -0.029787434 -0.040155422 -0.05518504 0.019415436 0.007300348 0.003869413 0.041562494
-0.059851103 0.07618979 0.043961853 0.058667067 -0.03387877 0.03474842 -0.04367714 -0.016201701
0.040819004 -0.059763193 -0.0035284031 -0.030719299 0.065476924 -0.036024302 -0.047913324 0.059206754
0.0156206405 -0.0031051168 -0.039137464 -0.034349922 0.05619411 0.039396185 0.0044309837 -0.009261921
-0.020949677 0.04265941 -0.06068969 0.051342122 0.0399002 0.003784793 0.06615102 0.038928386
-0.033839248 0.038845934 -0.022542858 -0.07871287 0.07463081 0.06310388 0.054059274 -0.031504743
-0.05391657 -0.010446043 -0.0020631293 0.06529749 -0.008687157 0.01426957 0.06667917 -0.046611946
0.04991373 0.05059174 -0.049500987 0.06459606 -0.062073745 -0.06571509 0.06229953 0.06432489
-0.06746614 0.01091475 -0.05553796 -0.023581386 0.027511088 0.070130765 0.051446717 -0.0031866375
-0.04266631 0.035174128 0.02970481 -0.033191636 -0.04304174 0.02137943 -0.032173987 0.0632113
0.0476976 0.026822163 -0.030434702 -0.040030353 -0.06109662 0.04091245 0.011451294 0.024515975
0.03725319 0.0053066537 -0.028137453 0.034923658 0.062166907 -0.005276595 -0.032611642 0.017893946
0.004694028 0.011066699 0.06119869 -0.016079115 -0.05115063 -0.01178835 0.032792028 -0.002424609
0.0588742 -0.0020905721 -0.05263227 -0.014537593 0.014796515 -0.01711711 0.002469903 0.022648478
-0.062349364 -0.013064639 0.02871148 -0.015201688 0.0075339666 0.018047985 0.0053214296 0.041702684
00000000: 9f4a fbbc 5f58 cd3c 0ad4 453d 2b67 3a3d
00000010: 274a 0d3d c639 89bd 1735 cfbc 6aa7 1cbd
00000020: 1f7e 61bd 6873 ffbc 5e8e 0dbd e86c a53c
00000030: 2a02 c739 2476 723c 382d dabc eed1 b8bc
00000040: f3b9 abbb 6588 5abb ef65 39bc 8931 363d
00000050: f8f2 cb3c dd5c 83bb 1b8b d53c 32ed 06bd
00000060: a8ee 31bd 0f5c 73bc e2ec 46bd a926 8d3c
00000070: 96d3 1d3d cb2d 503d c420 163d c1fb 473d
00000080: 430e 89bd eb39 47bd 39a8 9a3c 5f75 c4bc
00000090: 60a5 31bc 0f40 babc 6d0c 563c 341f bcbc
000000a0: 2de1 673d faf6 5e3d 17c8 d23c 9e5d febc
000000b0: 2539 d5bc edce 753b f4e2 4e3d ca2f f23c
000000c0: fa10 abbb 126c 1f3d 08d5 42bd 40b7 b23b
000000d0: 25f6 c5bc 9a9e 88bc 431c babc 85fb 13bd
000000e0: 5e53 33bd 98c8 1fbd 77a1 d2bc 6928 ba3c
000000f0: d7a6 913d d65e fb3c 5b54 1bbc bced 67bc
00000100: 6054 ac3d eaf6 a4bd a65a bdbc 87c0 033d
00000110: 2a66 3ebd bca6 15bc bd67 e2bb a22b ea3c
00000120: b73b ddbc 6d27 98bb dc16 d5bc 0fcf 03bd
00000130: cafd b33c 7152 8fbd 9f55 60bc 99b2 2abc
00000140: 9d73 6bbd 1df5 8b3d 5d01 47bd 1c5c 853a
00000150: 39d3 a6bc f805 a13d c0fb 0b3a f0dc 81bd
00000160: c5aa eebc 6a41 33bd f7ee 543d 86c3 4dbd
00000170: 44d7 663c 1b76 9e3b d409 87bc e554 ca3c
00000180: 2985 74bc 7717 913c f627 82bc db7a 2bbd
00000190: 46c1 033d 0488 a5bc 7fa9 cabc 21f8 693d
000001a0: 8c8d 9a3d 8682 4f3d 2b68 0e3d 286f 303d
000001b0: 8299 1cbd da26 6fbc e81d 49bd d20c c9bc
000001c0: c95a a1bc 4a7b 1ebd b44a 153d bef7 8dbd
000001d0: 40e2 0b3c 0afe 8fbd 386a d5bc 2ae3 1c3d
000001e0: 7e22 d93c dda0 3ebd bf9c 84bd b0d3 f7bc
000001f0: dddc 90bd 726b 033d b3f6 06bd aefe 3a3d
00000200: 4bfc 82bd 8c2c 0bbd f342 fbbc e2a1 0abd
00000210: 6d74 1c3d 9a5f c73c 4787 04bd b612 3cbd
00000220: ac53 873b c704 f4bc 037a 24bd b509 62bd
00000230: 1f0d 9f3c c237 ef3b fa95 7d3b 6f3d 2a3d
00000240: 6e26 75bd 6509 9c3d 5811 343d e14c 703d
00000250: 77c4 0abd 5c54 0e3d cde6 32bd 6eb9 84bc
00000260: d431 273d 40ca 74bd c83c 67bb 0aa7 fbbc
00000270: c418 863d 388e 13bd c340 44bd c882 723d
00000280: b7ed 7f3c 377f 4bbb 9b4e 20bd 81b2 0cbd
00000290: cc2b 663d e55d 213d c931 913b 50bf 17bc
000002a0: a89e abbc a2bb 2e3d c195 78bd 1e4c 523d
000002b0: 646e 233d 4a0a 783b 307a 873d 5f73 1f3d
000002c0: 069b 0abd ea1c 1f3d cdab b8bc 3734 a1bd
000002d0: 0ad8 983d 9b3c 813d 426d 5d3d 1e0b 01bd
000002e0: 9fd7 5cbd e125 2bbc 9135 07bb b1ba 853d
000002f0: 9454 0ebc eaca 693c 178f 883d 2bec 3ebd
00000300: 5772 4c3d 4939 4f3d 8cc1 4abd f04a 843d
00000310: 0a41 7ebd a295 86bd cb2d 7f3d c5bc 833d
00000320: b02b 8abd c8d3 323c c67b 63bd c02d c1bc
00000330: ef5e e13c b8a0 8f3d cbb9 523d e8d6 50bb
00000340: dec2 2ebd bf12 103d 8057 f33c f4f3 07bd
00000350: 894c 30bd ea23 af3c dfc8 03bd ed74 813d
00000360: 8f5e 433d 27ba db3c 3252 f9bc def6 23bd
00000370: 7340 7abd d093 273d 359e 3b3c bad5 c83c
00000380: cd96 183d 70e3 ad3b 8480 e6bc 1c0c 0f3d
00000390: baa2 7e3d 49e7 acbb c993 05bd 5396 923c
000003a0: 5cd0 993b 1a51 353c 7aab 7a3d 59b8 83bc
000003b0: 5383 51bd ec23 41bc ef50 063d 30e6 1ebb
000003c0: 1326 713d fb01 09bb ef94 57bd 162f 6ebc
000003d0: 156d 723c 2e39 8cbc 19de 213b 4d89 b93c
000003e0: 0c62 7fbd 110d 56bc 5634 eb3c 8010 79bc
000003f0: 7edf f63b 5ed9 933c 635f ae3b 6fd0 2a3d

encoder.6.block.0.bias f4 [64]
-0.025732188 -0.0032488059 -0.014557441 0.0057437317 -0.014087027 0.03394752 -0.034138784 0.0035054814
0.013855584 0.06555957 0.0387089 -0.051138844 0.017248346 -0.018877357 0.040291935 -0.035636872
0.024672106 -0.0453617 0.023231108 0.047071338 -0.035259917 -0.02317797 -0.02629643 0.057558183
0.059546743 0.04325552 -0.0069742883 0.008837119 -0.053727113 0.05580754 0.0048410418 0.008800554
0.005577693 0.007832049 -0.009878277 0.023128415 -0.014027978 0.038338657 0.051623393 0.005698647
-0.024450047 -0.048647065 0.048237726 0.0051658046 0.03578804 0.011726922 -0.03912224 0.03866659
0.012613856 0.015552058 -0.036841188 -0.047606897 -0.006144697 0.041137174 -0.027867436 0.0027452237
-0.035513688 -0.030511536 -0.014035274 -0.044135235 -0.032506213 0.05078098 -0.0025581156 -0.033291
00000000: 4fcc d2bc ebe9 54bb 5582 6ebc ea35 bc3b
00000010: 46cd 66bc 8e0c 0b3d 1cd5 0bbd 38bc 653b
00000020: 8802 633c 1944 863d 398d 1e3d f776 51bd
00000030: 674c 8d3c b0a4 9abc 2809 253d f8f7 11bd
00000040: 281d ca3c 31cd 39bd 2a4f be3c e0cd 403d
00000050: b46c 10bd badf bdbc 9c6b d7bc 21c2 6b3d
00000060: 49e7 733d b32c 313d 9288 e4bb 90c9 103c
00000070: f610 5cbd 7296 643d 9aa1 9e3b 3330 103c
00000080: 15c5 b63b ff51 003c 7fd8 21bc cd77 bd3c
00000090: 9bd5 65bc ff08 1d3d 0d73 533d b7bb ba3b
000000a0: 774b c8bc 2542 47bd ec94 453d e945 a93b
000000b0: 7b96 123d 4722 403c a43e 20bd dc60 1e3d
000000c0: 59aa 4e3c 0fce 7e3c c9e6 16bd 73ff 42bd
000000d0: 7459 c9bb 747f 283d 404a e4bc 36e9 333b
000000e0: cd76 11bd 54f3 f9bc 35f4 65bc 26c7 34bd
000000f0: 3c25 05bd b8ff 4f3d 0fa6 27bb 255c 08bd

encoder.6.block.2.weight f4 [64, 64, 3, 3]
-0.007719541 0.041683458 -0.02265823 0.0012372577 0.013538287 0.036184255 0.05639165 0.008330844
0.0024695653 -0.01012465 0.010185105 -0.05551031 -0.023114238 0.019431464 -0.0390482 0.012633489
0.017988933 -0.0041026813 0.017315472 0.015250169 -0.041676156 -0.010781512 0.01570269 -0.043778434
0.060617022 -0.0151579995 -0.015689638 0.0109483 0.030976864 -0.031405646 -0.004809399 -0.047289483
-0.047626253 -0.015601642 -0.0079851365 -0.01066806 0.011555327 -0.024484804 -0.008675928 0.037734497
-0.031612653 -0.047879037 0.020659387 0.061630867 0.0054127346 -0.032154255 -0.031616464 -0.028888782
-0.022646442 -0.03020616 0.034020368 -0.04536637 -0.010801126 0.029954948 -0.0038046297 0.042822096
0.014006857 0.03657805 0.016326636 -0.05478337 0.026884502 0.018499108 0.04779898 -0.034696363
-0.007192851 -0.040822506 0.024870833 -0.022340678 0.0116826845 0.03870281 0.010302599 0.020452496
-0.018726477 -0.0054541323 -0.013891919 -0.009798821 0.04671119 0.020206686 -0.034012638 -0.026252871
-0.0024065392 -0.0064747334 0.024761911 0.0025694547 0.013233225 0.016868113 -0.02636351 0.012973786
-0.045178782 -0.015240305 0.02143415 -0.019280557 -0.027612932 -0.025832664 0.0009304337 -0.034965143
-0.035928253 0.015287649 -0.0770641 0.0010871759 -0.013610258 0.02154124 0.016199736 0.047442462
0.018249812 -0.014648874 0.044869132 -0.022935687 0.0052648345 0.034452137 -0.023694709 -0.009285429
0.0731536 0.016290382 -0.024480455 0.01893316 0.035076316 -0.007031096 -0.03374288 -0.0010011243
0.00251784 -0.032690227 -0.022842404 0.028841572 -0.009876025 -0.0019297964 -0.009353408 0.021334391
0.011389722 0.029338833 -0.01944574 -0.008684042 -0.0107115805 0.00026187647 -0.0564215 -0.040763035
0.04780013 -0.045834176 -0.0014746226 0.025959738 -0.029022414 0.008484576 0.044442978 -0.029207285
-0.0060663633 -0.023907032 -0.0056448714 -0.035329416 -0.019012678 -0.008543709 -0.030234745 -0.036238745
-0.021169027 0.0058987425 -0.012582503 -0.013923645 0.039315015 0.005395175 0.04157996 0.031502753
-0.010630901 0.007913397 0.015014793 0.033637978 -0.04099003 0.016265957 -0.04250421 -0.002147416
0.047740933 -0.011021067 -0.049710076 -0.04794206 0.0014089918 -0.056902025 -0.019846577 -0.016709052
-0.027228639 0.010727744 0.0107312575 -0.06764245 0.0066918186 -0.033353847 -0.044397 -0.01404296
-0.013192184 -0.029565325 0.04553869 0.02469324 -0.027252223 -0.034897663 0.0053223195 -0.0005362401
0.010940131 0.027640102 -0.02239172 0.015246168 0.013100587 0.033106763 0.020046216 -0.01981485
0.0355888 0.018195419 0.020599455 0.051184613 -0.009837545 -0.015999282 0.043102305 0.01354455
-0.037990686 0.016466808 0.014903189 0.016600203 0.007851312 0.01480323 -0.02960586 -0.04263284
0.021250822 -0.03004068 0.0071355794 0.018479249 -0.0028963315 0.020145072 -0.03455406 0.024284722
0.02084742 -0.029547246 0.008506531 -0.048169777 -0.0038768668 0.001907036 0.0032206958 -0.0025255585
-0.007718874 -0.0047533847 0.029037418 0.00010625805 -0.0141044855 0.033950754 0.054311823 0.027916102
0.043936335 0.039312225 -0.028474165 -0.0019030023 0.020174883 -0.033932023 0.021591624 -0.042310487
-0.021912027 0.024808204 -0.011564631 -0.02676003 0.00022041061 -0.006929197 -0.05226462 0.03301474
00000000: 34f4 fcbb 46bc 2a3d c19d b9bc 7b2b a23a
00000010: b1cf 5d3c f135 143d eefa 663d 187e 083c
00000020: 6ed8 213b dce1 25bc 6ddf 263c c75e 63bd
00000030: 125a bdbc bc2e 9f3c 01f1 1fbd b2fc 4e3c
00000040: 875d 933c c96f 86bb 2dd9 8d3c d8db 793c
00000050: 9eb4 2abd f0a4 30bc eea2 803c 0451 33bd
00000060: 8e49 783d 4259 78bc 8e87 80bc 8060 333c
00000070: 31c3 fd3c 35a3 00bd 2a98 9dbb 9eb2 41bd
00000080: bf13 43bd 089e 7fbc 17d4 02bc 16c9 2ebc
00000090: 8e52 3d3c 5b94 c8bc 7b25 0ebc 7d8f 1a3d
000000a0: 457c 01bd cf1c 44bd e03d a93c a670 7c3d
000000b0: 4f5d b13b 2eb4 03bd 4480 01bd 2ba8 ecbc
000000c0: 0885 b9bc e972 f7bc f158 0b3d 16d2 39bd
000000d0: 35f7 30bc 1464 f53c 1857 79bb 3966 2f3d
000000e0: 047d 653c ded2 153d 70bf 853c 8764 60bd
000000f0: e33c dc3c 718b 973c ddc8 433d c61d 0ebd
00000100: 02b2 ebbb 8035 27bd ebbd cb3c cc03 b7bc
00000110: bb68 3f3c d686 1e3d 3bcc 283c fe8b a73c
00000120: 4568 99bc 94b8 b2bb ee9a 63bc 3c8b 20bc
00000130: 3c54 3f3d 7e88 a53c d650 0bbd 4310 d7bc
00000140: 07b7 1dbb 002a d4bb 7ed9 ca3c 4c64 283b
00000150: 2bd0 583c ff2e 8a3c 4af8 d7bc 0190 543c
00000160: 630d 39bd 79b2 79bc ac96 af3c 42f2 9dbc
00000170: 8434 e2bc 069f d3bc 59e8 733a 9c37 0fbd
00000180: 8129 13bd 0c79 7a3c c8d3 9dbd 927f 8e3a
00000190: 8ffd 5ebc 4177 b03c 4fb5 843c 0753 423d
000001a0: a180 953c d501 70bc b2c8 373d 9fe3 bbbc
000001b0: a284 ac3b af1d 0d3d 681b c2bc e921 18bc
000001c0: 8ed1 953d 6873 853c 3c8b c8bc b719 9b3c
000001d0: 2fac 0f3d 1c65 e6bb f935 0abd 2838 83ba
000001e0: 5802 253b 30e6 05bd fe1f bbbc 2945 ec3c
000001f0: 0dcf 21bc 39f1 fcba 093f 19bc 76c5 ae3c
00000200: f59b 3a3c fe57 f03c ac4c 9fbc 8347 0ebc
00000210: a07f 2fbc 774c 8939 3b1a 67bd 24f7 26bd
00000220: 12ca 433d 9ebc 3bbd 2048 c1ba 84a9 d43c
00000230: 6ac0 edbc e402 0b3c d709 363d 1e44 efbc
00000240: 58c8 c6bb aed8 c3bc 9df8 b8bb 94b5 10bd
00000250: 7ac0 9bbc eafa 0bbc dbae f7bc 146f 14bd
00000260: ab6a adbc 3d4a c13b d826 4ebc 0020 64bc
00000270: c808 213d 02ca b03b c04f 2a3d 0809 013d
00000280: 3b2d 2ebc 31a7 013c 9b00 763c fac7 093d
00000290: 29e5 27bd 2f40 853c e518 2ebd a9bb 0cbb
000002a0: ff8b 433d b591 34bc cb9c 4bbd e55e 44bd
000002b0: ebad b83a 1912 69bd 4a95 a2bc 6ce1 88bc
000002c0: 980e dfbc 6bc3 2f3c 28d2 2f3c 2088 8abd
000002d0: 0b47 db3b 0b9e 08bd a1d9 35bd 7114 66bc
000002e0: 0824 58bc fb32 f2bc c786 3a3d 7a49 ca3c
000002f0: 0e40 dfbc daf0 0ebd da66 ae3b 7792 0cba
00000300: 3c3e 333c 7f6d e23c d76e b7bc 10cb 793c
00000310: d8a3 563c f59a 073d f637 a43c c152 a2bc
00000320: 90c5 113d 8f0e 953c 30c0 a83c f5a6 513d
00000330: a82d 21bc ed10 83bc 0b8c 303d f6e9 5d3c
00000340: 1f9c 1bbd 66e5 863c 812c 743c 26fd 873c
00000350: caa2 003c 3f89 723c fd87 f2bc c69f 2ebd
00000360: 3416 ae3c df17 f6bc 94d1 e93b cb61 973c
00000370: 61d0 3dbb 4707 a53c 8f88 0dbd c1f0 c63c
00000380: 35c8 aa3c 110d f2bc fa5e 0b3c ac4d 45bd
00000390: 0813 7ebb 83f5 f93a 4f12 533b d783 25bb
000003a0: 9cee fcbb 48c2 9bbb e1df ed3c dbd6 de38
000003b0: 8016 67bc f20f 0b3d 1376 5e3d 4fb0 e43c
000003c0: 96f6 333d db05 213d a742 e9bc 296e f9ba
000003d0: cc45 a53c 4efc 0abd ebe0 b03c c34d 2dbd
000003e0: da80 b3bc 933a cb3c 9479 3dbc da37 dbbc
000003f0: 061e 6739 510e e3bb 6d13 56bd 773a 073d

encoder.6.block.2.bias f4 [64]
0.006018613 0.019619975 -0.02016356 0.0031741671 -0.03388754 -0.018780306 -0.02965678 0.025134185
0.0185907 0.019990355 -0.0036161633 -0.0045666355 0.0044953665 0.007970374 -0.010794283 0.025728466
0.01723049 -0.023253633 0.031817615 -0.032106213 0.034108553 0.024145005 -0.004857838 0.03510892
0.01563736 -0.023274763 -0.004674428 0.027942428 -0.017404303 0.032859355 -0.025079342 0.030116975
0.037648324 -0.005490796 -0.0020035726 -0.004276805 -0.013959884 0.0067166523 -0.0169209 0.0035815432
-0.038560342 -0.017018644 0.010100568 -0.028612332 0.012890809 0.03508079 0.005897165 0.039509356
0.01392406 -0.008636631 0.040522233 0.024865018 -0.016669897 0.015980136 -0.01562974 0.015272394
-0.019505631 0.036557354 0.0028198531 0.017686581 0.050178714 0.020255389 0.01844631 -0.002337526
00000000: c937 c53b 12ba a03c 0d2e a5bc b005 503b
00000010: a9cd 0abd 28d9 99bc c7f2 f2bc 35e6 cd3c
00000020: 864b 983c d0c2 a33c 27fd 6cbb b7a3 95bb
00000030: de4d 933b 2c96 023c 81da 30bc 81c4 d23c
00000040: f526 8d3c 677e bebc 3053 023d ce81 03bd
00000050: 69b5 0b3d bfcb c53c 802e 9fbb 5fce 0f3d
00000060: ec19 803c b7aa bebc f22b 99bb 85e7 e43c
00000070: 7893 8ebc 8897 063d 3173 cdbc e0b7 f63c
00000080: 2135 1a3d 23ec b3bb 5f4e 03bb 7124 8cbb
00000090: ffb7 64bc 5d17 dc3b b39d 8abc 53b8 6a3b
000000a0: 73f1 1dbd af6a 8bbc da7c 253c 6964 eabc
000000b0: f933 533c e0b0 0f3d 013d c13b 90d4 213d
000000c0: be21 643c a880 0dbc a4fa 253d b9b1 cb3c
000000d0: 4f8f 88bc c6e8 823c f109 80bc 1039 7a3c
000000e0: 46ca 9fbc 2abd 153d 49cd 383b 73e3 903c
000000f0: 3288 4d3d a1ee a53c b71c 973c 2e31 19bb
