machine_learning/esrgan_model_blur.pth (torch, 469884 bytes, 35 tensors)

encoder.0.block.0.weight f4 [8, 1, 3, 3]
00000000: 7ba1 513e cc84 33be ddff 9cbe 7f7c 893e
00000010: 2094 b13d 0b0d 41be 8c69 a5be 2355 9b3e
00000020: fb23 693e 3969 40be 661d a2be ee85 113e
00000030: 7323 9fbe 28e2 70be 70b7 663e fd5d 4fbd
00000040: 613d c43d 68a6 8b3e baab a43e 3b24 25be
00000050: b46a 253e eabf 0cbe 240e ab3e 5dc2 c0bd
00000060: 4f3e 233e f4ac 7a3e 9f68 cbbd 71de 963e
00000070: 6f79 83be 8612 7d3d b9e4 7fbe 559c c43c
00000080: 472e de3d b01b 873e 503e a13e d68e 833d
00000090: 46d0 743d a7f6 93bd e761 89be c9f6 793e
000000a0: 4e28 2fbe 79b9 723c b317 7fbe 92ec f43d
000000b0: 0fa7 83be f4ab 9bbe 23c1 0d3e b58c 793c
000000c0: c4ef e8bd c16e 83be 8c43 aa3d 0000 0c3e
000000d0: 1931 04be ea87 9e3e 432f c53d 3244 ae3d
000000e0: f411 6d3e 318d 97be be1d ffbd 4332 8bbd
000000f0: bbfd 633c bf23 6f3e 2a33 b83d 1a2b 873d
00000100: 9fa1 cc3d 8538 7bbe 051d 56be ddf5 56bd
00000110: 4744 873e a49e 9a3e d44c 30be f6ad 49bd
0.20471756 -0.17531127 -0.30663958 0.26852795 0.08670831 -0.18852632 -0.32307088 0.30338392
0.22767632 -0.1879014 -0.31663054 0.14211246 -0.31081733 -0.23523772 0.22530913 -0.050626744
0.095820196 0.27275395 0.32162267 -0.16127102 0.16153985 -0.13745084 0.33409226 -0.09412072
0.15941738 0.24480039 -0.09932064 0.29466584 -0.25678584 0.061785243 -0.24989595 0.024000326
0.108486705 0.2638831 0.31492853 0.06423728 0.059768938 -0.072247796 -0.26832506 0.24410547
-0.17105219 0.014814728 -0.24911384 0.11959185 -0.25713393 -0.30404627 0.13843207 0.015231301
-0.11373857 -0.25670436 0.08313665 0.13671875 -0.12909354 0.3096307 0.09628155 0.08509101
0.2315138 -0.29599908 -0.12456845 -0.06796696 0.0139154745 0.2335348 0.08994134 0.06600018
0.09991764 -0.24533279 -0.20909508 -0.052480567 0.2641928 0.30199158 -0.17216808 -0.049238168

encoder.0.block.0.bias f4 [8]
00000000: ad80 5b3e 6d06 efbd b614 893d cbf9 a93e
00000010: 4ddf 0c3d 7734 88be 433a a13e bb57 53be
0.21435805 -0.116711475 0.066934034 0.3319839 0.034392644 -0.26602527 0.31489763 -0.20638935

encoder.0.block.2.weight f4 [8]
00000000: efb5 813f 4d61 833f 28fb 7f3f 16e6 813f
00000010: 26c6 823f e91b 893f dbbb 803f 5c07 7b3f
1.0133647 1.0264069 0.9999261 1.0148342 1.021672 1.0711643 1.0057329 0.98058105

encoder.0.block.2.bias f4 [8]
00000000: 5dc3 97bb e1a3 a439 4184 f9bb f336 efbb
00000010: b214 a7bb aff9 1ebb 9c1d 4f3b 96c6 02bc
-0.0046314434 0.00031402617 -0.007614643 -0.0073002516 -0.0050989026 -0.002425771 0.0031603342 -0.007981917

encoder.0.block.2.running_mean f4 [8]
00000000: 0940 833e bed3 31bb 5fe2 c03e c90d 193f
00000010: abe8 893b f37f 4fbb f009 da3e 0550 06bb
0.25634792 -0.0027134265 0.37672707 0.5978666 0.0042086444 -0.0031661957 0.42585707 -0.0020494473

encoder.0.block.2.running_var f4 [8]
00000000: f80c c33a f190 c835 482b 4a3d e0d5 143d
00000010: b2ba 4b39 b89b 7734 fb25 d23b 46de e331
0.0014881184 1.4943345e-06 0.049357682 0.03633678 0.00019429138 2.3060318e-07 0.006413219 6.631839e-09

encoder.2.block.0.weight f4 [16, 8, 3, 3]
00000000: 503b 8c3d d5df d8bc 6653 e83d 920b 06bd
00000010: f815 4e3d e02f e93d 1d10 313d cc48 8c3d
00000020: 6cfe babc e32d 55bd 241f 91ba d2b3 ccbd
00000030: b4c5 183d 99ac b13b ca11 03bd c08c c03c
00000040: 18ec 8cbb eb1a 5cbd b6cf 1a3c 072f 413d
00000050: ee5e cc3d 6cfe 963b 0500 8e3d ac8a b0bc
00000060: d860 cf3d 5f20 673d 745b bbbd 2a49 fdbd
00000070: 95ec a13d 625b 50bd f722 83bd 01fa 2bbd
00000080: b27f db3d 6638 1dbd 90d2 783d 4dd3 99bd
00000090: 6b41 933d 4441 e4bb 1ed3 d43d 142f c63d
000000a0: ef6d 08bd f245 a2bc 71b7 9f3d 02eb 3dbd
000000b0: dbbd fc39 1997 293e e54e bdbb 4a38 c83c
000000c0: 649a 823d 2a7e 79bc e7b6 60bd 2475 103d
000000d0: 9c2a 1fbd 2e8a b0bd 9eaa 4bbd 27f3 853d
000000e0: d08b fe3d 2b00 eebc 93d0 f23d 72a8 3fbd
000000f0: d9ce 0bbd 68f3 a8bd f6aa dd3b 618d e13c
00000100: bebc 653d 5e08 fa3c 6a3c ab3d 098b a2bc
00000110: 7ad0 e3bc 81ec bfbd 6bab 5f3d 8dcd 2fbd
00000120: 3fda 2e3d 4086 c33d b885 9f3c 2dd0 0ebd
00000130: b9c3 4bbd eb7d 043e 6349 583d f7ba 773d
00000140: 37bc 81bd 8e95 75bd a185 dbbd 93d0 8cbd
00000150: 268a dbbd 4bd2 e93c 8c22 71bd e852 813d
00000160: 51aa 18bd c7f2 a03d 5e7e 883d bf92 6fbc
00000170: 5cb6 87bc 8cfe 8dbd a733 443d 1dca 36bd
00000180: efcf 96bc 2364 113d e7c5 903d 5282 9f3d
00000190: c6b9 983d cd49 a13d fd64 873d d5ad bc3d
000001a0: b38b a23d 7a20 f5bc 15a1 f23d cfce 8bbd
000001b0: aca5 e6bc d53d 35bb 3bef 853d d5ca df3d
000001c0: 3465 cb3d f738 f33d a50d f33c 548a eb3d
000001d0: a220 d3bd aca2 41bd fb3c f5bd 6a2b 03be
000001e0: d109 893d 9a66 dabd d8a2 20be 940b d6bb
000001f0: cc46 18be 28fc 843d bc32 2ebd bbe1 003e
00000200: e2aa d7bd 4f5d 96bd 0704 9cbd 90cd 993d
00000210: 1939 173d 4bbc fa3d 5323 01be 2526 cbbd
00000220: 0d52 cfbc 5a83 513c 79e6 c53c 47df febc
00000230: 263b d2bd 4233 64bd 343f 16bd 8037 3dbc
00000240: 7dd5 a03c 9cbd b0bd 5909 08bc 27a8 8d3d
00000250: 510c acbd 1d7c 06be 9caa d53d 889c 953d
00000260: a959 6bbd 1671 98bd 868e e13d 3544 c43c
00000270: 3ed2 84bd 219d 4b3c c772 37bd eaa0 b63d
00000280: e4ce be3d 291a b63d b976 9cbd 9f94 a43d
00000290: 6f76 93bd 39d4 c8bd a56b 1fbd 0ca3 d63d
000002a0: 464b 9b3d b773 ca3c 813b 4dbd dd20 af3d
000002b0: 9ded 843c 10cf e7bd adef 81bd 5e39 6f3d
000002c0: 47ab 95bd 9bda 7fbd 0184 67bb 4ca6 b03d
000002d0: b5d3 c53c a84e 093e 07e1 b3bd 1c18 0a3e
000002e0: 8087 47bc 2cfe 33bc 618d b03d 451c cebd
000002f0: 6f8c aebd 130a 973d 64d0 c9ba ecb7 51bc
00000300: 0c8c 03be 61fe b2bc fbd9 b9bd e3f1 8a3d
00000310: 4db1 d4bd 0a27 403d e78a b5bb 13db c5bd
00000320: 48d6 9a3d 384c b7bd 8aed b33c fbf1 0c3d
00000330: b5dd cabd 70ca 783d 44fb c7bd b13f 9ebc
00000340: ab4f 0abd da5f af3d fdf5 d3bc 55bb 1f3d
00000350: 8dd7 25bd 6cde 87bd 8b2b f5bc 80b1 9d3c
00000360: e9d0 d7bd a4b1 103d 102b 993d 4c9c 033a
00000370: db3b 83bd c36f 63bd 06c2 76bd 0954 343d
00000380: 4f4c bdbd c2f1 853c 835f d8bd 5c75 193d
00000390: 3f23 6b3d af93 173d 2e55 c83d 4826 4b3d
000003a0: 80b1 f93c 7bd8 06bd af9c 8abd 6d53 923c
000003b0: 2a86 183d f8a9 7abd 6322 243d aaed d1bd
000003c0: c6cc aa3d fa35 9f3c e7d9 133d 9c0e 0a3d
000003d0: 65fd e2bd e2fd a63d 6135 c8bd 86c1 6cbd
000003e0: d268 47bd 5e40 113c 2a29 1ebd a61c e73d
000003f0: 2498 f0bd affa 5fbb 306e a7bd 54f2 edbb
0.068472505 -0.026473919 0.11344032 -0.032725878 0.05031392 0.113860846 0.043228257 0.068498224
-0.022826396 -0.052045714 -0.0011071903 -0.099952355 0.03729792 0.0054221866 -0.031999387 0.023504615
-0.0043006055 -0.05373661 0.009448936 0.04716399 0.09979044 0.004607966 0.069335975 -0.021550499
0.10125893 0.056427356 -0.09148303 -0.123674706 0.079064526 -0.0508684 -0.064031534 -0.04198647
0.10717715 -0.038383864 0.060747683 -0.075110056 0.07190212 -0.006965788 0.1039183 0.09676948
-0.033307966 -0.019808743 0.077986605 -0.0463667 0.0004820664 0.16561545 -0.005777227 0.024440903
0.06377104 -0.015227834 -0.05486193 0.035267964 -0.038858995 -0.08620106 -0.04972326 0.06540518
0.12429011 -0.029052814 0.118561886 -0.0467915 -0.034132812 -0.08249551 0.006764765 0.027533235
0.0560882 0.030521568 0.083611324 -0.019841688 -0.02780937 -0.093712814 0.054606836 -0.042920638
0.042688604 0.095470905 0.019472942 -0.0348665 -0.049747203 0.12938659 0.052804362 0.060481038
-0.06334727 -0.05995708 -0.10718847 -0.0687572 -0.10719709 0.028542658 -0.058870837 0.06314641
-0.0372718 0.07858806 0.06664728 -0.014622389 -0.016566448 -0.069333166 0.047900822 -0.044626344
-0.018409697 0.03549589 0.07068997 0.077885285 0.074573085 0.078754045 0.06611059 0.09212843
0.07936802 -0.029922713 0.1184713 -0.06826555 -0.02815517 -0.0027655263 0.0653977 0.10927359
0.09931412 0.118760996 0.029669592 0.11500993 -0.103089586 -0.047274277 -0.11974522 -0.1280953
0.066913255 -0.10664101 -0.1568712 -0.006532142 -0.14870757 0.064934075 -0.042528853 0.1258611
-0.1053064 -0.07342016 -0.07617956 0.07509911 0.036919687 0.12242945 -0.12611131 -0.09919385
-0.02530768 0.012787664 0.02415775 -0.031112326 -0.10265188 -0.055712946 -0.03668137 -0.011548877
0.01963305 -0.08629915 -0.00830301 0.06916838 -0.08400787 -0.13133283 0.10432932 0.073052466
-0.057458553 -0.074434444 0.11013512 0.023958305 -0.06485413 0.012427599 -0.044787195 0.08917411
0.09316805 0.088917084 -0.07639832 0.0803616 -0.07200324 -0.09806103 -0.038921017 0.104803175
0.07582717 0.02471338 -0.050105575 0.0855119 0.016226584 -0.11318791 -0.06344543 0.05840432
-0.07308059 -0.062464338 -0.0035326483 0.086254686 0.024148801 0.13408911 -0.08783155 0.1348576
-0.012178302 -0.010985892 0.08620716 -0.10063986 -0.08522879 0.073749684 -0.0015397188 -0.012800198
-0.12846392 -0.021849813 -0.090747796 0.067844175 -0.1038538 0.04691223 -0.00554024 -0.09660926
0.07560402 -0.089500844 0.021963853 0.034410458 -0.099055685 0.060739934 -0.09764722 -0.01931748
-0.033767384 0.08563204 -0.025874132 0.038997013 -0.04048877 -0.066342205 -0.02992799 0.019249678
-0.10537893 0.03532566 0.07478917 0.00050205435 -0.06407901 -0.055526506 -0.06024363 0.044025455
-0.0924307 0.01635063 -0.105650924 0.03746544 0.05740666 0.037006076 0.09781872 0.049597055
0.030480146 -0.032921296 -0.06768166 0.017862046 0.037237324 -0.06119725 0.040071856 -0.10250409
0.08339839 0.019434918 0.03609648 0.03370534 -0.110834874 0.08153893 -0.09775806 -0.057801746
-0.04868395 0.008865444 -0.038613476 0.11284761 -0.117477685 -0.0034176519 -0.081753135 -0.007261554

encoder.2.block.0.bias f4 [16]
00000000: 745c f3bd c8c5 cf3d b6de 663d 2e15 7b3d
00000010: d758 b4bc 95f1 c2bd 2268 a83d 84a5 44bd
00000020: 9790 42bc 962f 48bd 5196 f0bb a5c2 a53d
00000030: 2b74 16bd ca97 ec3d 4c7a 853d c5a5 6e3d
-0.118828684 0.10145146 0.056364737 0.061299495 -0.022015018 -0.09518734 0.08222987 -0.04800941
-0.011875293 -0.048873506 -0.007342138 0.08093766 -0.03673188 0.11552389 0.06517467 0.05826356

encoder.2.block.2.weight f4 [16, 16, 3, 3]
00000000: 89cf 1b3d 1121 893d a36c 8cbd 9093 e4bc
00000010: 15de d43b 79e8 023d 2415 07bc 4f8b c7bc
00000020: 5590 703d 569e efbb c5f0 f63c 36e6 2cbd
00000030: e99b 74bd 5e45 833c af02 623d c04f 9dbd
00000040: f9a8 26bd 59e4 cfbc 4b76 19bd 7254 b23c
00000050: fa88 1abd 130c eebc 1c44 03bd e64f 81bd
00000060: 03bc 10bd 4959 34bb 93bc aebd f065 4d3d
00000070: f154 0dbd d1e8 ecba e96a aa3c 013f 8b3d
00000080: c7e6 a13d a264 7c3d 50a7 143d 7be7 a83d
00000090: 741a 0fbc a8e0 45bd 4fd7 923d 07fb 2bbd
000000a0: 9a12 a1bd 7e27 8dbc 0527 a13b 09ed 9a3c
000000b0: dcdc 01bc 50b5 203d 956e 79bd e148 a23c
000000c0: 0505 a83d 426d 15bd c7c8 f5bc aa5f adbc
000000d0: 01aa 0cbd d7e9 813d 49eb 95bc 5c80 a1bd
000000e0: 1b41 60bd e6da f13a 1827 113d aad7 55bd
000000f0: ae97 6e3d 8246 5f3d aa13 523d 6e21 04bd
00000100: 0152 7b3d bec2 05bc fc4e dbbc f31e 9ebd
00000110: 4cc8 443d 4a52 553d 2dd7 413d 41de 69bd
00000120: 1231 7ebd 2142 eebd bd9f aabd 0a33 2e3d
00000130: cae3 20bd 554d 943c 1765 cabc 3a50 503c
00000140: a1e1 863d d2b8 bb3d d887 4bbd 488b 233d
00000150: f01b 393d 8123 5e3d eee2 1cbd 3883 42bc
00000160: 46fd a7bd 149c eabc da9c aa3a 72de c33c
00000170: 7188 c33c cc42 3e3d 290b d9bb 9cc6 853d
00000180: d545 b93c 9401 943d d5b7 be3c bec0 3cbc
00000190: f995 8a3c 9bb9 a2bc 930e 843d 9ee4 8cba
000001a0: 7816 5f3d 4428 c03b 5a6a 37bd cc91 26bd
000001b0: 63fc 83bb 7248 193c a268 833c a05c 1bbd
000001c0: 8a97 833d 55e2 a63d 7e60 733d 6c4e 983c
000001d0: eed8 4dbc 83e2 a53d 5042 4cbd b054 54bc
000001e0: 8dd0 b33d 2a9e 14bc 1aa3 713d c609 513d
000001f0: c48b 833d 9766 363d 176f f93c 3be6 86bb
00000200: f4c4 3b3d 3fe0 84bd dfe2 3bbd 6603 28bc
00000210: 8d86 63bd e0c5 b9bc 9616 97bd 0389 33bd
00000220: f0a3 76bd b955 b43c b6a4 83bd 8c2a 6d3d
00000230: 3521 dabc 9c9e d53c ae29 83bc a2b2 0bbd
00000240: cd50 9cbd bc27 193d 6de9 183c 1a4b 84bd
00000250: 43dd 42bd 6972 ab3b d97d 07bd 507d 053d
00000260: f22d b63c 6d78 483b 54c4 0ebd 44d1 a63c
00000270: 5281 0f3d 2d70 a0bc 6cbd 4ebd ec62 443d
00000280: 69c8 a93d 5b4b d0bb ac77 cfbc 5947 13bd
00000290: 67a6 d9bc 9103 613d 186d 69bd e899 4ebd
000002a0: c844 bbbc 9a5e 1cbb e5b5 343c 9958 08bd
000002b0: 8865 153d 07ce a03b 1fbe ddbc 4e65 a3bd
000002c0: 360f c6bd eaf1 983d 69cd 40bd c3aa 1ebd
000002d0: 6b9b 41bd 5a47 5d3b 5e7a 85bd 9be1 f6bc
000002e0: 50d8 d73c 203f 92bc fc6e 79bd 4dd6 7ebd
000002f0: f824 98bd 5a43 823d e48f 94bd 78f2 b03d
00000300: 7d9d b53c 0e7c aabd 69e3 503d 1364 0fba
00000310: c501 c5bc 951b 41bd ff4f 3dbd 0b79 af3d
00000320: 5b4b 8b3d 7860 553d 072d 983d c28b 90bd
00000330: e9ed 773b 75f9 be3c c85b 993d a601 13be
00000340: 9318 8cbd b367 333a 2eee 513d 20e1 a5bd
00000350: efed afbd 3d53 2bbc aa7f 4dbd 6cbe 93bc
00000360: 0bff aa3c 664a 1fbd 52d1 cbbd 771e 9abd
00000370: 5fd5 d33c 9950 643d 933f 033d 159f 2dbd
00000380: 1623 443d 1e3a 47bd ed8a bebd 50a4 853d
00000390: 3ae7 1a3d 2f1b 943c 5cf5 ff3c a6a4 873c
000003a0: ec09 e33c dac0 a73d f10c 233d 9d3c e13b
000003b0: 43db e13c f1ab 393d 0a38 bcbc ca33 e43c
000003c0: 8d90 d8bc bb6a 553d 2100 e13c 079e 473d
000003d0: 5fd3 d4bc b0b0 f13c ccf3 9b3d fd2d ea3c
000003e0: 387d 3abb f7dc 20bb c1e4 953d f798 f93c
000003f0: 4784 c0bb 8ec8 103d a113 5d3d 557d 6c3c
0.038039718 0.0669576 -0.06856658 -0.027902395 0.006496201 0.031959984 -0.008244786 -0.02435842
0.058731396 -0.0073125763 0.030144105 -0.042211734 -0.059719 0.016024288 0.05517834 -0.07681227
-0.04068849 -0.02537744 -0.03746633 0.021768782 -0.037728287 -0.029058492 -0.032047376 -0.063140675
-0.035335552 -0.0027519038 -0.085320614 0.050146043 -0.034504835 -0.0018074756 0.020802932 0.067991264
0.079053454 0.06161941 0.036292374 0.082472764 -0.008734334 -0.048309952 0.07169973 -0.041987445
-0.07864876 -0.017230745 0.0049179816 0.018911855 -0.007926192 0.039235413 -0.060896475 0.019810142
0.082040824 -0.03648115 -0.030002965 -0.02116378 -0.034341816 0.063434295 -0.01830067 -0.07885811
-0.05474959 0.0018452078 0.035437673 -0.052207626 0.05825012 0.0545106 0.051288284 -0.032258444
0.061357502 -0.008164106 -0.026771061 -0.07720747 0.04804258 0.05208043 0.04732435 -0.057096723
-0.062058516 -0.11633707 -0.08331249 0.042529143 -0.039279737 0.018103281 -0.024706407 0.01271444
0.06586004 0.09166111 -0.049690098 0.03992775 0.04519266 0.054233078 -0.038302355 -0.011872105
-0.08202605 -0.028638877 0.0013016716 0.023909781 0.023868771 0.04645042 -0.006623645 0.06532022
0.022616306 0.072268635 0.023281017 -0.011520563 0.016917216 -0.019863894 0.06448092 -0.0010749286
0.054464787 0.005864175 -0.04477916 -0.040666386 -0.0040278896 0.009355651 0.016041104 -0.03793013
0.06425388 0.08148638 0.059418194 0.018592082 -0.012563927 0.08099844 -0.049867928 -0.012959644
0.08780012 -0.009070912 0.058993436 0.05103471 0.064231426 0.04453143 0.03044848 -0.004116801
0.045842126 -0.06488084 -0.045870658 -0.0102547165 -0.05554824 -0.022677362 -0.07377355 -0.043831836
-0.060214937 0.022013532 -0.064279005 0.057901904 -0.026627162 0.026076607 -0.016011085 -0.034105904
-0.07632599 0.03739141 0.009332997 -0.06459637 -0.047574293 0.0052321446 -0.033079002 0.03259021
0.022238705 0.0030589357 -0.0348552 0.020363458 0.03503544 -0.01958474 -0.050473616 0.0479459
0.08290178 -0.0063566393 -0.025325619 -0.035956714 -0.026568605 0.05493504 -0.056988806 -0.050439745
-0.022859946 -0.0023860098 0.011029695 -0.03328762 0.03647378 0.004907373 -0.027068196 -0.07978307
-0.0967087 0.074680164 -0.047070894 -0.03873707 -0.04726736 0.0033764453 -0.0651748 -0.030136874
0.026348263 -0.017852366 -0.06089686 -0.062216092 -0.07428926 0.063605025 -0.072540075 0.08639997
0.022169823 -0.08324443 0.050998125 -0.00054699293 -0.024048695 -0.047145445 -0.04621887 0.08568009
0.06801482 0.052093953 0.07430463 -0.07057907 0.0037831014 0.02331231 0.07488209 -0.14356098
-0.06840625 0.00068437605 0.051252536 -0.0809958 -0.08590304 -0.010456857 -0.050170578 -0.018035136
0.020873567 -0.03888931 -0.09952034 -0.07525342 0.02585858 0.055740926 0.03204305 -0.04238804
0.047885023 -0.04863941 -0.09303842 0.06525481 0.03781817 0.018079368 0.031244926 0.016558003
0.027714692 0.081910804 0.039807264 0.0068736807 0.027570372 0.04532999 -0.02297594 0.027856726
-0.026436115 0.05210374 0.027465882 0.04873469 -0.025979696 0.029503196 0.0761486 0.028586382
-0.0028455984 -0.0024545768 0.07319022 0.030468447 -0.0058751437 0.035347514 0.053973798 0.014434178

encoder.2.block.2.bias f4 [16]
00000000: eff6 9d3c b638 eb3b 6d57 8c3c b936 713d
00000010: 99df 9ebd fabd dd3a 2dc4 81bd 5137 febc
00000020: a1f5 b5bd 6638 92bd 4d2b 9f3d 73ed 72bd
00000030: 4aca f3bc 6ba8 6f3c 9de6 943d bd92 413d
0.019282786 0.0071783913 0.017131532 0.05889008 -0.077574916 0.0016917579 -0.06336246 -0.031032236
-0.088847406 -0.071396634 0.07771931 -0.05930848 -0.029759545 0.014627556 0.072705485 0.04725908

encoder.4.block.0.weight f4 [32, 16, 3, 3]
00000000: cbdf a7bd 7106 32bd d19e 0bbc a7da 14bd
00000010: a7b2 80bc 6b91 00bd b588 8f3d 0bc9 2f3d
00000020: 9699 febc ea11 753d c5fb a4bd 0048 a0bd
00000030: fe7a f53c 01ec 6cbb 1875 94bd a3c3 c73c
00000040: f936 aa3d 920a aebc 7073 b2ba 3ec2 9e3d
00000050: 263f 703c 35c3 adbd 5f25 9fbd 8743 80bd
00000060: a4fa 73bd 4989 533d da52 3c3b 3ffa 97bd
00000070: 1575 863d a3c7 19bd 4a9b 883d e304 de3c
00000080: 9487 6a3d 0931 7ebd 2311 6abd 45cf 993d
00000090: 9654 973d 98a0 9c3c abe3 7b3d a5ca 8abc
000000a0: 401f 593d 4d55 303d 8152 3abd 626a a83d
000000b0: 0f1c 8b3d acc0 1a3d ebac 63bd 8b3b 953d
000000c0: 65f5 01bd 6f3f c7bb 94d0 a8bb 8615 2f3c
000000d0: fa53 823d 9c5d b9bd 0454 6dbc 2a0e 9cbd
000000e0: 45d6 813d fc7e 93bd 2eab 453d fb8e a63c
000000f0: 85b5 5fbd 5ce8 22bd c4a3 803d a66f 4b3d
00000100: 6028 cebc bd6b 0e3d 6fdb 493d af29 e33d
00000110: 12a3 8cbc 9f64 d53b d5f1 40bc 245a 47bd
00000120: 1149 703d d142 95bd 72a0 9e3b 85bf e6bc
00000130: 3c8c a73d dbe5 5d3d 668b e63a a80f 86bd
00000140: 520f 3fbd e3ec 493d 73b7 0a3d 78f3 c03c
00000150: 1487 673c 81aa c2bc 7882 68bb b4cc bb3d
00000160: 86fd 873d 56ff ad3c 8c15 84bd a283 bb3c
00000170: 1d0d 893c 081e 5f3c bc82 8bbd bdd9 ba3c
00000180: 3058 87bd 1f02 5f3d 057d 04bd e68d bc3b
00000190: d676 893d c09b 3bbd d1b3 e1bb 7508 2dbc
000001a0: 50dd 91bd 3cfc b73d 9d2d 8f3c 6d55 8e3d
000001b0: 3bce 3c3b 5920 803d 0569 083d f782 923d
000001c0: dcdd 333c 4c11 383d 8742 4a3d e6d1 863d
000001d0: 2344 a03b 9444 aabd 9d12 283d 2241 613d
000001e0: e063 efbc b757 9bbd d057 9a3d 4b5c 803d
000001f0: 15de 92bd f956 843b dbfd b1bb 2e10 263d
00000200: 589e 7a3d 43cc 383d 3793 5cbd e04c 613c
00000210: 2af6 6f3d 4a08 ee3c 4683 173d e13b 56bd
00000220: 8278 183c 3c36 8cbc 5d21 78bb 3c65 8d3c
00000230: 17aa f1bb 1577 b3bc 1051 973d 00e4 5dbc
00000240: 626d 633d f5a5 c33d b4aa 573d 254b 7e3d
00000250: 4324 183c 2966 adbc dba1 05bd c40b 61bd
00000260: aa42 1b3c 5920 ab3c e75d 86bc a53f 31bd
00000270: dfcc 01bd a2fb da3c e2ee eb3c 938d 99bd
00000280: deed 91bb 9cd7 cebd e584 a93d 7a5c 243d
00000290: e73c 443d 2515 14bd 2af7 f03b 584d 863c
000002a0: 973f fdbc a01e b0bd 685f 7bbd 4b16 e4bc
000002b0: 44bc e63c 15a2 e53c d3be 75bd c146 40bd
000002c0: 607c 573d ec51 34bd 9b66 013c 4c0a 73bd
000002d0: dfb5 803d 5caa 843c 4677 70bd 3637 513b
000002e0: 45ca 5e3d 9d60 a0bc 6cd3 55bc 67e3 c3bd
000002f0: 0b1d c73c 0194 8cbc 9e9e 4dbd f954 9b3b
00000300: d325 a13d 98d1 b0bd ea9f a6bd 9b74 8cbd
00000310: 067b 92bd 1209 a1bd c533 c83d 3089 82bd
00000320: 1e40 103d e084 793d 4926 89bc bf90 0dbd
00000330: 6ffa 7fbd 538b f3bc 3927 58bd 9243 3d3c
00000340: d4a4 263d e5c9 2e3c df05 f3bd b204 3e3c
00000350: 68e8 17bd a70e c7bd 98bd 5bbe c698 94bd
00000360: d0f9 48bc 212b 403d c050 18bd 3ce7 603d
00000370: 47b2 653d b219 c1bc 5773 bdbc fda5 08b9
00000380: aa47 853b 4925 ac3d f209 393d b765 343d
00000390: c614 c63c 86a1 d53c a7c6 d73c 2ce0 a0bd
000003a0: 4bd7 0f38 c580 673d 79bb b1bc a88e 2cbd
000003b0: 8e26 c1bc cf89 ccbc 0929 843d fdfa 4c3d
000003c0: 66bf 4cbc 3198 60bd dd5b 43bd 09d0 343c
000003d0: c276 e03c 65f0 9c3c 2151 a13c 877c 90bd
000003e0: 92f5 05bd 232c e93c dc2d ba3c 03f3 5b3d
000003f0: a6c1 fe3c 13f5 203d 7841 d93c 77ff d03c
-0.08196982 -0.043463174 -0.0085217515 -0.036341336 -0.015710188 -0.03138868 0.07008497 0.04291634
-0.031079095 0.059831537 -0.08055834 -0.07826233 0.029965874 -0.0036151411 -0.07248896 0.024385279
0.083112665 -0.021245275 -0.0013614725 0.077518925 0.014663493 -0.084844984 -0.077708 -0.0626288
-0.0595652 0.051644597 0.0028735907 -0.074207775 0.065653004 -0.037543904 0.06670244 0.02710194
0.057258204 -0.062058482 -0.05714525 0.07510237 0.0738918 0.019119546 0.061496418 -0.016942332
0.053008318 0.0430501 -0.045488838 0.08223416 0.06792461 0.037781402 -0.05558483 0.072867475
-0.031728167 -0.00608056 -0.0051518176 0.010686284 0.063636735 -0.09051058 -0.014485363 -0.07619889
0.06339697 -0.07201955 0.048258953 0.02033185 -0.05461647 -0.039772376 0.06281236 0.049667023
-0.025165737 0.034770716 0.049281534 0.11091935 -0.017167602 0.006512239 -0.011776407 -0.04866995
0.05866343 -0.07288135 0.004840904 -0.028167496 0.081810445 0.054174285 0.0017589151 -0.06545955
-0.04664547 0.04929818 0.033866357 0.023553595 0.014131326 -0.023762943 -0.0035478156 0.091699034
0.06640153 0.021239918 -0.06449422 0.022889916 0.016729886 0.013618 -0.06812045 0.022808904
-0.06608617 0.054445382 -0.03234579 0.0057542203 0.06712119 -0.04580283 -0.006887891 -0.010561098
-0.0712229 0.08983657 0.017477805 0.069498874 0.0028809446 0.0625617 0.03330328 0.07153886
0.010978188 0.04493837 0.04937985 0.06583004 0.004890935 -0.083138615 0.041033376 0.054993756
-0.029222429 -0.0758509 0.0753628 0.062676035 -0.07171265 0.0040386883 -0.0054318733 0.040542774
0.061186165 0.045116674 -0.053851333 0.013751239 0.05858437 0.029056687 0.036990426 -0.0523032
0.009306075 -0.017115705 -0.0037861683 0.017260186 -0.0073750126 -0.021907369 0.07388508 -0.013543129
0.055524237 0.09553138 0.05265303 0.062083382 0.009285989 -0.021166878 -0.03262506 -0.05494286
0.009476343 0.020889448 -0.016402198 -0.043273587 -0.03168952 0.026731316 0.028800432 -0.07497706
-0.004453405 -0.10099718 0.08277301 0.040127255 0.047909644 -0.036152977 0.007353683 0.016394302
-0.030914111 -0.08599591 -0.061370283 -0.027842661 0.028165944 0.028031388 -0.059996437 -0.046942476
0.052608848 -0.04402344 0.007897998 -0.05933599 0.06284689 0.016194515 -0.058707498 0.0031923777
0.054392118 -0.019577319 -0.013050895 -0.09564858 0.024305841 -0.017160418 -0.050200097 0.004740354
0.078685425 -0.08633727 -0.0813597 -0.06858178 -0.07152371 -0.07863058 0.09775499 -0.06373823
0.035217397 0.060917735 -0.016741889 -0.03456187 -0.06249469 -0.02972952 -0.05277178 0.011551755
0.040684536 0.010668253 -0.11866354 0.011597799 -0.037086874 -0.097195916 -0.21459043 -0.07255702
-0.012266591 0.04691613 -0.037186384 0.054908022 0.05607822 -0.023571823 -0.023126287 -0.00013031806
0.004067381 0.08405549 0.0451755 0.044042315 0.024179827 0.026077997 0.026339842 -0.078552574
3.4294364e-05 0.05651929 -0.02169584 -0.042128235 -0.023577955 -0.024968056 0.06453139 0.05004405
-0.012496805 -0.05483264 -0.04769503 0.011035928 0.027400378 0.019157598 0.019692006 -0.07055002
-0.032704897 0.028463429 0.022726946 0.05369855 0.031098198 0.03929622 0.026520476 0.02551244

encoder.4.block.0.bias f4 [32]
00000000: e4c3 46ba cfe2 513d 6de7 a93d 0775 5b3c
00000010: a458 72bc dd47 2e3d a10f 873c 03ce d13c
00000020: 2d50 293d f0d8 b33c 407a f63c e03c 5e3c
00000030: 95df fe3c 8896 ae3b 175c 3f3c a799 7cbd
00000040: 56e7 4dbd 62e7 0ebd 01da 7bbd 649f 98bd
00000050: d366 6ebd 72e0 67bd 8119 8ebc a069 3dbd
00000060: ed77 8e3c ab6d 543c cd73 9e3b f745 333d
00000070: 02d9 7ebd 94c9 45bc 23f5 1e3d 905f aebd
-0.00075822906 0.051241692 0.08296094 0.013394601 -0.014791641 0.042549003 0.016486945 0.02561093
0.041336227 0.02195403 0.03008759 0.013564318 0.031112472 0.0053280033 0.011679671 -0.06166997
-0.050269447 -0.034888633 -0.0614872 -0.07452276 -0.05820353 -0.056610532 -0.017346146 -0.04624331
0.01739117 0.0129656 0.004835582 0.043767896 -0.062218674 -0.012071986 0.038808 -0.08514321

encoder.4.block.2.weight f4 [32, 32, 3, 3]
00000000: 7192 7f3a 9b1d 6e3c 39f0 4cbd 7c8c 2eb9
00000010: 3e7d a7bb 5522 87bd 4c67 213d b051 a0bb
00000020: 7dbe 803b a1a0 0bbd 1ce8 f9bc f3a9 89bc
00000030: 0535 28bd d859 733c 0380 b23c 7c4f 6b3d
00000040: 7711 46bc bd67 a93c a882 55bd 904c ea3b
00000050: 698d 06bd fb4f 85bc 7a3f 62bd 7f06 2e3b
00000060: 6044 623b b7fd bc3a 28f0 65bd 607e a83c
00000070: 470d 963c 235a 94bc ea1c 15bd 93db fc3c
00000080: 69a3 a6bc 2a68 7cbd 2df5 c1bd fdb8 6c3c
00000090: 5704 f23c 077d 92bc cd94 5f39 4b77 cd3c
000000a0: 122e af3c db33 0ebb 2434 94bd 92ef e9bc
000000b0: 4ecf 6a3d c0d7 0c3d 8042 dc3c c974 f2bc
000000c0: cec2 46bb 6e35 c5bb 469e 69bd 29ae 763d
000000d0: 7350 063d 37b1 6e3b 11e8 c6bc c640 163d
000000e0: 2256 47bc 60a7 a33c 44fc 823b 36d9 14bd
000000f0: b4c9 33bd cc35 483d 87d7 01bd ed60 9cbd
00000100: 8aad cebc 023d bfbc 2a43 873b cb52 83bd
00000110: 4ce9 88bd 47a7 2b3d e424 473d c3d3 47bc
00000120: 7b1f 193d bd5e 363d 0b3a 75bd 124a 48bd
00000130: e7bc 553d c41d 3fbd 4162 8fbc a04c c93c
00000140: 252c 3bbd 629a b0bb 9c97 333d 3d28 21bc
00000150: a880 19bd 6039 e0bc b581 233c 860d 543d
00000160: 90ab 853c 196d f7bc 1121 4a3d 5fbb 39bd
00000170: d53f 57bd e775 5d3d 3caa 5cbc a735 0cbc
00000180: 3203 5b3d 8b15 803c fc71 813d dbf7 cdbc
00000190: 86df 3d3d 1924 2ebc 0fa1 c93c 0bc1 c9bc
000001a0: 80e0 3c3d ef77 f8bc 5773 bb3c 6ec4 c5bc
000001b0: 095d 03bd a2ea d6bc fd48 523d a948 493d
000001c0: 9535 81bd 5d43 65bd a6fb 663c 23b2 933c
000001d0: ddfe 093d 9e63 70bd 6c0f 84bd f383 b43b
000001e0: 5caa 413c 12c9 31bd d3f2 d33c aa64 46bd
000001f0: d10a 4e3d 46d7 4dbd cea5 64bd 01f8 cd3c
00000200: 11ae 503d 497f 253d f8c9 90bd 3096 503c
00000210: c2e2 32bd f3b5 84bd 5b34 2abd b4bb bd3c
00000220: 39d8 dfbc f585 a3bc 3f3a e93c cc25 6abd
00000230: bba4 d5bc 5f2a e83b c5c4 2e3d 6b77 2cbd
00000240: b165 c43a 367e 833c a362 ebbb 8f5b 2abd
00000250: 2526 553d e918 e73c f28d 66bd f3a6 693d
00000260: 7045 853b 666c 25bd fe05 44bd 8957 bd3b
00000270: 43d0 2dbc 2b23 363d 2ece a4bc f2c5 393d
00000280: 43de aa3c c1e1 cbbc fb6b 9e3d a4ee 343c
00000290: c44d b1bc 6904 5c3d 7f6c 08bd 2428 fb3c
000002a0: de70 303d c537 5a3d 63d9 653d b108 673c
000002b0: 7b5b 3cbc eb39 eb3d e9bc aebc a2fb 003d
000002c0: aa21 533d 2ff3 863d 7eb9 bebb 8722 6a3c
000002d0: a428 8f3d 4759 7fbd 24eb 77bd cebb 2c3c
000002e0: bb41 93bd a214 31bd 5339 283b b57a 9dbd
000002f0: 3c45 8fbd 37e0 f9bc a855 da3c fdd0 42bd
00000300: 75ef 3c3d 9f0b 043d 11cb 72bd 32dd 8d3d
00000310: 87ef 5b3c be6e cabc 4858 353d a6a2 f9bc
00000320: 30be 78bc 9509 d33c 0563 53bb e5ca d83c
00000330: 8e58 1aba fe21 453c 8c28 553d 8270 04bb
00000340: f268 babb 8354 103d d8ae 99bc 223c 333d
00000350: e070 10bd d249 4ebd bd58 573c d54f 063d
00000360: 0d97 e7bb 356e 36bc 8ece ff3c e9de 9a3c
00000370: 5b52 7abc 931d 863c 66e5 5ebc 0fe0 3f3d
00000380: 4a7c cf3c 9a57 d73c e551 273c e5c4 b3bc
00000390: 8911 04bd 6f16 c1bc 77c9 143d 2569 62bd
000003a0: 77cb 123c 8c1e 4b3d a176 a33c d8c4 223c
000003b0: 81a2 db3c 5a1d d83c 28a2 5a3c cd32 ee3c
000003c0: d3cb 56bd 0d39 7a3d 4a53 b53c e004 273c
000003d0: cda1 3cbd bcba 09bd 82a7 823d 96dc 6cbc
000003e0: 003d c6bc de02 1b3d a396 d63c d006 b63c
000003f0: 06d6 ac3c cf8f 6e3d e844 243c 5e37 033d
0.00097492995 0.014533426 -0.05003378 -0.00016646268 -0.0051113656 -0.06598345 0.039405152 -0.0048925504
0.003928958 -0.034088735 -0.030506186 -0.01680467 -0.04106619 0.014852963 0.021789556 0.05744885
-0.012089125 0.02067935 -0.052126557 0.0071502402 -0.032849703 -0.01627349 -0.055236317 0.0026554165
0.0034525618 0.0014418875 -0.056137234 0.020568073 0.018316878 -0.018109387 -0.036404528 0.03086642
-0.020341592 -0.061622776 -0.09470592 0.0144484015 0.029543085 -0.017881883 0.0002132237 0.025081297
0.021384273 -0.0021698389 -0.072365075 -0.028556619 0.057326607 0.034385443 0.026887178 -0.029596703
-0.0030328515 -0.006018332 -0.057035707 0.060224686 0.032791566 0.0036421546 -0.02428058 0.036682867
-0.012166532 0.019977272 0.0039973576 -0.03633996 -0.04389353 0.04887943 -0.031699684 -0.076356746
-0.025229234 -0.02334452 0.0041278796 -0.06412276 -0.06685123 0.041907575 0.048619166 -0.012196484
0.037383538 0.044523943 -0.059869807 -0.048898764 0.052182104 -0.046659246 -0.017502906 0.02457267
-0.045696396 -0.0053894976 0.043845758 -0.009836254 -0.03747621 -0.027371109 0.009979655 0.05177071
0.016317159 -0.030203389 0.04934794 -0.045344707 -0.05255111 0.05406752 -0.013468321 -0.008557714
0.053469844 0.015635272 0.06320569 -0.0251426 0.046355747 -0.010628724 0.024612932 -0.024628183
0.046112537 -0.030330626 0.022882147 -0.024141517 -0.032071147 -0.026234929 0.05133914 0.04914156
-0.06309048 -0.055972446 0.014098084 0.018029278 0.033690322 -0.058688752 -0.06448254 0.0055088936
0.011820402 -0.043404646 0.025872624 -0.048435844 0.050303284 -0.05025413 -0.055822186 0.025142672
0.050947253 0.04040459 -0.070697725 0.01273112 -0.043673284 -0.064800166 -0.041553836 0.023160793
-0.027324783 -0.019961337 0.028470157 -0.057164952 -0.026079526 0.007085129 0.042668123 -0.042106073
0.001498392 0.016051393 -0.0071833893 -0.041591223 0.05203833 0.02821012 -0.056287713 0.05704398
0.0040671155 -0.04038658 -0.047857277 0.0057782573 -0.0106087355 0.044467133 -0.020117845 0.04535479
0.020857936 -0.024887921 0.077354394 0.0110432245 -0.021643527 0.053715143 -0.033306595 0.030658789
0.04307639 0.053275842 0.05611552 0.014101193 -0.01149642 0.11485656 -0.021330314 0.031489976
0.051545776 0.06589352 -0.0058204522 0.0142904585 0.069901735 -0.062341 -0.060526982 0.010542823
-0.071902715 -0.043232568 0.0025668934 -0.0768942 -0.06995627 -0.030502422 0.026652172 -0.047562588
0.0461268 0.032237645 -0.05927569 0.06926955 0.013423807 -0.02471101 0.044273645 -0.030473065
-0.015182063 0.025761405 -0.0032255065 0.026463935 -0.00058878295 0.01203203 0.05204062 -0.0020208661
-0.00568878 0.035236847 -0.01876013 0.04375852 -0.035263896 -0.05036337 0.013143715 0.032790978
-0.007067567 -0.011134674 0.031226423 0.01890512 -0.015278424 0.016371524 -0.013604498 0.04684454
0.02532782 0.026286889 0.010212396 -0.021944473 -0.032243285 -0.023570267 0.036324944 -0.055276055
0.008959643 0.04958968 0.019954028 0.0099346265 0.026810886 0.026381183 0.013344325 0.029076958
-0.052440476 0.061089564 0.022134442 0.010194033 -0.046052743 -0.03362535 0.06379606 -0.014456889
-0.024199009 0.03784453 0.026194876 0.022220045 0.021098148 0.058242615 0.010026194 0.032035224

encoder.4.block.2.bias f4 [32]
00000000: 68a9 383d 3dd3 3e3d 88e2 ea3c 632a 3dbd
00000010: 8cb6 c63b 0231 bcbb ae69 eebc 3bf9 f0bc
00000020: 279f 583d 5f2e 6f3b 6fe8 efbc a261 3ebd
00000030: 06f0 b83c 9969 01bd 9e8f 4dbc 5fa6 fa3b
00000040: 4acb 2f3d 2591 45bd ffc2 c8bb 1978 d8ba
00000050: fe64 78bd ecb3 47bc a4d4 9dbb 772c 06bd
00000060: 3f22 603d ab82 cfbc bbad 52bd 7997 ddbb
00000070: bd03 4bbd ed5b 583d a13a 403d 0a81 303c
0.045083433 0.04658817 0.028672472 -0.046183 0.0060642418 -0.005743147 -0.029103126 -0.029415717
0.052886155 0.0036496145 -0.029285638 -0.04647983 0.02257539 -0.031594846 -0.012546448 0.0076492275
0.04291848 -0.048234124 -0.006126761 -0.0016515284 -0.06064319 -0.012188893 -0.0048166085 -0.03275725
0.05472016 -0.025330862 -0.051435214 -0.0067624417 -0.049564112 0.052822042 0.046930913 0.010772953

encoder.6.block.0.weight f4 [64, 32, 3, 3]
00000000: 6e5a ef3c ea99 b9bb 9523 4cbd 8147 773c
00000010: 1201 903c 344a 653d cc20 393d 0efb 3bbc
00000020: 3aaa b6bc 033c e23b fd8b 40bd 87cf 52bd
00000030: 0ac6 54bc 9606 163d a1e0 96bb e365 9ebc
00000040: 7448 86bc 69a6 b3bb cba4 843d 5145 ca3c
00000050: 5b79 bc3c 5646 73bc 4aa2 2dbd 0d55 4a3b
00000060: beb8 a6bc b19a 023c 9baf 103d 6bbd f03c
00000070: cf55 983c 58ef 0ebc ef65 413d fcf4 8bbc
00000080: 4078 313d 3129 c0bb 71ab e53c 2662 553d
00000090: 5e51 27bc 9f9d 57bc b009 663d 5a34 413d
000000a0: 07fa b239 a5ca 7d3d 30f1 cebc 0984 4dbd
000000b0: bc9a 843d 80ab 2bbd 39dd 3c3d 2e62 db3c
000000c0: f5e2 68bb eb4d a0bc b507 08bb 6707 b2bc
000000d0: eb2c 2ebd dcf2 193c e753 a3bc 16df 76bd
000000e0: 7791 aa3c fb44 52bd 00d6 673c a0cb 95bc
000000f0: 62d9 c23c 7e5d 41bc 0381 85bd 68c5 c13c
00000100: 8632 43bd 0a5a 243d 2134 2ebd 996e f53b
00000110: 65e7 bfbc 361e 6c3d 9485 573d fd9b 723a
00000120: 6c9d 433d f343 363d 12de 0a3d c358 123d
00000130: 580a f6bc 377d 32bd b226 103d 618c 303c
00000140: e56a 0ebd 02f0 3ebd 7dd9 2ebd e7c0 59bd
00000150: c98a e1ba a26c 353b dbdc 563d 81cf 2cbd
00000160: 59ca 65bc b0fa 84bd df51 5cbd 490a 363c
00000170: a31a 56bc b8f6 6ebb 7380 54bd 4d86 203d
00000180: 63c8 2a3d 8b22 3a3a 4f9c f83c 094c 06bd
00000190: a3ab 6ebd f46f a73c 4f72 99bb a9df 4dbc
000001a0: f51b d1bc d306 3bbd e66b 3e3d b568 2e3d
000001b0: f3ad 653c 136d 07bd 1581 0c3d eff2 153c
000001c0: f12e 153d 5bde 08bc 99db 703d 7651 e63c
000001d0: 6308 483d 859d c9bc f55d 2abb dc45 86bb
000001e0: b26a c2bc f4e0 66bd 3a67 1dbd 4aa3 15bd
000001f0: 4bb8 f5bc 540c 2bbc 03d3 383d 63de 21bd
00000200: a4d1 0c3d c7ad 7cbd 6542 81bc c994 c6bc
00000210: 889a 993c 9552 0ebd 3c82 453c 4246 523d
00000220: bff8 a03c c649 9cbc 42b6 54bd e9e2 48bd
00000230: 5e7b 4abd 44b2 17bd 8006 a03c 32a8 893b
00000240: deb7 6ebb 9d4d c4bc 34e4 2abd d519 fc3b
00000250: c07d 573c 14bd b7bc a8c7 c4bc a9dd c4bc
00000260: 78b0 60bd f95b 3d3d 590f 0a3c ec1d 483d
00000270: 6d5d 863d ce3a b63c 9f7e 70bb 4fe6 983c
00000280: c4a7 02bd e5f8 ebbb 0a9c 67bc 322b a4bc
00000290: fc2e a03b 40cc 6bbd 16ca 463c 82f8 993c
000002a0: d95b 633d ee05 d73c 0f85 123d 919b ef3c
000002b0: 5282 85bc f7b5 f23c f8eb 39bc 0464 1d3d
000002c0: e5cc 1a3c 9b60 06bd 5d16 78bc 602f ae3c
000002d0: 6978 e23c 59a3 35bd 2616 22bd 258e 1b3c
000002e0: d59c 1e3c 1114 7d3d 20e6 8a3c b820 f3bc
000002f0: fa57 743d bc17 5d3d 70ca 67bc a488 e03c
00000300: 5800 113d 04fc 333d 2d57 00bd 366d 813d
00000310: 9f21 72bd 221e 83bd 759e 813c 017d 15bd
00000320: 5550 693d 64fb 203c 17ed 6abd 74fe 5fbd
00000330: 73aa 75bd 94bc 1bbd 9f6b d2bb d63f 363d
00000340: 337d 3f3d 2443 0ebd 1904 91ba 79ec 30bd
00000350: 0e50 84bc 5499 013d e3e3 513d ac28 1ebb
00000360: e82f 4ebd fb4c 0ebd f459 8f3b 9c88 c9bc
00000370: 9869 433d 79c7 063d f2b9 86bc 54db 2ebd
00000380: bd25 de3c 7f14 f6bc a45c 253c c25a 813d
00000390: cd7b 3c3c 2d8e 863c 3844 f73c 8f89 413d
000003a0: e329 8c3d 41e4 bebb d4b0 58bd 77a0 cdbc
000003b0: 4d0a b4bc f4a9 7cbc ab58 8c3b f0a7 103c
000003c0: 2faa 40bd 5231 f63c f0f1 85bd a9aa 553c
000003d0: e056 30bd 3e50 21bd e9c8 163d a5f2 96bc
000003e0: c8ea 47bd 1148 a1bc bf2f 533c 2b49 2ebd
000003f0: f944 4abd 0a56 8abc 1baa cf3c 6022 ffbc
0.029217925 -0.0056641 -0.04983862 0.015092731 0.017578635 0.05597897 0.045197293 -0.01147343
-0.022297967 0.0069041266 -0.047008503 -0.051467445 -0.012986669 0.036627375 -0.0046044146 -0.019335693
-0.01639197 -0.005482484 0.06476744 0.024691256 0.023007086 -0.014848312 -0.0423911 0.0030873448
-0.020351764 0.007971452 0.03532372 0.029387197 0.018595604 -0.008724056 0.047216352 -0.017084591
0.04332757 -0.0058642854 0.028035851 0.052095555 -0.010212271 -0.013160138 0.056161582 0.047169067
0.0003413709 0.061960835 -0.025261492 -0.050174747 0.06474826 -0.041911602 0.046109412 0.026780214
-0.0035535668 -0.019568404 -0.0020756547 -0.021732045 -0.042523306 0.009396281 -0.019937469 -0.060271345
0.020821316 -0.051335316 0.014150143 -0.018285573 0.023785297 -0.011802075 -0.06518748 0.023653701
-0.047655605 0.04012493 -0.042530183 0.007489991 -0.023425767 0.057646 0.052617624 0.00092548114
0.04775755 0.044498395 0.03390319 0.03572918 -0.03003423 -0.043576445 0.035193153 0.010775656
-0.03476991 -0.046615608 -0.04268788 -0.05316248 -0.0017207499 0.0027683158 0.052456718 -0.04219008
-0.014025294 -0.06493127 -0.053789016 0.011110851 -0.013067874 -0.0036462974 -0.05188031 0.03919058
0.04169501 0.0007100484 0.030347971 -0.032787357 -0.058269154 0.020439126 -0.004682816 -0.012565532
-0.025526026 -0.045660805 0.04648962 0.042580325 0.0140185235 -0.033063006 0.03430279 0.009152158
0.03642172 -0.008353795 0.058803175 0.028115015 0.048836123 -0.024611244 -0.0025995944 -0.0040976834
-0.023732517 -0.056366876 -0.038428523 -0.036532678 -0.029995104 -0.010439951 0.04512311 -0.039518725
0.034379616 -0.061689164 -0.01577873 -0.024240868 0.018750444 -0.034746725 0.012054976 0.051336534
0.019649861 -0.019078147 -0.051931627 -0.049044523 -0.04943406 -0.03703524 0.01953435 0.0042009586
-0.0036425511 -0.02396279 -0.041721538 0.007693509 0.01315254 -0.022429027 -0.024020985 -0.024031477
-0.054855794 0.04623029 0.008426511 0.04885666 0.06560788 0.022244837 -0.0036696566 0.018664507
-0.031898275 -0.0072013014 -0.014136324 -0.020040128 0.0048884135 -0.057567835 0.012133142 0.018795256
0.055507515 0.026247945 0.035771426 0.029248985 -0.016297493 0.029627783 -0.011347763 0.03842546
0.009448265 -0.032806974 -0.015142051 0.021262825 0.027645307 -0.044345234 -0.039571904 0.009494339
0.009680946 0.061786715 0.016955435 -0.029678687 0.059654213 0.053977713 -0.014147386 0.027408905
0.03540072 0.043941513 -0.031333137 0.063196585 -0.059114095 -0.06402232 0.015822629 -0.036496166
0.056961376 0.009825561 -0.057355013 -0.054686025 -0.059977006 -0.03802164 -0.006421521 0.044494472
0.04675026 -0.034732 -0.0011063843 -0.043194268 -0.016151454 0.031640366 0.05124272 -0.002413313
-0.050338656 -0.034741383 0.004374737 -0.024601273 0.047708124 0.032905076 -0.016446088 -0.042689636
0.027117604 -0.03003907 0.010092888 0.06316139 0.011504126 0.016425217 0.030183896 0.047250327
0.06843927 -0.00582555 -0.05290301 -0.02510093 -0.021977568 -0.015421379 0.004283031 0.008829102
-0.0470373 0.030052815 -0.065402865 0.013041177 -0.0430516 -0.039383166 0.036812697 -0.018426249
-0.04880789 -0.019687684 0.0128898015 -0.042550247 -0.049382184 -0.01688673 0.025349667 -0.031144321

encoder.6.block.0.bias f4 [64]
00000000: 5e37 b23c 16c1 2dbc de54 17bc d282 c1ba
00000010: dc79 31bc d290 503d 0ec0 c1bc 02d5 923b
00000020: bc3d ca3b 5912 30bc e44e b53c 7101 51bd
00000030: 71b2 b03c 9c97 713a 19ca d6bc 2e86 053d
00000040: 985b c2bc 3ce1 203d 0fcc 3a3d 71ac bb3c
00000050: 912e d6bc 560c 643d bbe5 573d 7083 c63b
00000060: 6a71 f03c e4b1 0ebb decf 71bd d720 34bd
00000070: 9d7d 78b9 de26 2f3c 4c89 75b9 ca89 dbbc
00000080: 3c32 c43c 1384 ccb9 b077 403d 9366 15bb
00000090: af2d 1a3d 65a5 773d cd4b 27bb 6b63 bb3c
000000a0: dfda 0ebc 3c68 10bd b32d 2d3d f03f ec3c
000000b0: 53ff 6a3d 37ab 333d a43b 253d 1cb9 c1bc
000000c0: 654b cdbb c614 f8bc c1a1 68bd cea8 b9bc
000000d0: b02a 3b3d 5b58 6a3d 7e12 b0ba 7bf8 fa3c
000000e0: 3e8c 4f3d 0626 7dbd b972 243d 71d8 3c3d
000000f0: 428a bd3c d291 0dbd 864c e83c 11fd 25bd
0.021754917 -0.010605117 -0.0092365425 -0.0014763719 -0.010832276 0.05091936 -0.02365115 0.004480959
0.00617191 -0.010746562 0.022132345 -0.051026765 0.021569462 0.0009216012 -0.026219415 0.032598667
-0.023725316 0.0392773 0.04560476 0.022909375 -0.026145251 0.055675827 0.052709322 0.006058149
0.029350955 -0.0021773512 -0.05903613 -0.04397663 -0.00023697918 0.010690419 -0.00023416168 -0.026799101
0.023949735 -0.00039008315 0.046989143 -0.0022796735 0.037641224 0.060460467 -0.0025527359 0.022874555
-0.008719175 -0.035255656 0.04227991 0.028839082 0.057372402 0.043864455 0.04034008 -0.023647837
-0.0062650912 -0.030283343 -0.056794886 -0.0226635 0.045695007 0.05721317 -0.0013433245 0.030636063
0.050670855 -0.06180384 0.04014847 0.046104852 0.023137216 -0.034562893 0.028356802 -0.040524546

encoder.6.block.2.weight f4 [64, 64, 3, 3]
00000000: 56ff ed3c 84f1 59bc b762 8fbc d46a 543c
00000010: 8097 98bc 627e 0dbc 6386 c33b e0cd 7f3c
00000020: 6224 963c a860 143c b3a8 453b f215 823c
00000030: 38aa 37bc debd 18bd be6a 523d 91d7 d4bc
00000040: 0ab6 183d 5a75 cd3b e51c 02bd a697 233d
00000050: 2e44 563b a9bf 7dba 7428 2aba 96e4 4f3d
00000060: 9bcf f23c 3630 043d b865 83bc f020 d4bb
00000070: dd90 82ba 5a50 3abc f372 12bd 822f 72bc
00000080: d107 6e3c 898c c63a d1fe e33c 69d3 2c3d
00000090: 3ac4 d6bc d108 f7bc 192b 4c3d eac4 5bbc
000000a0: d111 e4bc 15bc e2bc ede7 3c3d abb9 a4bc
000000b0: 108b 05bd fb65 6a3c 4124 393d e14b edba
000000c0: 1ecc 703c 0bc3 9fba 6811 b93c 6c3e 813b
000000d0: 96c4 e1bc 29cf 0fbc 0ad0 6d3d 6420 4b3d
000000e0: 57ab 1d3d 1ecd 2f3c cb97 0a3d 78f6 003d
000000f0: 9d78 493d 493a 1b3d eb7e 783d 2317 49bd
00000100: e967 f7bc ba9d a2bd 20a7 2bbd 5305 843a
00000110: 6ae9 8abd 219b afbb b2b2 66bd 68a8 d6bc
00000120: 28b5 d8bc 2f5f 213d 2fa1 b73b d5be a4bc
00000130: 26fc 153d e187 c43c 1b4b 0b3d e1c0 813c
00000140: a522 bfbc b96c f8bc 1112 e43c 88da 19bd
00000150: 25a6 2ebd c140 dc3c bc03 dbbc 227d 24bd
00000160: 8361 fe3c d77c 053d e3d1 1b3d f9ad 523c
00000170: d7ad ea3c 2dc8 e23c b087 48bc eb89 fe3c
00000180: 942f cd3c ee83 603d ac55 133d 6635 ec3a
00000190: dc16 babc 0115 663c 9cef 0abd d8ad 3cbd
000001a0: f515 d4bb 672a fabc 323e c5bc 9f02 a03c
000001b0: 0495 f63c 537a 40bc ae77 e8bc 11a4 b7bc
000001c0: 260f f73c a56c e73c a9d7 a83a 057b 98bc
000001d0: e668 653c 0737 bb3c 17b6 4f3c b060 a0bb
000001e0: 7b2d d43c 7cf6 3a3a 4aac 50bc 98d6 3c3c
000001f0: cd7e 5e3c fbb6 09bd 8895 09bd 6f43 a73c
00000200: bad2 babc 86a2 4f3c ad3a cc3b a76f 00bc
00000210: 3f7d 04bc b90d 2cbd 5e17 47bc d221 1dbd
00000220: 9ed2 933c 4fca 763c e506 a7bc affe d03c
00000230: 169c 2d3d e15f f5bc 007e fb3c fecb 003d
00000240: af97 a3bb 19ea 5dbb bcce c53b 9bc8 913c
00000250: 939e 2b3d a83d 68ba 2107 00bc accd d03c
00000260: 5608 9e3c a943 0d3d 48af 34bb 39b7 a43c
00000270: b3ef 843c 93d4 153d 9d39 2d3c 4b7b 93bb
00000280: 9d16 04bc ef97 f0ba 2bdf 263d 2fa8 0cbd
00000290: 89ac b73b 08e9 0d3c 5418 d83c 77c2 cbbc
000002a0: eb29 d43c 41ea fe3c 5ddd 02bd 156f 66bc
000002b0: bc02 523a 48be 9abc b060 d4bb 45fd fbbc
000002c0: e5eb e239 8605 923c 3f8f c4ba 775d 3c3b
000002d0: 431c c03c 9a6e bb3c cfc3 e93c 95ee 0bbc
000002e0: d69e 07bc 7247 a1bc 1f5c 903a 93f2 f0bc
000002f0: a4fa a23c 6586 41bc 28c8 05bd 4a59 e3bc
00000300: a780 1fbd 916b 5c3c 7802 bfbc 4848 2ebd
00000310: 4ce1 5e3c b4c9 b3b8 ccb6 96bc 5954 96bc
00000320: b863 783b da80 64bd 3102 40bd 0f1c 423c
00000330: 62d9 f8bb 4822 8ebb 3ae4 7fbc 7ca3 793c
00000340: 0f05 9dbc 444e 283d 424f 8d3b 1388 b5bc
00000350: 5da5 ccbc 0ca2 2cbc d7c6 ee3a e42d e73c
00000360: 95a9 f93b c62d c83b 2c94 3abc 8918 dbbc
00000370: 5338 473d 7695 a6bc f7d8 883c 2aff 1d3d
00000380: 7f18 633c 499f c7bc 461d dc3c 88e2 45bd
00000390: c874 bc3c 46da d9bb 71f2 f0bc 2f59 fa3c
000003a0: eed3 25bc fc99 0fbd 109a d23b 2902 f9bc
000003b0: ff7b 3a3d b3ba 0f3d 1223 8b3c db92 a53c
000003c0: 2bab bdbb de8f 053d 6c47 0b3d 9728 fdbc
000003d0: 6069 293d d0a1 053d 0dd9 92bc 1491 263c
000003e0: 48a4 053d d974 323c 034f f33a abe9 5c3d
000003f0: a4c4 a33c dc59 cabb 360d 95bc 7749 9ebc
0.029052418 -0.013302211 -0.017503126 0.012964923 -0.018626928 -0.008636089 0.005966948 0.015613049
0.018327896 0.009056248 0.0030160367 0.015879605 -0.011210017 -0.037290446 0.05137133 -0.025981696
0.03728298 0.006270093 -0.031765837 0.039939545 0.0032694447 -0.00096797437 -0.00064910133 0.050755106
0.02964001 0.03227254 -0.016039714 -0.006473653 -0.0009961386 -0.011371696 -0.035754155 -0.014781835
0.014528231 0.0015148084 0.027831467 0.042193804 -0.026216615 -0.030155571 0.04984579 -0.013413647
-0.027840527 -0.027677575 0.04611962 -0.020108065 -0.032603323 0.014306541 0.04520059 -0.0018104279
0.014697103 -0.0012188865 0.022591308 0.003944209 -0.02755956 -0.008777418 0.05805973 0.049591437
0.03849348 0.010730056 0.033836167 0.03148505 0.04918729 0.037897382 0.060667913 -0.04909433
-0.030200915 -0.0794024 -0.04190743 0.0010072388 -0.067828014 -0.005359069 -0.05632276 -0.02620335
-0.02645357 0.039397415 0.0056039314 -0.020110527 0.03661742 0.023990573 0.034007173 0.015839042
-0.02333195 -0.03032528 0.027840646 -0.037561923 -0.042638917 0.026886346 -0.02673518 -0.0401584
0.031052357 0.03258976 0.03804196 0.012858861 0.028647346 0.027683342 -0.012239382 0.031071624
0.025047101 0.054813318 0.035970375 0.0018021285 -0.022715978 0.014043094 -0.033919916 -0.046064228
-0.006472344 -0.030537797 -0.024077509 0.0195325 0.030100353 -0.011747914 -0.02837738 -0.0224171
0.03015859 0.028250048 0.0012881655 -0.018613348 0.0140020605 0.022853388 0.012677691 -0.0048943385
0.025900593 0.0007132066 -0.012736389 0.0115257725 0.013580036 -0.03362177 -0.03358987 0.020417897
-0.02280556 0.012673026 0.0062325806 -0.00783912 -0.008086502 -0.042005274 -0.012151567 -0.03836233
0.018044766 0.015062883 -0.02038903 0.025512068 0.042385183 -0.029952945 0.03069973 0.031444542
-0.0049924473 -0.0033861457 0.0060366075 0.017795851 0.041899275 -0.0008859285 -0.0078142 0.025488697
0.019291084 0.034488354 -0.0027570296 0.020106899 0.016227579 0.03657968 0.010572818 -0.0045007817
-0.008062032 -0.0018355827 0.040740173 -0.03434008 0.0056052846 0.008661516 0.026378788 -0.024873002
0.025898894 0.03111756 -0.03194939 -0.01406457 0.0008011272 -0.018889561 -0.0064812526 -0.030760417
0.00043281834 0.0178249 -0.0014996304 0.0028742233 0.023450976 0.022879887 0.028535752 -0.008540769
-0.0082776155 -0.019687388 0.0011013782 -0.029412543 0.019894905 -0.011811827 -0.032661587 -0.027752537
-0.03894105 0.01345338 -0.023316607 -0.0425494 0.01360352 -8.572955e-05 -0.018397711 -0.018350767
0.0037901234 -0.055786945 -0.04687709 0.01184751 -0.0075942734 -0.0043375827 -0.015618378 0.015236732
-0.019167451 0.041090265 0.004312427 -0.022159612 -0.024981195 -0.010536682 0.0018217218 0.028220125
0.0076190927 0.0061089722 -0.011387866 -0.026745098 0.0486377 -0.02033494 0.01670502 0.03857342
0.013860821 -0.024367945 0.026869427 -0.04831174 0.023004904 -0.0066483347 -0.02941248 0.030560104
-0.010121329 -0.03505896 0.006427057 -0.030396538 0.04552841 0.03509016 0.016984496 0.020211628
-0.005788227 0.032607906 0.03400366 -0.030903144 0.04136026 0.03262502 -0.017925764 0.010166425
0.032627374 0.010892116 0.0018562976 0.05393378 0.019991226 -0.006175263 -0.018194776 -0.01932214

encoder.6.block.2.bias f4 [64]
00000000: 75e3 9abc b8d3 813b 990e 023d 8efa 2c3c
00000010: ca4b 2e3d 6dc6 de3c 7090 383c c0d2 e4bc
00000020: 460e cdbc efa3 673c 3eed 993c 3759 9fbc
00000030: 855e 18bc 91c5 143d d10e e3bb f236 083c
00000040: c168 7fbc 5e32 b23c 9b5e a1bc 24fd 923c
00000050: 83d3 d7bc 5c06 1abd bc80 ad3b fd5e 17bc
00000060: cdf7 e83c 05c8 2b3b b102 02bd 62f2 be3c
00000070: bb4d 203d 121b 9a3c 0bf1 1e3d 53fe 293c
00000080: d9b6 e93c f98b 9cbc 94b7 363c ed1c 403c
00000090: 0ab3 963c 75c5 c8bc db25 ef3c 8536 0e3d
000000a0: eaf8 e83c b0e0 1abc 2a57 13bb 4c27 bfbb
000000b0: 8b99 fb3c d56d 22bc 64bf 083d 7388 b13c
000000c0: 75af a43c 65ff f63b 9122 bfbc 822a f63c
000000d0: f3bf 273c 1feb df3c 197f 433c f6d5 aebc
000000e0: fd29 853c 9039 00bd 3b88 c3bc fe02 cc3b
000000f0: 34a0 9dbc 43a2 bdbc 7d48 933c 537f 053d
-0.018907288 0.0039620064 0.031752203 0.010557784 0.042552747 0.027194226 0.011264905 -0.027932525
-0.02503122 0.014138206 0.018789884 -0.01945172 -0.009299879 0.036321227 -0.0069292565 0.008313881
-0.01558894 0.021752533 -0.019698432 0.017942972 -0.026345974 -0.03760372 0.0052948873 -0.009238956
0.028438473 0.002621175 -0.031740848 0.023308937 0.03913663 0.018811736 0.038804095 0.010375577
0.028529571 -0.019109713 0.011152167 0.011725646 0.01839592 -0.024508217 0.029192856 0.034719963
0.028439004 -0.009452984 -0.0022482374 -0.005833542 0.030712863 -0.009913881 0.03338565 0.02167151
0.020103196 0.0075377696 -0.023331912 0.030049566 0.010238635 0.027333794 0.011932158 -0.021342259
0.016255373 -0.031304896 -0.02386867 0.0062259426 -0.01924143 -0.023148661 0.017978901 0.03259213
