machine_learning/esrgan_model.pth (torch, 469689 bytes, 35 tensors)

encoder.0.block.0.weight f4 [8, 1, 3, 3]
0	0x3e30e40b	0.17274491
1	0x3e32ded8	0.1746782
2	0xbd2c491e	-0.042061917
3	0x3e2b1df4	0.16710645
4	0x3dcb222a	0.09918626
5	0x3e9c50b7	0.3053033
6	0x3e8f83c3	0.28030214
7	0x3dbbcb33	0.091696166
8	0xbc125985	-0.008932476
9	0x3e850d6d	0.25986806
10	0xbd4930e4	-0.04911889
11	0xbe3366c7	-0.17519675
12	0x3e3461a8	0.17615378
13	0x3e4bf7f9	0.19918813
14	0x3e6042f0	0.21900535
15	0x3c51d6cf	0.012807562
16	0x3ea6f3cc	0.32607877
17	0x3d843b36	0.06456606
18	0xbe9b3b4a	-0.3031867
19	0x3e52288f	0.20523284
20	0xbea0c3ce	-0.31399387
21	0x3e6a1269	0.22858585
22	0x3df8e30a	0.12152679
23	0xbeab4ca2	-0.33456904
24	0x3dcdd803	0.100509666
25	0xbdd34d91	-0.10317529
26	0x3e534a6d	0.2063386
27	0xbeb4905c	-0.35266387
28	0xbd9d8d38	-0.07692951
29	0x3ea32bdb	0.31869397
30	0x3d80d751	0.06291068
31	0xbd96c66d	-0.073620655
32	0xbdc45030	-0.09585607
33	0xbd8d7a51	-0.06908096
34	0x3dfd43e9	0.123664685
35	0xbd1b078b	-0.03784899
36	0xbe2c2cb9	-0.16813935
37	0x3ea9ff2f	0.33202502
38	0xbc64591c	-0.013937261
39	0x3d5a4907	0.0532923
40	0x3df10423	0.11768367
41	0xbdd18eed	-0.10232339
42	0x3e998170	0.29981565
43	0x3e28b04c	0.16473502
44	0xbd532f64	-0.051558867
45	0xbd9d594d	-0.076830484
46	0xbea044d4	-0.31302512
47	0x3e57dfdc	0.2108149
48	0xbe8b8411	-0.27249196
49	0x3e841d89	0.25803784
50	0x3e2dfa61	0.16990043
51	0x3e43aed7	0.19109665
52	0x3e621fd8	0.2208246
53	0x3e23b102	0.15985492
54	0x3d21a24f	0.03946143
55	0x3e8ec060	0.27881145
56	0xbd06ac1c	-0.03287898
57	0xbe1f0d9e	-0.15532538
58	0xbe4570ba	-0.19281283
59	0xbeb6faa8	-0.3573811
60	0xbe3e5ef0	-0.18590903
61	0xbec2b7b0	-0.38030767
62	0x3e94c7fc	0.29058826
63	0x3d6957a7	0.056968357
64	0xbe232810	-0.15933251
65	0x3e002b05	0.1251641
66	0xbe5b827f	-0.21436499
67	0xbe9a3e88	-0.30125833
68	0xbdad9eb4	-0.08477536
69	0x3c5ce375	0.013481964
70	0x3e2b0c96	0.1670402
71	0x3e4e11b3	0.20123939

encoder.0.block.0.bias f4 [8]
0	0xbe9547e3	-0.29156408
1	0xbe1b9ec4	-0.15197283
2	0x3db49e17	0.08819216
3	0xbe4de673	-0.2010744
4	0x3e8f9175	0.28040662
5	0xbe24e102	-0.16101459
6	0xbe9a3415	-0.3011786
7	0x3e1b4899	0.15164413

encoder.0.block.2.weight f4 [8]
0	0x3f81b131	1.01322
1	0x3f8492b9	1.0357276
2	0x3f8a0002	1.0781252
3	0x3f883579	1.0641319
4	0x3f85f34a	1.0464871
5	0x3f8b8c4c	1.090219
6	0x3f8a322e	1.0796564
7	0x3f855b82	1.0418551

encoder.0.block.2.bias f4 [8]
0	0x3d6a6060	0.057220817
1	0x3d25e27c	0.040499195
2	0xbd8a0266	-0.06738739
3	0xbd466eef	-0.04844564
4	0x3d32f4e9	0.043690596
5	0xbbd451b6	-0.0064794673
6	0xbd83aa74	-0.06428996
7	0xbc9803b8	-0.01855646

encoder.0.block.2.running_mean f4 [8]
0	0x3ea922a8	0.33034253
1	0x3ebbebf2	0.3670345
2	0x3cd29bf1	0.025709124
3	0xbb461ce9	-0.0030229634
4	0x3f1935e4	0.59847856
5	0x3df0631a	0.11737652
6	0xbbd55e70	-0.006511502
7	0x3d6c161b	0.05763827

encoder.0.block.2.running_var f4 [8]
0	0x3c1984f9	0.009370082
1	0x3c024b98	0.007952593
2	0x3aee9373	0.0018201902
3	0x34ae122d	3.242325e-07
4	0x3b9deae6	0.004819262
5	0x3bacd2d4	0.005274156
6	0x3551a644	7.8100516e-07
7	0x3b11c7e0	0.002224438

encoder.2.block.0.weight f4 [16, 8, 3, 3]
0	0x3c630b15	0.013857623
1	0x3dd8936a	0.10574992
2	0x3ce60d92	0.028082643
3	0x3d8f330b	0.069921575
4	0x3c47a17f	0.0121845
5	0x3d8e23ba	0.06940408
6	0x3dcacb8a	0.09902103
7	0x3c320a61	0.010866732
8	0xbc2b088e	-0.010439051
9	0xbdda16b7	-0.10648864
10	0xbd0a01e5	-0.033693213
11	0x3d4c4acb	0.049876016
12	0x3bc232cc	0.0059264656
13	0xbc48f1a7	-0.012264646
14	0x3dd5ddfb	0.1044273
15	0xbdbd23d1	-0.09235347
16	0xbb3dff1a	-0.0028991164
17	0x3ddcdef2	0.10784711
18	0xbc4e94c4	-0.012608711
19	0x3ddb3751	0.1070391
20	0x3d9a5437	0.07535594
21	0x3d9dbdbb	0.07702204
22	0xbc4715d8	-0.012151204
23	0xbbfde35f	-0.007748052
24	0x3d1e2f81	0.038619522
25	0xbceca5f8	-0.028887734
26	0xbd4cb236	-0.049974643
27	0xbdfa5b8d	-0.12224493
28	0xbdd3be2b	-0.10339006
29	0xbdfb20a1	-0.12262083
30	0xbdb85245	-0.09000067
31	0x3d98aa78	0.07454389
32	0xbcf18f82	-0.029487375
33	0xbdd78590	-0.10523522
34	0xbdf5c77e	-0.12000941
35	0xbc3a9777	-0.011388651
36	0x3c9c2079	0.019058453
37	0x3d48fd2a	0.04906956
38	0x3d979eb6	0.074033186
39	0x3c812b3a	0.015767682
40	0x3d4b6367	0.049655344
41	0x3e060587	0.13088046
42	0xbcd6e629	-0.026232796
43	0x3e0471f6	0.12934098
44	0x3e01bdb1	0.12670018
45	0xbd70818f	-0.058717307
46	0x3e11c3ed	0.14234896
47	0x3d7db9ab	0.061944645
48	0xbcf22a52	-0.029561196
49	0xbd536b0b	-0.051615756
50	0xbc2b4bc6	-0.0104550775
51	0xbd4e244f	-0.050327595
52	0xbda520cc	-0.08062896
53	0xbd9037ac	-0.070418686
54	0xbce9ab41	-0.028524043
55	0x3da49636	0.08036463
56	0xbe14641d	-0.14491315
57	0xbce411cb	-0.027840516
58	0xbcf0d239	-0.029397117
59	0xbe0688f2	-0.13138178
60	0xbd3cd1c6	-0.046098493
61	0xbd16a385	-0.036777038
62	0xbb3305ef	-0.002731677
63	0x3d46fab4	0.048578933
64	0xbdf12c01	-0.11775971
65	0x3e08c8cb	0.13357846
66	0xbd24bdbf	-0.04022002
67	0xbd613073	-0.054977845
68	0xbd8137b2	-0.06309451
69	0x3dd5ff09	0.10449035
70	0xbdc00131	-0.09375227
71	0x3df5f817	0.1201021
72	0xbd8a7326	-0.06760244
73	0x3b46538d	0.0030262202
74	0x3e0b7640	0.13619328
75	0x3d1d7195	0.0384384
76	0xbdbb9d8c	-0.09160909
77	0x3d74219e	0.059602372
78	0xbd302011	-0.04299933
79	0xbdf007d5	-0.11720244
80	0x3d0a2705	0.03372862
81	0xbd2d37be	-0.042289488
82	0x3d404ba8	0.04694715
83	0x3c9ab813	0.018886602
84	0xbd6bc8d3	-0.057564568
85	0x3d8ce0ad	0.06878791
86	0xbdb0ad4a	-0.08626802
87	0x3dd91a2a	0.106006935
88	0x3d96a93f	0.073565
89	0x3c2b8e00	0.010470867
90	0x3ceaec1e	0.028677043
91	0xbd589a7d	-0.052881707
92	0x3c5fa59a	0.013650322
93	0x3d99d2a9	0.07510883
94	0xbb64fb2b	-0.0034939747
95	0xbdedabe3	-0.116050504
96	0x3ba7e24e	0.005123413
97	0xbdc15656	-0.094402954
98	0x3c393be2	0.011305781
99	0xbcf4c3ef	-0.029878585
100	0x3e1b6bd4	0.15177852
101	0xbdac6497	-0.084176235
102	0x3c4d2dd9	0.012523138
103	0x3e125610	0.14290643
104	0xbda04e33	-0.07827415
105	0x3dfa6946	0.122271106
106	0x3d90a87a	0.07063384
107	0x3de1ba5e	0.11021875
108	0xbe224dd8	-0.15850008
109	0x3dc2b9c3	0.095080875
110	0xbce01735	-0.027354816
111	0x3cd53226	0.02602489
112	0xbd92530a	-0.07144745
113	0x3da3d008	0.07998663
114	0x3e0532d4	0.1300767
115	0xbde3f503	-0.11130717
116	0x3d2c6459	0.042087886
117	0xbc185f08	-0.009300001
118	0xbdf3e6d2	-0.1190926
119	0xbbdfafd2	-0.0068263793
120	0xbd93a88f	-0.072098844
121	0x3ddc10d2	0.10745396
122	0xbc8e6469	-0.017381864
123	0x3c9f9ebc	0.01948487
124	0x3dc2f0d7	0.09518593
125	0xbd959d23	-0.07305362
126	0x3df91941	0.1216302
127	0x3db51d1e	0.08843444
128	0xbc1f705a	-0.009731377
129	0x3dc0a3e9	0.094062634
130	0x3c08f583	0.008359316
131	0x3e0b1a32	0.13584211
132	0xbd95dac1	-0.073171146
133	0x3dd9dbbb	0.106376134
134	0xbcaddc35	-0.021223167
135	0x3d4c460c	0.04987149
136	0x3b91e6ba	0.0044525536
137	0xbd970663	-0.07374265
138	0x3db7a570	0.089671016
139	0x3dc7b28b	0.09750851
140	0xbcf18e83	-0.0294869
141	0x3d8d581c	0.06901571
142	0xbd347681	-0.044058327
143	0xbd501228	-0.050798565
144	0x3cad7451	0.021173628
145	0x3d83c956	0.06434886
146	0x3daf2c00	0.08553314
147	0x3cdd274a	0.026996274
148	0xbdd707a2	-0.10499503
149	0xbced2ca5	-0.028951952
150	0xbd0816bd	-0.03322481
151	0x3c8342d8	0.016023085
152	0xbdb1eccf	-0.08687746
153	0x3d0beae0	0.03415954
154	0x3d6c1f2b	0.05764691
155	0x3d98fa12	0.07469572
156	0xbd75b3b1	-0.05998582
157	0x3c97658d	0.01848104
158	0x3c413cbd	0.011794266
159	0xbdc8319f	-0.097750895
160	0xbdb7513e	-0.089510426
161	0x3d9e17c7	0.07719379
162	0x3d30f354	0.043200806
163	0x3b2b0015	0.0026092578
164	0xbd131fa9	-0.035918865
165	0xbcc3d9fa	-0.02390765
166	0x3d42fc22	0.047603734
167	0x3e0050d1	0.12530829
168	0x3dbc496c	0.091936916
169	0xbd3edbd8	-0.046596378
170	0x3da08353	0.07837548
171	0x3deaf5f4	0.11472693
172	0xbcf6e9ea	-0.030140836
173	0x3d7981e8	0.060914904
174	0xbd151ee8	-0.036406428
175	0x3da71ccc	0.081597894
176	0xbd32b516	-0.04362973
177	0x3baa1944	0.005191
178	0x3d4dbe4d	0.050230313
179	0xbc084741	-0.0083177695
180	0xbde1a94c	-0.11018619
181	0x3d1e2cb4	0.03861685
182	0xbd6633f6	-0.056201898
183	0x3de88106	0.11352734
184	0x3d86115d	0.065462805
185	0xbe1923ff	-0.14955138
186	0xbd03055c	-0.031987533
187	0x3d20b187	0.039231803
188	0x3d9cc82f	0.076553695
189	0xbcb6bb81	-0.022306206
190	0xbd68579c	-0.056724176
191	0xbd181683	-0.037130844
192	0x3d9943a8	0.074836075
193	0xbd163994	-0.036676005
194	0xbdfdf838	-0.124008596
195	0x3d2f10e1	0.042740706
196	0xbd32172b	-0.043479126
197	0x3c4e26ea	0.01258252
198	0x3c35e1c0	0.011101186
199	0x3ca1e0b9	0.019760476
200	0xbcb6b57d	-0.022303337
201	0xbd49c634	-0.049261287
202	0x3cae44b4	0.021272995
203	0x3d899833	0.06718483
204	0xbe014be6	-0.12626609
205	0xbd096d64	-0.03355159
206	0x3cf4c467	0.029878808
207	0x3c7ff698	0.015622757
208	0x3cd717ea	0.02625652
209	0x3cd96396	0.026536744
210	0x3e0d87d1	0.13821341
211	0x3d82a72f	0.06379544
212	0xbd7d7502	-0.061879165
213	0xbdb55a0f	-0.08855068
214	0xbdeb7aa8	-0.11498004
215	0x3cbec838	0.023288831
216	0xbdb09483	-0.08622076
217	0xbd2f6e36	-0.042829715
218	0xbd847826	-0.06468229
219	0xbe1548c7	-0.14578544
220	0x3ccf9e43	0.02534402
221	0xbd64b7fc	-0.055839524
222	0xbdce6543	-0.10077908
223	0xbd29c1ee	-0.04144471
224	0xbddbe277	-0.10736554
225	0xbe037057	-0.12835823
226	0x3d5c9ef3	0.053862523
227	0xbdb0aa8d	-0.0862628
228	0xbd224cb1	-0.03962392
229	0xbda2389f	-0.07920956
230	0xbbd2e3c3	-0.0064358427
231	0xbcea48e7	-0.028599216
232	0x3d3b32d1	0.04570276
233	0xbd33c239	-0.043886397
234	0xbccaec2e	-0.024770822
235	0xbd11d0fa	-0.035599686
236	0xbce47bbc	-0.027891032
237	0x3d04f2e6	0.03245821
238	0x3d60304b	0.054733556
239	0xbda8c1e6	-0.08240108
240	0xbc2afdf2	-0.010436522
241	0x3d7f8a95	0.06238802
242	0x3dbf5bb2	0.09343661
243	0x3e0615a1	0.13094188
244	0xbddc2e35	-0.10751001
245	0x3d403dc0	0.04693389
246	0xbc0b502a	-0.008502999
247	0xb714ce3c	-8.869505e-06
248	0x3bcd2d11	0.006261476
249	0x3d0ac625	0.03388037
250	0x3e2b3dbd	0.1672277
251	0x3cc550f5	0.024086455
252	0xbdbd0202	-0.092288986
253	0xbda23c10	-0.07921612
254	0x3dbaf1e2	0.09128167
255	0xbe080133	-0.13281707

encoder.2.block.0.bias f4 [16]
0	0x3e02a9cc	0.12760085
1	0xbd871432	-0.06595649
2	0xbd960883	-0.07325842
3	0xbda08ded	-0.0783957
4	0x3da8b01c	0.08236715
5	0x3d6b3646	0.057424806
6	0x3e3e652c	0.18593282
7	0xbd4f204d	-0.050567914
8	0x3dcbab3a	0.09944768
9	0x3e0737ce	0.13204882
10	0x3e3ccdbd	0.18437858
11	0x3da64658	0.08118886
12	0xbda60cb0	-0.08107889
13	0x3d83d86e	0.06437765
14	0x3caecfff	0.021339415
15	0x3e100837	0.14065634

encoder.2.block.2.weight f4 [16, 16, 3, 3]
0	0xbd43450c	-0.04767327
1	0xbb870456	-0.00412039
2	0xbd890d5d	-0.06692002
3	0x3d3b2282	0.045687206
4	0x3da90039	0.082519956
5	0x3d961884	0.07328895
6	0x3c59ce3b	0.013293798
7	0x3d5ba481	0.05362368
8	0xbdabf64b	-0.08396586
9	0xbc858689	-0.016299503
10	0x3de78579	0.11304755
11	0xbdf35c37	-0.11882823
12	0x3cf23cd5	0.029570023
13	0xbae9f4c6	-0.0017849437
14	0xb97597ff	-0.00023421644
15	0x3dc56dc1	0.096400745
16	0xbd27def2	-0.0409841
17	0x3dc80ae6	0.09767704
18	0xbd568c1d	-0.052379716
19	0x3c051989	0.008123764
20	0x3dfcbacb	0.123403154
21	0x3d33399a	0.043756105
22	0xbcccda22	-0.025006358
23	0x3d4d29ea	0.0500888
24	0xbdb4ffae	-0.088378295
25	0x3bb2cdcf	0.005456663
26	0x3dec3e28	0.11535293
27	0xbd9bd00f	-0.076080434
28	0x3dc3286a	0.09529193
29	0xbd0e3a7f	-0.034723755
30	0xbcc3042e	-0.023805704
31	0x3d21991f	0.03945267
32	0x3db3c8fa	0.087785676
33	0xbce6bd65	-0.028166482
34	0x3c2279c3	0.009916726
35	0x3d83922f	0.06424367
36	0x3de3ba04	0.11119464
37	0xbd2b34cd	-0.0417984
38	0x3baf9cd7	0.005359273
39	0xbd64d62f	-0.055868324
40	0xbd7299f3	-0.05922885
41	0xbd7a92df	-0.061175223
42	0x3d0697ff	0.0328598
43	0xbd1ccfe8	-0.038284212
44	0xbbddd239	-0.0067694453
45	0xbd9f544c	-0.0777975
46	0x3d364b2d	0.044505287
47	0xbd916928	-0.07100135
48	0xbdb6c305	-0.08923916
49	0xbc138373	-0.009003508
50	0xbc0b96cc	-0.0085198395
51	0x3d2a5c08	0.041591674
52	0xbd3401ae	-0.043946914
53	0xbb2d9f7f	-0.0026492772
54	0xbd2be0f0	-0.041962564
55	0xbdd43542	-0.103617206
56	0xbd828406	-0.06372838
57	0xbd2bd38d	-0.041949797
58	0xbbd2f061	-0.006437347
59	0xbd9ce826	-0.07661466
60	0x3de34c9a	0.11098595
61	0x3cc5e695	0.024157802
62	0xbdbaf263	-0.09128263
63	0xbdb3d9dd	-0.087817885
64	0xbc9420d2	-0.018082056
65	0x3ccf28e7	0.025288058
66	0xbcf1d8a6	-0.029522251
67	0xbca9b415	-0.020715753
68	0x3a9e6f64	0.001208764
69	0x3d805168	0.06265527
70	0x3e07f921	0.13278629
71	0x3d459777	0.04824015
72	0xbca76b77	-0.020436985
73	0x3d68572a	0.05672375
74	0xbdeadd25	-0.11467961
75	0x3d9c6e6b	0.07638248
76	0xbd3c7da9	-0.046018276
77	0xbdedc72c	-0.11610255
78	0xbd7142e0	-0.058901668
79	0xbdebbf8a	-0.115111426
80	0xbe396444	-0.18104655
81	0xbd45b1f5	-0.048265416
82	0xbc0eb1bb	-0.008709366
83	0x3d88b611	0.066753514
84	0xba67ae02	-0.000883788
85	0xbd85e25c	-0.06537315
86	0x3cd06d6c	0.025442801
87	0xbc4ef9d3	-0.012632805
88	0xbd278e9e	-0.040907495
89	0xbd9d4a10	-0.07680142
90	0x3ce9bb06	0.028531563
91	0x3d2c7d65	0.042111773
92	0x3d1d4a8b	0.038401168
93	0xbbf1d7c5	-0.007380458
94	0x3c94b2fb	0.01815175
95	0x3d98501f	0.07437157
96	0x3dc1bd71	0.09459961
97	0x3d1ec5f8	0.038763016
98	0xbbc8a023	-0.0061226054
99	0x3db1ea16	0.086872265
100	0x3d7aa22f	0.061189827
101	0x3c982efc	0.018577091
102	0x3d33f338	0.043933123
103	0x3d3dd1cc	0.046342656
104	0xbb86998f	-0.004107661
105	0xbaea77e4	-0.0017888513
106	0xbcb62097	-0.022232337
107	0xbb87ba4b	-0.004142081
108	0x3d96094c	0.07325992
109	0xbcc203b4	-0.023683406
110	0xbdd65b14	-0.104665905
111	0x3dd17be7	0.102287106
112	0x3d9932f7	0.07480424
113	0x3a6e8030	0.0009098081
114	0x3dd2d966	0.10295372
115	0xbcacea02	-0.021107677
116	0x3da594f7	0.080850534
117	0xbd2a9bff	-0.041652676
118	0x3d2ce9b6	0.04221507
119	0x3bdcf103	0.006742598
120	0xbba06924	-0.0048953462
121	0x3d885d38	0.06658405
122	0xbd866b3f	-0.06563424
123	0x3ccc666a	0.024951179
124	0xbb8da923	-0.004323141
125	0x3d77c3b1	0.06048936
126	0xbd869a50	-0.065724015
127	0xbcaa1ac8	-0.020764723
128	0x3d108e72	0.035292096
129	0x3d6c7e8f	0.057737883
130	0x3a02cda4	0.0004989749
131	0x3cfb0e5c	0.030646496
132	0xbe1b0f37	-0.15142523
133	0x3e24e44e	0.16102716
134	0x3dd43a7e	0.10362719
135	0xbc8fd87b	-0.01755928
136	0x3d5f880e	0.05457311
137	0xbd4752ca	-0.04866294
138	0x3cffa193	0.031204974
139	0xbd2608ae	-0.04053562
140	0xbdc4ea58	-0.0961501
141	0x3d4759cf	0.048669633
142	0x3d9bf44b	0.076149546
143	0x3d209a50	0.039209664
144	0xbd41bde4	-0.047300234
145	0x3dc0c76d	0.094130374
146	0x3dc6767e	0.09690569
147	0x3d08ff45	0.03344657
148	0xbc9392c2	-0.018014316
149	0xbd972c03	-0.073814414
150	0x3cea485b	0.028598955
151	0xbd9db674	-0.07700816
152	0x3b80b6ea	0.003928055
153	0xbd9583fe	-0.07300566
154	0x3c80b6ea	0.01571222
155	0x3b619f78	0.0034427326
156	0x3c07906f	0.008274182
157	0xbdb23a07	-0.08702474
158	0xbcd02025	-0.025405953
159	0xbe10e1e4	-0.1414867
160	0x3dac1870	0.084030986
161	0xbd8b3bd1	-0.067985184
162	0x3ca9aea8	0.020713165
163	0x3d1f33c9	0.038867746
164	0xbcf97c64	-0.030454822
165	0xbcb0a470	-0.021562785
166	0x3ce21775	0.027599076
167	0xbd46a475	-0.048496682
168	0xbc811cfc	-0.015760891
169	0xbcb882b8	-0.022523269
170	0x3b4a8633	0.0030902743
171	0x3b2b00c2	0.002609298
172	0xbcd83f56	-0.026397388
173	0x3c261ed9	0.010139191
174	0xbb1ae41c	-0.00236345
175	0x3badb528	0.0053011365
176	0xbc50557f	-0.012715696
177	0x39c4a563	0.00037507256
178	0xbca420a6	-0.0200351
179	0xbb1a350c	-0.0023530154
180	0x3dbfba18	0.093616664
181	0xbdae3c22	-0.08507563
182	0x3b9ed035	0.0048465976
183	0xbdaa1aa3	-0.08305862
184	0xbceb3a90	-0.028714448
185	0xb98f52c6	-0.00027336756
186	0x3e23e554	0.1600545
187	0x3da2005e	0.07910226
188	0x3d93c658	0.072155654
189	0x3d59e741	0.053199057
190	0x3d963e00	0.07336044
191	0x3cc33114	0.023827113
192	0x3d3fa1a0	0.046784997
193	0x3d5a3221	0.053270463
194	0xbd6fcd8c	-0.058545634
195	0xbd705ca4	-0.0586821
196	0x3d9b1a60	0.0757339
197	0xbd02560d	-0.031820346
198	0x3bb5a37c	0.0055431705
199	0xbd5cb4aa	-0.053883232
200	0xbd11ea05	-0.03562357
201	0xbd011771	-0.031516496
202	0x3d8cde4c	0.06878337
203	0x3cf3a6e7	0.029742671
204	0x3dbe6856	0.09297244
205	0xbdcfe778	-0.10151571
206	0xbd5daa21	-0.054117326
207	0xbc0a6203	-0.008446219
208	0xba8705d0	-0.0010301415
209	0xbd151c16	-0.036403738
210	0xbd33e961	-0.04392374
211	0x3d0a42f1	0.033755247
212	0x3c886cb2	0.016653392
213	0xbdaddde6	-0.084895894
214	0x3c823c1e	0.015897807
215	0x3d8d186b	0.06889423
216	0xbdc19eda	-0.09454127
217	0x3d6a4c79	0.057201836
218	0xbdfad8c0	-0.12248373
219	0x3dc615e0	0.09672141
220	0x3d82d32e	0.063879356
221	0xbd8b89b0	-0.06813371
222	0xbda7da9e	-0.08195995
223	0x3ba76bf2	0.0051093036
224	0x3d852e95	0.065030254
225	0xbc14c45e	-0.009080021
226	0xbbe98307	-0.0071262154
227	0xbc05c368	-0.008164264
228	0x3d6d382e	0.057914905
229	0x3d2b40a8	0.041809708
230	0xbd3949cd	-0.045236398
231	0xbd85f6e2	-0.0654123
232	0x3d8f34c5	0.06992487
233	0xbd976b47	-0.073935084
234	0x3da4ec1e	0.08052848
235	0xbc9454e1	-0.01810688
236	0xbc113021	-0.0088615725
237	0x3d0b1a3f	0.033960577
238	0x3d3e753c	0.046498522
239	0xbd4ede8b	-0.050505202
240	0x3da1da66	0.07902984
241	0xbbb2abbb	-0.005452601
242	0xbd4be99b	-0.04978333
243	0xbd43ab3b	-0.04777072
244	0xbd84c2f2	-0.06482495
245	0xbd96e838	-0.07368511
246	0xbd7d2bd1	-0.061809365
247	0xbd4e5b59	-0.050380085
248	0x3cd7f70b	0.026362916
249	0x3cadd3f5	0.021219233
250	0xbd2b3d59	-0.041806553
251	0xbc8b1447	-0.016977442
252	0x3cc5c529	0.024141865
253	0xbc42acb2	-0.011881994
254	0xbd5d8b75	-0.054088075
255	0xbd9f5e5d	-0.0778167

encoder.2.block.2.bias f4 [16]
0	0xb9f5069c	-0.00046734966
1	0xbd079c8d	-0.033108283
2	0xbd4d3a31	-0.050104324
3	0xbd9136a3	-0.07090499
4	0xbd11b689	-0.03557447
5	0xba8278bc	-0.0009954195
6	0xbd8de735	-0.06928865
7	0xbd046301	-0.03232098
8	0x3d7b619a	0.061372377
9	0xbd295a94	-0.041346148
10	0x3bd926bc	0.006626932
11	0x3d2134fe	0.039357178
12	0xbd9f6c22	-0.077842966
13	0x3d210d67	0.039319422
14	0x3d934aaa	0.071919754
15	0x3d86a0d8	0.06573647

encoder.4.block.0.weight f4 [32, 16, 3, 3]
0	0xbdcadebf	-0.09905767
1	0x3d652b82	0.055949695
2	0x3d77c162	0.06048716
3	0xbb83be2f	-0.0040204744
4	0x3cefca94	0.029271401
5	0x3dfad2fa	0.12247272
6	0x3bba48ff	0.0056849713
7	0xba60217a	-0.000854991
8	0xbda2f896	-0.0795757
9	0xbd4cd852	-0.050010987
10	0x3d68c89c	0.05683194
11	0xbccb24d2	-0.02479783
12	0xbc91e92c	-0.01781138
13	0x3d88d74c	0.066816896
14	0xbd51cdca	-0.051221646
15	0x3dac82d0	0.08423388
16	0x3e42597f	0.18979453
17	0x3e1afd5a	0.15135708
18	0x3dd8b8df	0.10582136
19	0xbd0fa523	-0.035069596
20	0xbcd4e0f8	-0.02598618
21	0x3d83c5e3	0.06434228
22	0xbd92fa87	-0.071766905
23	0xbd2193f0	-0.039447725
24	0x3de0b160	0.109713316
25	0x3d6a7c3d	0.05724739
26	0xbcda9768	-0.026683524
27	0x3db2d408	0.08731848
28	0x3d704e51	0.05866844
29	0x3cdd22a0	0.02699405
30	0xbdd0bfb1	-0.10192812
31	0xbb97bb5d	-0.0046304897
32	0xbcc3a450	-0.023882061
33	0x3ccab05b	0.024742296
34	0xbd63ed92	-0.055646487
35	0xbc978a8d	-0.018498683
36	0x3d845f9e	0.0646355
37	0x3d8d600e	0.069030866
38	0x3cefcb02	0.029271606
39	0x3d121e6e	0.03567355
40	0xbce1e057	-0.027572794
41	0x3c61ddbc	0.013785776
42	0x3da3f51c	0.08005735
43	0xbcfb8a30	-0.030705541
44	0xbdcf7cdf	-0.10131239
45	0x3d2fafcf	0.042892274
46	0x3d7a1b35	0.061061103
47	0x3d0c7709	0.03429321
48	0x3d277212	0.04088027
49	0x3d9a828e	0.075444326
50	0x3d7f57ff	0.06233978
51	0xbc80bb07	-0.015714182
52	0xbd84c94c	-0.06483707
53	0xbdba1a81	-0.090870865
54	0x3d874e80	0.066067696
55	0xbd4f38b7	-0.050591197
56	0xbe28fa06	-0.16501626
57	0x3ddeefb2	0.10885562
58	0x3c32062b	0.010865728
59	0xbd9abc3e	-0.075554356
60	0x3cf19a45	0.029492507
61	0x3c17cfff	0.009265899
62	0x3b729ba5	0.003701904
63	0x3d007acc	0.03136711
64	0xbdd898d2	-0.10576023
65	0x3d00ee49	0.031477246
66	0x3c86d91a	0.016460944
67	0xbd55db3a	-0.052211024
68	0xbdb47cbf	-0.08812856
69	0x3a6642b5	0.0008783744
70	0x3d5404a4	0.05176224
71	0xbce7c3fd	-0.028291697
72	0xbdb0f18a	-0.0863982
73	0xbded1064	-0.11575392
74	0x3d0915d3	0.03346808
75	0x3c374560	0.011185974
76	0xbd0b174c	-0.033957765
77	0xbd31a8ae	-0.043373756
78	0x3ddbbfd2	0.10729946
79	0xbcf4d7a3	-0.02988798
80	0x3de0fe07	0.10985952
81	0x3d4509ae	0.048104934
82	0x3bdc0d17	0.0067154276
83	0x3d472e3e	0.048628084
84	0xbd926911	-0.07148946
85	0x3d49a0cd	0.049225617
86	0x3dbd0e48	0.092312396
87	0xbd008276	-0.031374417
88	0xbd79b983	-0.060967933
89	0x3d1ed982	0.03878165
90	0x3d9bb4ae	0.07602821
91	0x3cc5954d	0.024119044
92	0x3d66d9d5	0.056360085
93	0x3d0d6ae1	0.034525756
94	0xbd17f8ba	-0.03710244
95	0xbd0925b8	-0.033483237
96	0xbcb00f9d	-0.02149182
97	0x3d82cebb	0.06387087
98	0xbc8bcf66	-0.017066669
99	0xbdee9059	-0.11648626
100	0xbc55d20d	-0.013050568
101	0xbd3228c3	-0.043495905
102	0xbd597d8b	-0.053098243
103	0xbdd858cd	-0.105638124
104	0xbd3c67a0	-0.045997262
105	0xbcc24e58	-0.023718998
106	0x3dd62d43	0.10457852
107	0x3e05883c	0.1304025
108	0xbe0ab542	-0.13545707
109	0xbd9edb1a	-0.07756634
110	0xbd4dcf18	-0.050246328
111	0xbc4a759a	-0.01235714
112	0xbd351112	-0.044205733
113	0xbcf301b2	-0.029663894
114	0x3cdf0d67	0.02722807
115	0xbcf09e36	-0.029372316
116	0x3cf61c1d	0.030042702
117	0x3d3a78c2	0.04552532
118	0x3c8fa346	0.01753391
119	0xbd9cf427	-0.07663756
120	0x3c507c63	0.012724969
121	0x3c8b8a75	0.017033795
122	0xbd587b9e	-0.052852266
123	0xbd07ee04	-0.033185974
124	0xbd4391c7	-0.047746446
125	0xbd86b6e0	-0.065778494
126	0x3d1486c1	0.036261324
127	0x3dc1b813	0.094589375
128	0x3d54cfe6	0.05195608
129	0xbd25f6b4	-0.040518478
130	0x3d875853	0.066086434
131	0x3da3030a	0.07959564
132	0xbdb4e456	-0.08832614
133	0xbd8f76a3	-0.0700505
134	0x3d4ec6e9	0.050482664
135	0xbdb92da3	-0.09041908
136	0x3a773aa1	0.00094310386
137	0x3d5656a2	0.052328713
138	0x3d97cca4	0.07412079
139	0xbd95dcaf	-0.07317483
140	0x3c6371df	0.013882129
141	0x3ca4fc27	0.020139767
142	0xbcfa5330	-0.030557245
143	0x3d81722d	0.063206054
144	0xbd378c10	-0.04481131
145	0xbdb1be6e	-0.086789
146	0x3ae06687	0.0017120399
147	0xbdb4bf42	-0.08825542
148	0xbd85e39a	-0.06537552
149	0xbcb3bfa0	-0.02194196
150	0xbd3345ce	-0.043767743
151	0xbd893638	-0.066997945
152	0x3d60b27a	0.05485771
153	0x3b5d524d	0.003377098
154	0x3d61c06a	0.05511514
155	0xbcbe2f53	-0.023215925
156	0xbd99980e	-0.07499705
157	0xbd0f8718	-0.035040945
158	0xbbd06149	-0.0063592535
159	0xbd0f161f	-0.034933206
160	0xbc3fe081	-0.011711241
161	0x3b8a9f14	0.0042303894
162	0x3b358e1e	0.0027703117
163	0x3cbbf4bc	0.022943847
164	0x3d2e08af	0.04248875
165	0x3e04d418	0.12971532
166	0x3d225299	0.039629553
167	0x3d4791aa	0.0487229
168	0x3dc9fe06	0.09862904
169	0x3d800f6a	0.0625294
170	0xbd81bc4a	-0.063347414
171	0xbc13d28b	-0.009022365
172	0xbb304c2e	-0.0026900875
173	0xbdb9f576	-0.09080021
174	0xbc5a3f05	-0.013320689
175	0x3d30e42e	0.04318636
176	0xbd51f632	-0.05126018
177	0x3ca1c8c6	0.019749057
178	0x3d050989	0.032479797
179	0x3c978590	0.018496305
180	0xbcdf0ef9	-0.02722882
181	0xbd13c75d	-0.0360788
182	0xbd4e120e	-0.050310187
183	0xbd38cf96	-0.045119844
184	0xbd9911e8	-0.074741185
185	0x3d8a4e65	0.06753234
186	0xbb86f050	-0.004118003
187	0x3d9e0493	0.07715716
188	0xbcb2b324	-0.021813937
189	0xbd200b26	-0.039073132
190	0xbb538beb	-0.0032279443
191	0x3deab661	0.11460567
192	0xbc35660c	-0.011071693
193	0x3b4c6910	0.0031190552
194	0x3d4d04be	0.05005335
195	0xbd455dbc	-0.048185095
196	0x3d64c0df	0.055848
197	0x3c951478	0.018198237
198	0x3c94c7a0	0.018161595
199	0xbc84f8e4	-0.016231962
200	0x3d0afe36	0.03393384
201	0x3c46f25c	0.012142744
202	0x3b6c0baa	0.0036017695
203	0x3c9dc3c6	0.019258391
204	0xbaf44358	-0.0018635793
205	0x3b9b7b38	0.0047449134
206	0xbd108a12	-0.035287924
207	0x3da49ebb	0.08038088
208	0x3dab9d0d	0.083795644
209	0x3cdcf4ed	0.026972258
210	0x3d257936	0.0403988
211	0x3dbe12f3	0.09280958
212	0xbd082b1a	-0.03324423
213	0x3bf2338a	0.007391398
214	0xbb2623eb	-0.0025350999
215	0xbbc7c43d	-0.0060963915
216	0xbcc73037	-0.024314983
217	0x3d505ffb	0.050872784
218	0x3d3690c1	0.04457164
219	0xbbddba54	-0.006766597
220	0x3bf94623	0.007607238
221	0xbd612651	-0.054968182
222	0xbdb54f4e	-0.08853017
223	0xbc457534	-0.012051869
224	0x3d77dfb6	0.06051608
225	0x3d01dcaf	0.0317046
226	0xbc8901d1	-0.016724499
227	0x3db9da6e	0.09074865
228	0xbdaec7d9	-0.08534212
229	0x3d018af1	0.031626645
230	0x3c50f669	0.012754061
231	0xbd9c0e33	-0.07619896
232	0xbcc6bac6	-0.024258982
233	0x3da5e01c	0.08099386
234	0x3dd9869f	0.1062138
235	0x3c5ab3b4	0.013348509
236	0xbd04ee3d	-0.032453764
237	0xbd84542e	-0.064613685
238	0xbbe9647f	-0.007122576
239	0x3dce0044	0.100586444
240	0x3b546465	0.0032408473
241	0xbc1eee16	-0.009700319
242	0x3d31e186	0.043427967
243	0xbc8afd02	-0.016966347
244	0xbcfb28cc	-0.030659102
245	0xbd695413	-0.056964945
246	0xbd20d965	-0.039269824
247	0x3d9255e1	0.07145286
248	0x3b388af5	0.0028158997
249	0xbcf35229	-0.029702263
250	0xbd0a58bb	-0.033776026
251	0xbd1cf635	-0.03832074
252	0x3b55fe25	0.0032652703
253	0x3a8607bf	0.0010225697
254	0xbca0fd97	-0.019652171
255	0xbd0e7765	-0.034781832

encoder.4.block.0.bias f4 [32]
0	0x3d9e613e	0.07733391
1	0xbd189144	-0.03724791
2	0xbdc2d34c	-0.09512958
3	0x3c178f4b	0.009250472
4	0xbdd996ab	-0.10624441
5	0xbc717b0c	-0.014738809
6	0xbb0dcdd1	-0.0021637569
7	0xbd8ac580	-0.067759514
8	0x3c7660d4	0.015037734
9	0xbda0c13a	-0.07849355
10	0x3d907c1d	0.07054923
11	0xbd9fc5ae	-0.07801376
12	0x3a3dfba3	0.00072472746
13	0x3d92735c	0.07150909
14	0x3d8f0415	0.069832005
15	0xbdabb830	-0.0838474
16	0x3b1126a1	0.0022148269
17	0x3dbd7a06	0.0925179
18	0xbd829427	-0.06375914
19	0x3ce02ad1	0.027364166
20	0x3c1ec5e9	0.00969074
21	0xbd95f616	-0.07322328
22	0xbd20853c	-0.039189562
23	0x3dc75890	0.09733689
24	0xbc49955a	-0.012303675
25	0x3c5d5a9c	0.0135103725
26	0x3da8f523	0.08249881
27	0xbca1b0f3	-0.019737696
28	0xbd8fb391	-0.070166714
29	0xbc530c87	-0.012881405
30	0x3dea1523	0.11429813
31	0x3d1ab10e	0.03776651

encoder.4.block.2.weight f4 [32, 32, 3, 3]
0	0x3cc5aba1	0.02412969
1	0xbd914e26	-0.07094984
2	0x3d1adffd	0.037811268
3	0xbc9bcb1e	-0.019017752
4	0xbd8c71c0	-0.068576336
5	0x3d306bf4	0.043071702
6	0xbd111ead	-0.035429645
7	0xbd158542	-0.036504038
8	0x3db02569	0.086008854
9	0xbd33564a	-0.043783464
10	0x3ce52ab7	0.02797447
11	0x3c6c0bbc	0.014407095
12	0x3d34db29	0.04415432
13	0x3d090f56	0.03346189
14	0x3d15a5be	0.036535017
15	0xb968e756	-0.00022211423
16	0x3d4bf987	0.049798515
17	0x3d6311d5	0.055436928
18	0xbc94ef69	-0.018180566
19	0xbc5c9cc9	-0.013465115
20	0x3d8a8df8	0.0676536
21	0xbd4aed8b	-0.049542945
22	0xbcf86bd1	-0.030324848
23	0x3c521936	0.012823394
24	0xbd164ba4	-0.03669323
25	0xbd2e7f85	-0.04260208
26	0xbd7f5f34	-0.062346652
27	0x3b936356	0.0044979258
28	0x3d18a34c	0.037265107
29	0xbc40a6ff	-0.011758565
30	0x3d811293	0.06302371
31	0x3c621af0	0.013800368
32	0xbd50de06	-0.050992988
33	0xbc7d7122	-0.0154688675
34	0x3c22245e	0.009896366
35	0x3d3b73d9	0.045764778
36	0xbd2be4c1	-0.041966204
37	0xbcb651d6	-0.02225582
38	0x3d891f18	0.06695384
39	0xbda70ab1	-0.08156336
40	0xbc04743d	-0.008084354
41	0xbcb6b350	-0.0223023
42	0xbd923e64	-0.07140806
43	0x3d4de2ab	0.050264996
44	0xbd5f2963	-0.05448283
45	0x3cd6a185	0.026200065
46	0xbc2112ee	-0.009831173
47	0x3d19b3d2	0.037525006
48	0x3da15e7d	0.0787935
49	0x3c757b68	0.014983036
50	0xbd18606a	-0.037201323
51	0x3c815869	0.015789228
52	0x3c449530	0.01199846
53	0xbd55790a	-0.052117385
54	0x3d850a32	0.06496085
55	0xbd7d4ba4	-0.061839715
56	0xbc54d5ff	-0.012990474
57	0x3c79715f	0.015224784
58	0x3d0a4a8e	0.033762507
59	0xbd5f546f	-0.05452388
60	0xbc0681e9	-0.008209684
61	0x3d95b71a	0.073103145
62	0xbd2ac831	-0.041694824
63	0xbb812346	-0.0039409725
64	0xbce71d16	-0.028212111
65	0xbd88652e	-0.066599235
66	0x3d1a40ee	0.037659578
67	0xbcf1d6a5	-0.029521296
68	0xbd6ad732	-0.057334132
69	0xbd409550	-0.047017395
70	0xbc7a05c6	-0.015260166
71	0x3cee83b3	0.029115533
72	0xbd217867	-0.039421465
73	0xbd896f14	-0.067106396
74	0xbc95e079	-0.018295513
75	0xbd0025fb	-0.03128622
76	0x3cbaa7fa	0.022785176
77	0xbc1b98ee	-0.0094969105
78	0x3c3c3b53	0.011488753
79	0x3d6a50d6	0.057205997
80	0xbc9ab225	-0.018883774
81	0xbc95a72c	-0.01826819
82	0xbcf2f530	-0.02965793
83	0x3dd8a823	0.105789445
84	0xbd1eea56	-0.0387977
85	0x3d12b2b4	0.035814956
86	0x3d682cf0	0.05668348
87	0xbcc3e564	-0.023913093
88	0xbd837004	-0.0641785
89	0x3d4f46ee	0.050604753
90	0x3d5b6fb2	0.053573318
91	0xbd51bb8b	-0.051204246
92	0xbc3cf0ae	-0.011531992
93	0x3d250545	0.04028823
94	0xbd48bcbf	-0.049008127
95	0x3d04d71e	0.032431714
96	0x3cb227cb	0.02174749
97	0xbd0a6510	-0.033787787
98	0x3d54eaf8	0.051981896
99	0x3c7aa3b9	0.015297824
100	0xbd850e8b	-0.064969145
101	0xbcfd89b8	-0.030949458
102	0xbd890d4d	-0.0669199
103	0xbb200ad0	-0.0024420507
104	0x3cdd1e2e	0.02699193
105	0xbcb0ff3b	-0.021606078
106	0x3d9ce275	0.07660381
107	0xbcf90e89	-0.030402439
108	0xbd06f2ec	-0.032946512
109	0xbc9c8ec9	-0.019111054
110	0x3dba0f00	0.09084892
111	0xbd9325a9	-0.071849175
112	0x3d39e64c	0.045385644
113	0xbd488159	-0.04895148
114	0xbd44dde5	-0.048063178
115	0xbd0f758d	-0.035024215
116	0xbd3e4b81	-0.046458725
117	0x3da7a599	0.08185882
118	0xbd084234	-0.03326626
119	0x3d58dd4a	0.052945413
120	0x3d84c555	0.064829506
121	0xbc4b4992	-0.012407677
122	0xbd1b73bd	-0.037952174
123	0x3c30f7cf	0.01080127
124	0xbc742431	-0.014901207
125	0xbd6a52cf	-0.05720788
126	0x3d462036	0.048370562
127	0xbc7cd8ce	-0.01543255
128	0xbbed789e	-0.0072470447
129	0x3d37ac2c	0.04484193
130	0xbc5a231d	-0.013314036
131	0xbce4f4b9	-0.027948724
132	0x3d195aa7	0.03743997
133	0xbd831305	-0.06400112
134	0x3d63f50e	0.055653624
135	0xbb85b26c	-0.0040801074
136	0x3e0a2303	0.13489918
137	0xbb1251ed	-0.0022326664
138	0xbbc9add2	-0.006154754
139	0x3d261b31	0.040553275
140	0xbcdc58dd	-0.026897842
141	0xbcf39021	-0.029731812
142	0xbda5746e	-0.08078848
143	0x3b89d087	0.0042057666
144	0x3c838af2	0.016057465
145	0x3bb4e3bf	0.0055203135
146	0xbc1e6afa	-0.00966906
147	0x3c0b26cd	0.008493138
148	0x3d842f3d	0.064543225
149	0x3c236ce7	0.009974695
150	0x3c424122	0.011856349
151	0x3d4c2841	0.049843077
152	0xbccf8f41	-0.025336863
153	0xbd9635b0	-0.07334459
154	0xbc01d019	-0.0079231495
155	0xbcd3c8da	-0.02585261
156	0x3d046881	0.032326225
157	0xbca2f551	-0.019892367
158	0x3d654ad2	0.055979557
159	0x3d34398e	0.0440002
160	0x3d52577b	0.05135296
161	0x3bda125c	0.0066550206
162	0x3bfb5faf	0.0076713185
163	0x3ce371d1	0.027764233
164	0xbc587ea9	-0.013213792
165	0x3d07c394	0.033145502
166	0xbd12eac9	-0.03586844
167	0xbd3e5fcf	-0.04647809
168	0x3d017e8a	0.031614818
169	0x3c310f31	0.010806845
170	0xbc908fa7	-0.017646624
171	0x3d728763	0.059211146
172	0x3c895391	0.01676348
173	0x3c8b92a0	0.01703769
174	0xbc063734	-0.008191872
175	0xbd6ffc6b	-0.058590334
176	0x3ce4c05d	0.027923757
177	0x3c65a077	0.014015309
178	0x3d270d39	0.040784094
179	0xbd80fa36	-0.06297724
180	0xbd14baf4	-0.036311105
181	0x3db6e220	0.08929849
182	0x3dfc2532	0.12311782
183	0xbd36d5b9	-0.044637416
184	0x3cb39d4a	0.021925587
185	0xbdc1d7bd	-0.09464977
186	0xbd8c4562	-0.06849171
187	0x3d3e3468	0.046436697
188	0xbc524893	-0.012834686
189	0xbca2626b	-0.01982232
190	0xbb30c7fc	-0.0026974669
191	0xbd57776c	-0.052604124
192	0xbd853ec6	-0.06506114
193	0xbd3d1dc8	-0.04617098
194	0x3c393fdd	0.01130673
195	0x3ce72242	0.028214578
196	0xbcdc4988	-0.026890531
197	0xbcce7ccd	-0.025205994
198	0x3d759404	0.05995561
199	0x3b04ebde	0.002028219
200	0xbd82e241	-0.06390811
201	0xbcaec609	-0.021334665
202	0x3c8f64eb	0.017504176
203	0x3d0ce082	0.034393795
204	0xbc7c0606	-0.0153822955
205	0x3d21413e	0.03936886
206	0xbd06db64	-0.03292407
207	0xbc84683b	-0.016162982
208	0xba1ff79d	-0.0006102266
209	0x3c42472b	0.011857788
210	0x3caec064	0.021331973
211	0x3d48372f	0.048880752
212	0xbc6ddeaa	-0.014518419
213	0xbcaec374	-0.021333434
214	0xbc83253e	-0.01600897
215	0xbccf9a8e	-0.025342252
216	0xbd98e1b9	-0.07464928
217	0x3d47ecf3	0.048809957
218	0x3cc42ad7	0.023946209
219	0x3aee36eb	0.0018174326
220	0xbd88254c	-0.06647739
221	0x3d4df47f	0.050281998
222	0xbd7ea88d	-0.06217246
223	0xbc8c12ef	-0.017098872
224	0xbcea3438	-0.028589353
225	0xbc656209	-0.014000424
226	0x3c79e595	0.0152524905
227	0xbd8abd5c	-0.06774399
228	0xbb72abb5	-0.0037028615
229	0x3c9b2289	0.018937366
230	0x3c9f332c	0.01943358
231	0x3d282462	0.041050322
232	0x3b02cc74	0.001995829
233	0xbb35512f	-0.0027666797
234	0xbcf899b4	-0.030346729
235	0xbd9bdeea	-0.07610877
236	0xbd983543	-0.07432034
237	0x3d0ba54d	0.03409319
238	0xbcd8d694	-0.026469506
239	0x3ccd9f01	0.025100233
240	0x3c362580	0.011117339
241	0x3cbe12b2	0.023202274
242	0xbcc8c827	-0.024509503
243	0x3da2eda2	0.07955481
244	0x3cb54cb1	0.022131296
245	0xbcb6f16c	-0.022331916
246	0xbb1dc481	-0.0024073424
247	0x3c524d24	0.012835775
248	0xbd2ec5d3	-0.04266913
249	0x3d940f79	0.07229514
250	0x3d0b85b1	0.034063045
251	0xbc0e8822	-0.008699449
252	0x3d26172e	0.04054945
253	0xbb468381	-0.0030290785
254	0xbbb95118	-0.005655419
255	0x39d68760	0.00040918123

encoder.4.block.2.bias f4 [32]
0	0x3d38e213	0.045137476
1	0x3be74a29	0.007058401
2	0x3ce52521	0.027971806
3	0xbc992ee0	-0.01869911
4	0xbca82f75	-0.020530442
5	0xbd3de029	-0.046356354
6	0xbc475eae	-0.0121685695
7	0x3d2274ff	0.039662357
8	0xbd957997	-0.07298582
9	0xbd8ac3f9	-0.0677566
10	0x3d8e56e7	0.06950169
11	0xbd0d38d8	-0.03447804
12	0x3d54ea98	0.05198154
13	0xbcda3ee6	-0.02664132
14	0xbd6054e8	-0.054768473
15	0x3b93062a	0.004486819
16	0xbc95dd54	-0.018294014
17	0xbd945710	-0.07243168
18	0x3c73c91f	0.014879494
19	0xbd1ba47f	-0.037998673
20	0xbd0718cb	-0.03298263
21	0x3cb07f1c	0.021544985
22	0x3d745668	0.059652716
23	0xbd0e8fbe	-0.034805052
24	0x3c95aef9	0.01827191
25	0x3d56feaf	0.05248898
26	0xbd632c98	-0.05546245
27	0x3d9692af	0.073521964
28	0xbb8cf488	-0.0043016113
29	0x3bd14e07	0.0063874754
30	0x3d47deb8	0.048796386
31	0xbd65b1b1	-0.056077663

encoder.6.block.0.weight f4 [64, 32, 3, 3]
0	0x3b87e89c	0.0041476022
1	0xb9162f6c	-0.00014322781
2	0x3dc76837	0.09736674
3	0x3d94f246	0.072727725
4	0xbc38bcb4	-0.011275459
5	0xbc0baac4	-0.0085246
6	0xbd88d1e2	-0.06680657
7	0xbd66b5f7	-0.05632588
8	0xbc4bd000	-0.012439728
9	0xbc5477b8	-0.012967996
10	0xbb180369	-0.0023195392
11	0x3ce3fe07	0.02783109
12	0xbc5b7670	-0.013394937
13	0x3cc2d547	0.02378334
14	0x3c39e425	0.011345898
15	0xbd70000a	-0.058593787
16	0xbd5e0033	-0.05419941
17	0xbd94caff	-0.07265281
18	0xbcbe7fc1	-0.023254277
19	0x3d8fc9fe	0.07020949
20	0x3c9e6b46	0.019338261
21	0xbce7227f	-0.028214691
22	0x3d3f4e72	0.04670567
23	0x3d6a05f1	0.057134572
24	0xbc407599	-0.0117467875
25	0xbd7d7520	-0.061879277
26	0xbbafd5d2	-0.0053660655
27	0x3d21b34c	0.03947763
28	0x3cdefa8f	0.027219085
29	0x3d42f13b	0.047593337
30	0xbcd79e24	-0.026320525
31	0x3d14aa4f	0.03629523
32	0xbc36b5c3	-0.011151734
33	0xbd7f2773	-0.06229348
34	0x3d8c7911	0.06859029
35	0x3d594ca1	0.053051595
36	0x3b276431	0.0025541896
37	0xbc75e014	-0.015007038
38	0xba4a7d66	-0.00077243743
39	0x39a0e2e9	0.0003068664
40	0x3b32e0f6	0.0027294732
41	0x3bc7bfab	0.0060958466
42	0x3c521488	0.012822278
43	0x3c2b1777	0.010442606
44	0xbc352a45	-0.011057441
45	0xbc83455f	-0.01602429
46	0xbd238744	-0.03992392
47	0x3ca5f06e	0.020256247
48	0xbce55e3b	-0.027999034
49	0x3a13b873	0.000563509
50	0xbc5f326b	-0.01362286
51	0xbda16f54	-0.07882562
52	0xbe44a9e3	-0.19205432
53	0xbe361fea	-0.17785612
54	0xbe2f293b	-0.17105572
55	0xbd96a91f	-0.07356476
56	0x3d72710e	0.05918985
57	0x3cb9b920	0.022671282
58	0xbda24fe7	-0.079253964
59	0xbccd5b9f	-0.025068102
60	0x3b9859c5	0.0046493732
61	0xbd8cb293	-0.06869998
62	0xbc407e92	-0.011748927
63	0x3d52c486	0.05145695
64	0x3ce0c43d	0.027437324
65	0xbbfde9e4	-0.007748829
66	0x3beedd4d	0.0072895647
67	0xbd8c9efd	-0.06866262
68	0xbc3e9efa	-0.011634583
69	0x3ca2936d	0.019845689
70	0x3c948f35	0.018134693
71	0x3d57e3ba	0.05270741
72	0xbc7a6fa8	-0.01528541
73	0x3d26fdd6	0.04076942
74	0x3c24dc00	0.010062218
75	0xbd7e3e29	-0.062071
76	0x3b91cba2	0.0044493238
77	0xbcb6a06a	-0.022293288
78	0xbca47420	-0.020074904
79	0x3d4cb60d	0.049978305
80	0x3d4a126c	0.049333975
81	0xbd49a258	-0.04922709
82	0xbd36acae	-0.044598274
83	0x3d477464	0.048694983
84	0xbbd5c398	-0.0065235607
85	0xbcd4203b	-0.025894275
86	0x3cd2d804	0.02573777
87	0xbd63f729	-0.055655632
88	0x3c74f1aa	0.014950195
89	0xbcac135b	-0.021005323
90	0x3cfbe4db	0.030748775
91	0x3d4b41de	0.049623363
92	0xbbd69150	-0.0065480843
93	0x3d0f0642	0.034918077
94	0x3cc5e933	0.02415905
95	0x3d4d8474	0.050175145
96	0x3d9bc16a	0.0760525
97	0xbd82bcb2	-0.06383647
98	0x3d8103ed	0.06299577
99	0xbd50b8b3	-0.050957393
100	0x3d076390	0.033053935
101	0xbc50b562	-0.0127385575
102	0xbd802a59	-0.06258077
103	0xbd52ae20	-0.05143559
104	0xbd68539f	-0.056720372
105	0xbd67bd8b	-0.056577247
106	0xbd71c7a3	-0.05902828
107	0x3bce9767	0.0063046697
108	0xbca725d2	-0.020403776
109	0x3d1b9bfa	0.037990548
110	0x3d5f9d69	0.054593477
111	0xbd5f8fca	-0.054580487
112	0x3cdbe44e	0.026842263
113	0x3d5f212f	0.054475006
114	0x3d39cf62	0.04536379
115	0x3ca67255	0.02031819
116	0xbd5837c1	-0.052787546
117	0xbd8196a3	-0.0632756
118	0xbd435ee7	-0.047697928
119	0xbc457e7b	-0.012054081
120	0x3d1cf2d1	0.038317505
121	0xbcb14223	-0.021637982
122	0xbca4bfe2	-0.020111028
123	0xbd62d12e	-0.05537527
124	0x3cf4711b	0.02983909
125	0xbd1a5107	-0.03767493
126	0xbbb03b2f	-0.005378149
127	0xbd1428de	-0.036171786
128	0x3d0258a9	0.031822834
129	0xbd869f8f	-0.06573402
130	0xbe0d81bd	-0.13819022
131	0xbd9b0636	-0.07569544
132	0xbdbc4cb1	-0.09194315
133	0xbde35c4c	-0.111015886
134	0xbd78d985	-0.060754318
135	0x3d250f6e	0.040297918
136	0xbd067bbe	-0.032832853
137	0xbd052a4e	-0.032511048
138	0xbd778a32	-0.060434528
139	0x3ce9f5a5	0.028559515
140	0xbd17dd63	-0.037076365
141	0x3c86b920	0.016445696
142	0x3d168933	0.036751937
143	0x3d0caa73	0.03434224
144	0x3d371a03	0.04470254
145	0x3d3cbe2b	0.046079796
146	0xbca38573	-0.019961094
147	0x3cb17477	0.02166198
148	0xbc1ef7a2	-0.009702595
149	0x3d183bbf	0.037166353
150	0xbdbd9590	-0.092570424
151	0x3b88babd	0.0041726516
152	0xbce36158	-0.027756378
153	0xbd528942	-0.05140043
154	0xbd004247	-0.031313207
155	0x3d20d693	0.039267134
156	0xbd07749e	-0.0330702
157	0xbda4edfa	-0.08053203
158	0xbd2b8dbc	-0.041883215
159	0xbe288460	-0.16456747
160	0xbd5648b1	-0.052315418
161	0xbd3eafa6	-0.04655423
162	0xbd20fcb8	-0.03930351
163	0x3cde8f0c	0.02716782
164	0x3d0e58b6	0.03475257
165	0xbbf9527d	-0.0076087103
166	0xbcc5d44e	-0.024149086
167	0xbcd6b37a	-0.026208628
168	0xbba4485b	-0.0050135083
169	0x3c2c6dc9	0.010524222
170	0x3d2ef709	0.04271606
171	0xbcba7c77	-0.022764428
172	0x39daaac5	0.00041707433
173	0x3d323a22	0.04351247
174	0x3d79d470	0.06099361
175	0xbd001802	-0.031272896
176	0xbc19df7b	-0.009391661
177	0x3cd2eb35	0.025746921
178	0xbd91bcae	-0.07116066
179	0xba50eef0	-0.0007970175
180	0x3c48edee	0.012263758
181	0xbd18ada4	-0.03727497
182	0x3c00ba6c	0.007856946
183	0x3c3eb661	0.011640162
184	0x3d01d49a	0.031696893
185	0xbd14aa05	-0.036294956
186	0xbda5a1ec	-0.08087525
187	0xbca8c21c	-0.020600371
188	0xbd04c58d	-0.03241496
189	0x3d5b32d6	0.053515278
190	0xbd5930b9	-0.05302498
191	0xbc801225	-0.015633652
192	0xbd0b428e	-0.03399902
193	0xbd8d547d	-0.069008805
194	0xb7962ae8	-1.7901373e-05
195	0xbd504d33	-0.050854873
196	0xbd8d0aba	-0.068868116
197	0x3d957048	0.072968066
198	0xbc1c0143	-0.009521785
199	0xbc5e88e2	-0.01358244
200	0x3c352704	0.011056665
201	0x3db198b7	0.08671706
202	0x3d8b9c56	0.06816928
203	0x3d62b1c6	0.05534532
204	0xbd457c4e	-0.04821425
205	0xbd819f1a	-0.06329174
206	0xbd611667	-0.054953005
207	0xbd6596ea	-0.056052126
208	0x3d0e5d4c	0.034756944
209	0xbd5aff3b	-0.053466063
210	0x3c78e63c	0.015191611
211	0xbd3403d2	-0.043948956
212	0xbd1aea51	-0.037821118
213	0xbc19f3de	-0.009396521
214	0xbd36ff94	-0.044677332
215	0x3ca02ced	0.019552672
216	0x3cf85654	0.030314602
217	0xbb13ee07	-0.0022572295
218	0xbcd44e7a	-0.025916327
219	0xbc111bfa	-0.008856768
220	0x3c1e2265	0.009651755
221	0x3d8156fd	0.0631542
222	0xbda45f95	-0.08026043
223	0xbd43625a	-0.047701217
224	0xbc877f50	-0.0165402
225	0xbd0f8993	-0.03504331
226	0x3c1c1a5e	0.009527771
227	0x3d26c1f4	0.040712312
228	0xbc8dfb21	-0.017331662
229	0x3d9b8d7d	0.07595346
230	0x3da45852	0.08024658
231	0xbcb7a2b9	-0.02241646
232	0xbd26273d	-0.040564764
233	0xba8e2a3c	-0.0010846327
234	0x3d2d6be8	0.042339236
235	0xbcaeae67	-0.021323396
236	0x3d3b566a	0.045736708
237	0xbc84eb5a	-0.016225506
238	0x3d41ebde	0.04734408
239	0x3c43eeec	0.011958819
240	0x3d0b3043	0.033981573
241	0xbc92f9b3	-0.017941331
242	0x3c4b47a4	0.012407217
243	0x3bbb3ab0	0.005713783
244	0x3bfdb3e5	0.0077423924
245	0xbd231a16	-0.0398198
246	0xbc9c57e6	-0.019084882
247	0x3d90ef05	0.07076839
248	0x3d470e2d	0.048597503
249	0xbd1b5887	-0.037926223
250	0xbd4fcb12	-0.050730772
251	0x3d3914c9	0.045185838
252	0xbd65d2ac	-0.056109115
253	0xbc82ba66	-0.015958022
254	0xbc33de97	-0.0109783625
255	0x3be43cf1	0.0069652726

encoder.6.block.0.bias f4 [64]
0	0x3bdc5140	0.006723553
1	0xbd934d87	-0.071925215
2	0xbd46fe40	-0.048582315
3	0x3d5799c1	0.052636866
4	0xbd3f6c73	-0.046734285
5	0xbc90cb3e	-0.017675038
6	0x3ca71725	0.020396778
7	0xbd4fb567	-0.050710108
8	0xbc9a0c80	-0.018804789
9	0x3d140b6e	0.036143713
10	0x3d519ceb	0.05117504
11	0xbd814e4d	-0.06313763
12	0xbd837e2a	-0.06420548
13	0xbd525248	-0.051348
14	0x3d0537f9	0.032524083
15	0xb86880fa	-5.543323e-05
16	0xbb76419d	-0.003757573
17	0xbcc317c6	-0.023815047
18	0x3d8c96ea	0.06864722
19	0x3d16694a	0.036721505
20	0xbc843706	-0.016139518
21	0xbd14232a	-0.036166348
22	0x3daa400e	0.08312999
23	0xbc01f333	-0.007931518
24	0x3d2fc7ed	0.042915273
25	0xbd0c35f0	-0.034231126
26	0x3a27b808	0.0006397967
27	0xbcd662ad	-0.0261701
28	0xbc0145ef	-0.007890209
29	0xbcc27821	-0.023738923
30	0x3b028ec9	0.0019921532
31	0x3c129808	0.00894738
32	0x3ca31afd	0.01991033
33	0x3d1ff622	0.03905309
34	0xbd76407b	-0.060120087
35	0xbc233f51	-0.009963826
36	0x3d0cb4a0	0.034351945
37	0xbc3cb20f	-0.011517062
38	0xbd3112e9	-0.043230925
39	0x3ae09a7a	0.0017135881
40	0xbc01a107	-0.007911927
41	0x3d15d7f5	0.036582906
42	0xbd5edbd2	-0.054408856
43	0xbbfc4524	-0.007698672
44	0x3d2d7b10	0.04235369
45	0x3cae087c	0.02124428
46	0x3d004c80	0.031322956
47	0x3db62dca	0.08895452
48	0x3b8efe49	0.0043638092
49	0xbd367532	-0.04454536
50	0x3d9d09f2	0.076679125
51	0xbd52f518	-0.05150327
52	0xbcb5ac5d	-0.022176916
53	0xbcee2392	-0.029069696
54	0x3c113a33	0.008863973
55	0xbd1a5fc5	-0.03768899
56	0x3c1704bb	0.009217436
57	0xbcfb23b2	-0.03065667
58	0xbd18951d	-0.03725158
59	0x3d2af40d	0.04173665
60	0xbd82b2a5	-0.0638173
61	0x3cf0098c	0.029301427
62	0x3c111520	0.008855134
63	0xbb0a10ab	-0.0021067064

encoder.6.block.2.weight f4 [64, 64, 3, 3]
0	0x3c9a510b	0.018837472
1	0xbc9a83d8	-0.018861696
2	0x3c74d05a	0.014942253
3	0x3c120920	0.008913308
4	0x3ced562e	0.028971758
5	0x3d09a123	0.033600938
6	0x3c7e53e5	0.015522932
7	0x3cac25d3	0.02101413
8	0x3d2f1937	0.042748656
9	0xbc8547a1	-0.016269507
10	0x3d707827	0.058708336
11	0x3ce583af	0.028016893
12	0xbc889126	-0.016670775
13	0xbc3a0482	-0.011353614
14	0x3d12c96b	0.03583662
15	0xbc6bcb3d	-0.0143917175
16	0x3cd2d878	0.025737986
17	0xbc3dcec2	-0.011584939
18	0xbc57a50b	-0.013161908
19	0x3c476304	0.012169603
20	0xbc5f6896	-0.013635775
21	0x3d8cc5c6	0.0687366
22	0xbd2fec3c	-0.0429499
23	0x3d0a0883	0.033699524
24	0x3d2a981b	0.041648965
25	0x3d30df3b	0.04318164
26	0x3c896c5c	0.016775303
27	0x3d18909a	0.037247278
28	0xbd171ba0	-0.03689158
29	0xbc488cef	-0.012240632
30	0xbc8da53f	-0.01729071
31	0xbd63749e	-0.055531137
32	0xbcd39965	-0.02582998
33	0x3be2b27a	0.0069182487
34	0xbc8a08b6	-0.016849857
35	0xbce80a05	-0.02832509
36	0xbd25e04c	-0.04049711
37	0x3be293b4	0.0069145802
38	0xbc8d8a78	-0.017277941
39	0xbd03eadd	-0.032206405
40	0x3cffad0a	0.031210441
41	0x3d2bf724	0.04198374
42	0xbb7fb86a	-0.0039019831
43	0xbc60ca92	-0.0137201715
44	0xbd647368	-0.055774122
45	0x3ced74f8	0.02898644
46	0x3a9bc639	0.0011884636
47	0xbc968861	-0.018375577
48	0x3d14d33f	0.036334272
49	0xbd36f5da	-0.044668056
50	0x3cee221e	0.029069003
51	0x3ca8dc75	0.020612935
52	0x3d302f9f	0.043014165
53	0xbd13c76c	-0.036078855
54	0xb9fea53d	-0.00048569767
55	0xbc929d18	-0.017897174
56	0xbb4e8437	-0.0031511912
57	0x3bbee54a	0.005825673
58	0x3b98ec63	0.0046668514
59	0x3c069d29	0.008216181
60	0x3ccd2f84	0.025047071
61	0x3d1ee435	0.038791854
62	0xbd303a57	-0.043024387
63	0xbc3160d6	-0.01082631
64	0xbbd88489	-0.0066075963
65	0x3bbf093c	0.0058299582
66	0xbc1ad3e8	-0.009449936
67	0xbc2d7f7e	-0.010589479
68	0xbd26ab60	-0.04069078
69	0xbd16c231	-0.03680629
70	0xbae17e55	-0.0017203788
71	0xbcdb4a97	-0.026768966
72	0xbbe06b95	-0.0068487623
73	0xbd0c7584	-0.03429176
74	0x3be9f727	0.0071400586
75	0x3c64919a	0.01395073
76	0x3c2dcfd2	0.01060863
77	0xbd39ff79	-0.045409653
78	0xbbc4cdca	-0.0060059773
79	0xbd08ed2c	-0.03342931
80	0x3cd1a40b	0.025590917
81	0x3d91e22d	0.07123218
82	0xbcdb5709	-0.0267749
83	0x3d563b92	0.052302904
84	0xbc85a5d7	-0.01631443
85	0xbd12372c	-0.035697147
86	0x3d3195d6	0.043355785
87	0xbba7f301	-0.005125404
88	0xbc417487	-0.011807567
89	0xbc1255b7	-0.008931569
90	0xbb8cfa06	-0.004302266
91	0x39292362	0.00016130277
92	0x3bbf1be8	0.005832184
93	0x3b4d2873	0.0031304627
94	0x3c90baeb	0.017667254
95	0xbcc70e41	-0.024298789
96	0x3d0887cb	0.033332627
97	0x3d08f805	0.033439655
98	0xbd027213	-0.03184707
99	0x3c17b853	0.009260255
100	0x3bd13334	0.0063842777
101	0xbd62d458	-0.055378288
102	0xbaa289b9	-0.0012400664
103	0xbc8a5b5f	-0.016889272
104	0xbd57a23d	-0.052644957
105	0xbd6b7851	-0.05748779
106	0xbbb9a813	-0.005665788
107	0x3cc45545	0.02396644
108	0xbd03072c	-0.03198926
109	0xbbe0820c	-0.0068514403
110	0xbd18a591	-0.03726727
111	0x3cb22086	0.021744024
112	0x3d1f9720	0.038962483
113	0xbcfc839d	-0.030824477
114	0xbc5ba354	-0.01340564
115	0xbd0d079b	-0.03443108
116	0xbc97b47c	-0.018518679
117	0xbc9a955b	-0.018870046
118	0xbaf3e011	-0.0018606206
119	0xbb7798a5	-0.0037780192
120	0x3ca6a6f3	0.02034328
121	0x3c205ea9	0.009788194
122	0xbc9252e1	-0.017861785
123	0x3d21f48e	0.039539866
124	0x3d1c79d5	0.038202126
125	0xbce9d22f	-0.028542606
126	0x3d3e04b9	0.046391223
127	0x3d207e7a	0.039183117
128	0x3bbfde80	0.0058553815
129	0xbcbf8608	-0.02337934
130	0xbcc093ac	-0.023507915
131	0x3d0fdb84	0.035121456
132	0xbcdb10fd	-0.0267415
133	0x3d0f0702	0.034918793
134	0x3c9e3d7f	0.019316433
135	0x3c89a0c1	0.016800286
136	0x3d15a8c1	0.03653789
137	0xbca78653	-0.020449793
138	0x3d10dc1e	0.03536617
139	0xbc1de59c	-0.009637263
140	0x3d24e787	0.040259864
141	0x3c61c7a2	0.013780506
142	0xbc89fe29	-0.016844826
143	0xbc2b01b0	-0.010437414
144	0x3caa5b39	0.020795451
145	0xbc9c7278	-0.019097552
146	0x3caf0a46	0.021367203
147	0xbc8e3e48	-0.017363682
148	0x3bb3c128	0.0054856725
149	0xbbc9f987	-0.006163779
150	0xbd30dc80	-0.043179035
151	0xbcfc65e2	-0.0308103
152	0xbd5d37e3	-0.054008376
153	0x3c0c78b4	0.0085737
154	0xbc9ec311	-0.019380124
155	0x3d4045f3	0.04694171
156	0x3cf06549	0.029345172
157	0x3cee21b9	0.029068815
158	0x3d065fd8	0.032806247
159	0xbdcadfeb	-0.0990599
160	0x3cfcc419	0.030855225
161	0xbce7b9bb	-0.028286805
162	0x3b0849a5	0.0020795849
163	0x386149d6	5.3712945e-05
164	0xbc2abb0c	-0.010420572
165	0xbb2eeea1	-0.0026692527
166	0xb91507f2	-0.00014212707
167	0xbc507663	-0.012723538
168	0x3ad370b8	0.0016131615
169	0x3cab8e5f	0.020941911
170	0xbcf2212d	-0.029556835
171	0x3c0529bb	0.008127625
172	0xbc149bc6	-0.009070342
173	0xbcb35ee0	-0.021895826
174	0xbc56f3d1	-0.013119654
175	0x3bd14ac0	0.0063870847
176	0xbd9397e8	-0.07206708
177	0xbc972849	-0.018451827
178	0xbd559837	-0.052147117
179	0x3d23e87e	0.040016644
180	0xbcc3817e	-0.023865458
181	0x3ccc17ac	0.024913631
182	0xbcc6329b	-0.024194052
183	0x3ce5dcab	0.028059324
184	0xbd5ab08c	-0.053391024
185	0xbc247902	-0.010038616
186	0x3ceee267	0.029160691
187	0xbc338192	-0.010956185
188	0xbc2bfba0	-0.010497004
189	0xbd35ef31	-0.044417564
190	0x3c2c98f5	0.010534515
191	0x3cbd0bea	0.02307697
192	0x3d9269ce	0.07149087
193	0x3cb6311a	0.02224021
194	0x3d41a2fd	0.04727458
195	0x3b18cee2	0.002331667
196	0xbc2a1a23	-0.010382208
197	0x3cb2009c	0.021728806
198	0x3ce68a12	0.028142009
199	0xbd42dcbd	-0.047573794
200	0xbc1cd041	-0.009571136
201	0x3b8766f6	0.004132147
202	0xbb5e9f7c	-0.0033969572
203	0xbc2c6ad4	-0.010523517
204	0x3cd64e18	0.026160285
205	0xbd9219ba	-0.07133813
206	0x3b57a7fd	0.0032906525
207	0xbcc45f5e	-0.023971256
208	0xbd38c5a0	-0.045110345
209	0x3c607a3d	0.013701019
210	0x3b684ba2	0.0035445471
211	0xbcd3c20b	-0.025849363
212	0x3c4c8206	0.012482172
213	0x3d7c821e	0.061647527
214	0x3d7c3ebf	0.061583277
215	0xbd0d566b	-0.034506243
216	0xbd173ad8	-0.036921352
217	0xbcdb746e	-0.026788916
218	0x3c4b4a8a	0.012407908
219	0x3d358011	0.044311587
220	0xbbf2ba01	-0.0074074273
221	0xbb392a3d	-0.0028253936
222	0xbbfe014b	-0.007751619
223	0xbd0be821	-0.034156922
224	0x3c1bf1e7	0.009518123
225	0xbd39a458	-0.045322746
226	0xbca82d6e	-0.020529475
227	0xbcb32ad8	-0.021871015
228	0xbc77cc2b	-0.015124361
229	0xbb02cda0	-0.0019958988
230	0x3c18c9e8	0.009325482
231	0xbbd1c748	-0.00640193
232	0x3d89c952	0.06727852
233	0xba7f192d	-0.00097312295
234	0x3d3e01ae	0.04638832
235	0x3d3d1b71	0.04616875
236	0x3d7034a9	0.05864397
237	0x3d2fd510	0.0429278
238	0x3d799108	0.06092933
239	0x3c988346	0.018617284
240	0xbb620855	-0.003448983
241	0x3d0600a5	0.03271546
242	0xbc4e4deb	-0.012591819
243	0x3d124f6a	0.035720266
244	0xbd0bd7c2	-0.03414131
245	0x3d538858	0.0516437
246	0x3d212e54	0.039350823
247	0x3c973132	0.018456075
248	0x3cae0b36	0.02124558
249	0xbc0bb1d1	-0.008526281
250	0xbc64cc37	-0.013964704
251	0x3d970b12	0.07375158
252	0xbd3b7d6d	-0.045773912
253	0x3cc67d31	0.024229618
254	0x3ca349c3	0.019932633
255	0x3be707e3	0.0070505007

encoder.6.block.2.bias f4 [64]
0	0xbc9343c1	-0.017976644
1	0x3ca740bb	0.020416608
2	0xbc52c985	-0.012865429
3	0xbc3cb23a	-0.011517102
4	0x3cf1fc24	0.029539175
5	0xbccdccac	-0.02512201
6	0xbc9154bd	-0.017740602
7	0xbd312008	-0.043243438
8	0xbc2a6888	-0.010400899
9	0xbbac448a	-0.005257194
10	0xbd4493d5	-0.047992546
11	0xbc00ab61	-0.00785336
12	0x3b53c896	0.0032315603
13	0xbb31c7bc	-0.0027127108
14	0xbc4277a5	-0.011869346
15	0x3cb98e82	0.02265096
16	0x3d6c9904	0.057763115
17	0x3cb24152	0.021759663
18	0xbd2d4678	-0.042303532
19	0xbcdb6708	-0.026782528
20	0xbd169bca	-0.036769666
21	0x3caa9103	0.0208211
22	0x3d3dc3bc	0.046329245
23	0x3d51f5a2	0.051259644
24	0x3c80cdb5	0.015723089
25	0x3c9ed885	0.019390354
26	0x3d35f286	0.04442074
27	0xbc87adfd	-0.016562456
28	0x3d295013	0.04133613
29	0xba665b3e	-0.00087874
30	0x3c86ed64	0.016470619
31	0x3ce929db	0.028462341
32	0x3d04e3db	0.032443862
33	0x3c98d61e	0.018656787
34	0x3d05b3ea	0.032642283
35	0x3b43488d	0.0029797882
36	0xba73245b	-0.0009275132
37	0xbc3a47d4	-0.011369664
38	0x3ca3b896	0.019985478
39	0xbd2c2eee	-0.042036943
40	0xbc51950f	-0.012791886
41	0xbbc53f41	-0.0060195033
42	0xbca2ecfd	-0.019888395
43	0x3d2f7557	0.042836513
44	0xbd1cd76c	-0.03829138
45	0xbc460879	-0.012086981
46	0xbd1ca743	-0.03824545
47	0x3b1b5e64	0.0023707384
48	0xbd27ddd9	-0.040983055
49	0x3c9dde1a	0.019270945
50	0x3d115885	0.03548481
51	0xbc1897b8	-0.009313516
52	0x3c8a5043	0.016883975
53	0x3c8a8f73	0.016914105
54	0x3cf9e6c9	0.030505555
55	0xbd4fdfe3	-0.050750624
56	0xbb2822b7	-0.0025655457
57	0xbd106a56	-0.03525766
58	0x3d04f0e6	0.0324563
59	0x3c0adc18	0.008475326
60	0x3c588c8b	0.013217102
61	0x3c3c2727	0.011483944
62	0x3b215680	0.0024618208
63	0x3c9026a0	0.017596543
